wavae_notebooks/WAV/Various-ups-downs/model-relu-1500/model-relu-1500.onnx (onnx, 68775 bytes, 5 tensors)

fc.weight f4 [2048, 3]
-0.41562742 0.26446596 0.2572107 -0.30451614 0.4593522 0.13996312 0.055029277 -0.12886578
-0.06473809 0.42187408 0.13088967 -0.25406462 -0.40789527 -0.17743868 -0.18318765 -0.36845955
-0.30839157 -0.3121727 0.5217005 0.4692627 -0.15354373 -0.2745431 -0.028258074 -0.13400143
0.40359175 -0.0711512 0.41580662 0.4021806 -0.08955474 0.37960792 0.39258182 -0.39078736
-0.44528472 0.14691152 -0.22878437 -0.0062569934 0.5029414 0.0704387 -0.28984565 -0.11415528
0.27783972 0.044734392 -0.19742234 -0.2642129 -0.15195212 0.1640211 -0.40636972 -0.24613912
-0.27576897 0.21723568 -0.38845438 0.1163028 0.2092136 -0.03285547 -0.38691127 -0.025265036
-0.37085757 0.20483479 -0.36082393 0.21047115 0.24274562 -0.107888885 0.13219588 0.24988528
0.30639282 -0.38365874 0.39657053 0.028430307 -0.19615854 0.34396666 -0.6382974 -0.48087886
0.33581176 -0.42802772 -0.26517 -0.16686258 -0.19247842 0.09775627 -0.37378156 -0.22831306
-0.028292112 0.17355402 -0.17065945 0.0850324 -0.3195304 -0.005201665 -0.00969354 -0.04891494
0.13216895 0.32652035 -0.053428993 0.20117968 -0.37624508 0.4098269 -0.31111372 -0.23982167
-0.3207712 0.19413508 0.40371025 0.27199918 -0.20276499 -0.42135328 -0.22014739 -0.50379014
-0.40218613 -0.16354536 -0.045344476 -0.00273772 -0.23272943 -0.2045039 0.25807226 -0.06857509
0.19998574 0.08837451 -0.43922254 0.017470002 -0.17145021 0.35460734 -0.25794938 0.49075913
0.2842148 0.25260738 0.48378202 0.4001529 -0.3062961 -0.13545637 -0.30362415 -0.2577207
-0.04831677 -0.45552978 0.0037936307 0.4577206 -0.15279165 0.5198564 0.39916864 0.17475234
-0.084717624 0.31449282 0.23867753 0.0089337835 0.33567277 -0.33076823 0.044317007 -0.33370736
-0.5196232 -0.3520791 0.44874388 -0.15378466 -0.37862346 0.16456671 0.15324178 -0.4462597
-0.06764012 0.40858728 -0.30677006 -0.113124005 -0.069481984 0.0073844427 -0.17204109 -0.0003319129
0.51633894 -0.33502764 -0.28964946 -0.23228179 0.26245627 0.026642425 0.28534442 -0.3827752
-0.40363878 0.0923355 -0.46685287 -0.020809736 -0.1759008 0.4718001 -0.19801138 -0.4042553
0.1625331 0.30527195 0.22635762 0.32029366 0.25201413 0.18630016 0.67333114 -0.014453054
0.04279677 0.118789665 0.042343296 0.21838614 -0.3239838 -0.4533552 -0.44343776 0.26589966
-0.3018346 -0.043307196 0.55062747 -0.3193269 0.34270027 -0.3312858 0.37656698 -0.1453285
-0.26242962 -0.13245253 0.052207354 -0.198616 -0.019899026 0.1276442 -0.33993152 -0.41640806
-0.18706279 -0.008919414 0.27171227 0.1353456 0.41028056 0.4095181 -0.03751406 -0.28619897
-0.12564205 0.25655207 0.36094964 -0.08546952 -0.2411337 0.13518783 0.39015222 0.360399
0.16161537 0.16268305 -0.5610682 0.06877249 0.44075638 0.034704044 -0.08355094 -0.11860272
0.2794425 -0.362705 -0.1972171 0.031460002 0.4638186 0.5752903 0.48314998 0.314873
-0.13586703 -0.3714195 0.3039439 -0.3977606 0.07109407 0.043611832 -0.48862475 -0.30181307
-0.22880468 0.14907072 -0.38728392 0.1582221 0.11452791 -0.4101564 -0.36231735 -0.32692382
00000000: 1ecd d4be 1568 873e 1fb1 833e 8ae9 9bbe
00000010: 3630 eb3e 7e52 0f3e 6166 613d 64f5 03be
00000020: 6795 84bd e1ff d73e f107 063e c214 82be
00000030: a6d7 d0be 7cb2 35be 8b95 3bbe bba6 bcbe
00000040: 80e5 9dbe 1ad5 9fbe 2a8e 053f 3343 f03e
00000050: 913a 1dbe ea90 8cbe 7a7d e7bc ac37 09be
00000060: 94a3 ce3e b8b7 91bd 9be4 d43e 9eea cd3e
00000070: 7a68 b7bd f85b c23e 7c00 c93e 4815 c8be
00000080: 5cfc e3be f96f 163e 7346 6abe 7707 cdbb
00000090: c5c0 003f 2a42 903d a666 94be 3eca e9bd
000000a0: 0241 8e3e 693b 373d 1529 4abe ea46 87be
000000b0: 5699 1bbe 26f5 273e b10f d0be e50b 7cbe
000000c0: 9731 8dbe 0873 5e3e 7ee3 c6be 2a30 ee3d
000000d0: 173c 563e 7593 06bd 3c19 c6be 9ff8 cebc
000000e0: 0be1 bdbe 36c0 513e eabd b8be c085 573e
000000f0: 4f92 783e d9f4 dcbd 5b5e 073e ede1 7f3e
00000100: 85df 9c3e eb6e c4be 4b0b cb3e ade6 e83c
00000110: c9dd 48be 661c b03e 7567 23bf c135 f6be
00000120: 85ef ab3e 7326 dbbe 5dc4 87be 06de 2abe
00000130: 1019 45be 7034 c83d 4c60 bfbe e6ca 69be
00000140: dcc4 e7bc 25b8 313e 5ac1 2ebe 7825 ae3d
00000150: 7d99 a3be bb72 aabb a7d1 1ebc 085b 48bd
00000160: 4c57 073e ad2d a73e 5cd8 5abd 0c02 4e3e
00000170: 32a3 c0be d5d4 d13e 4c4a 9fbe d093 75be
00000180: 1f3c a4be 59cb 463e 1cb3 ce3e 7a43 8b3e
00000190: a0a1 4fbe 9ebb d7be 516e 61be 64f8 00bf
000001a0: 57eb cdbe 6f78 27be 21bb 39bd 526b 33bb
000001b0: a050 6ebe 7869 51be 0c22 843e 1971 8cbd
000001c0: 10c9 4c3e b2fd b43d c7e1 e0be 401d 8f3c
000001d0: a590 2fbe 188f b53e f111 84be c844 fb3e
000001e0: 9a84 913e c155 813e 47b2 f73e d7e0 cc3e
000001f0: d8d2 9cbe 13b5 0abe a074 9bbe f8f3 83be
00000200: cee7 45bd 333b e9be 909e 783b 5b5a ea3e
00000210: 6a75 1cbe 4f15 053f d55f cc3e 47f2 323e
00000220: 6f80 adbd 3405 a13e e267 743e 015f 123c
00000230: 4ddd ab3e 745a a9be c085 353d b1db aabe
00000240: 0706 05bf b643 b4be c2c1 e53e ba79 1dbe
00000250: efda c1be 2d84 283e 6aeb 1c3e 277c e4be
00000260: e786 8abd 5a32 d13e f710 9dbe 8fad e7bd
00000270: 924c 8ebd 32f9 f13b 8a2b 30be 9804 aeb9
00000280: ca2e 043f be88 abbe ef4c 94be 47db 6dbe
00000290: ab60 863e 3741 da3c aa18 923e 1cfb c3be
000002a0: bea9 cebe 651a bd3d 5707 efbe 2e79 aabc
000002b0: 571f 34be c88f f13e 7fc3 4abe 8dfa cebe
000002c0: 146f 263e 9b4c 9c3e 4bca 673e 88fd a33e
000002d0: ff07 813e 78c5 3e3e 6e5f 2c3f 81cc 6cbc
000002e0: aa4b 2f3d ff47 f33d 2a70 2d3d 9ea0 5f3e
000002f0: 34e1 a5be 2c1e e8be 460a e3be 0024 883e
00000300: 118a 9abe e362 31bd ecf5 0c3f d17e a3be
00000310: 6976 af3e 4b9e a9be 63cd c03e ffd0 14be
00000320: 2d5d 86be a3a1 07be 61d7 553d fe61 4bbe
00000330: 4803 a3bc 29b5 023e 810b aebe 7033 d5be
00000340: 638d 3fbe bc22 12bc df1d 8b3e 0998 0a3e
00000350: 4b10 d23e 5bac d13e 58a8 19bd ac88 92be
00000360: 4fa8 00be cb5a 833e 64ce b83e a50a afbd
00000370: c1eb 76be ae6e 0a3e 08c2 c73e 3886 b83e
00000380: 807e 253e 6396 263e 2aa2 0fbf 97d8 8c3d
00000390: d2aa e13e d425 0e3d c11c abbd fce5 f2bd
000003a0: 1613 8f3e 78b4 b9be 48f3 49be 34dc 003d
000003b0: a279 ed3e 3a46 133f 6f5f f73e 0937 a13e
000003c0: ba20 0bbe b22a bebe 899e 9b3e 47a7 cbbe
000003d0: c599 913d 52a2 323d 062d fabe 3e87 9abe
000003e0: c64b 6abe ffa5 183e 144a c6be f904 223e
000003f0: 9c8d ea3d 0500 d2be a981 b9be 8f62 a7be

fc.bias f4 [2048]
-0.15010813 0.36764094 -0.10670132 0.08612421 -0.329216 0.42307627 -0.27803242 -0.4708289
-0.44486132 0.1015738 0.45418006 0.30980065 -0.21794294 0.66602015 -0.29319555 0.34892663
-0.062127944 -0.4268052 0.4167582 -0.366319 0.633355 -0.3936932 0.05442654 -0.4022309
-0.42661485 0.0607044 -0.09253514 0.018615229 0.57691336 -0.3544097 -0.4660027 0.084827624
-0.1601434 -0.1290895 -0.2417232 -0.0058190823 -0.14451244 -0.23593965 0.052958585 -0.16156016
0.59311926 0.65757495 -0.25269368 -0.02381649 0.23711792 -0.4224083 -0.34532407 0.4670591
0.11443352 0.32843113 -0.2662951 -0.34852523 0.052404664 0.22691143 0.3853182 0.27171513
0.28781757 0.5038245 0.49890915 0.31377086 0.12077807 0.33139792 0.58893657 -0.29814124
-0.34576353 -0.1718425 0.0017248573 -0.20291837 0.102860235 0.25135458 -0.31868574 0.47219145
0.35247445 0.09090522 0.3528444 -0.21549869 0.5204298 -0.36533985 0.3158642 0.18872656
0.13270064 0.34657893 0.5047517 0.22156999 0.3979858 -0.11889201 -0.4478446 0.49820837
0.18846984 -0.42982748 -0.06448507 0.20240477 0.39659047 0.07038407 0.34612507 -0.48587936
-0.5154043 0.5197336 -0.46566933 -0.03128336 -0.39028785 -0.3021008 -0.5609171 0.50970656
0.16286375 -0.64477307 0.49478805 0.09201426 0.16942216 -0.39300305 -0.26171657 0.27206987
0.29918393 -0.41377163 -0.39175355 -0.15857014 -0.12587775 0.08048959 -0.43819624 0.2146653
0.112055525 0.24853374 0.44157523 -0.57802814 -0.11176578 -0.24896395 0.394725 -0.4220153
0.35235724 0.08979227 -0.5130777 -0.25010574 0.027474305 -0.3978018 0.5452636 0.42037567
-0.1842505 -0.07828749 0.2766045 0.310761 0.35102502 0.51898354 0.3022883 0.4556855
-0.3330424 -0.31694 0.28884995 0.022634665 -0.6462573 -0.22498289 -0.31048998 -0.5223893
-0.3104787 0.46396425 -0.25506988 0.21334851 -0.18430865 -0.10621173 -0.078753345 0.56063664
0.56441665 -0.107902095 -0.44387966 0.5389447 0.17764276 -0.38635692 0.3467344 -0.4027079
-0.5105666 -0.50657874 0.3636271 0.12528522 -0.025667123 0.3567556 0.52462894 -0.46946245
0.09126367 -0.056566287 -0.53182596 0.4562658 -0.51391613 -0.02370361 -0.433522 -0.0049146884
0.39578894 -0.09517236 0.054508075 0.09911587 0.36143276 -0.053724647 0.49982718 0.46124882
-0.34818253 -0.39346883 0.26789376 0.47846463 0.2588351 -0.09411326 0.21389543 -0.08637451
0.15135552 0.23943768 -0.049694825 -0.6184233 0.5262176 -0.085410886 -0.28137642 -0.5315472
0.3744066 0.09943739 -0.026959758 -0.111803606 -0.63635963 0.5453629 0.17511685 -0.0627519
0.21198577 0.040559363 0.49113488 -0.35857663 0.34497583 0.55433184 -0.5761677 0.088562794
0.50857544 0.40919536 0.15075926 -0.34347397 0.14863186 0.40993777 -0.62848157 0.5089901
0.35361812 0.23160271 -0.14750007 0.33075246 -0.38275415 -0.22041833 -0.14385685 -0.63780993
0.47102922 -0.5978523 -0.50274247 0.06099294 -0.20248803 0.33858243 -0.51265156 0.2511264
-0.4370234 -0.6339385 0.048947275 -0.120795466 0.12675482 -0.5404862 0.5236557 -0.6074946
00000000: f2b5 19be 6f3b bc3e 3986 dabd e461 b03d
00000010: 008f a8be 749d d83e 445a 8ebe 7c10 f1be
00000020: ddc4 e3be ed05 d03d 4a8a e83e 319e 9e3e
00000030: 6f2c 5fbe 4c80 2a3f ba1d 96be 83a6 b23e
00000040: df79 7ebd 3686 dabe 5561 d53e 2a8e bbbe
00000050: 8e23 223f 2892 c9be 5dee 5e3d 35f1 cdbe
00000060: 436d dabe 2da5 783d 1083 bdbd f77e 983c
00000070: 98b0 133f 3075 b5be e897 eebe 1bba ad3d
00000080: a2fc 23be 0a30 04be 4986 77be 00ae bebb
00000090: 12fb 13be 2a9a 71be 1aeb 583d 0770 25be
000000a0: aad6 173f d556 283f 1161 81be cd1a c3bc
000000b0: 0acf 723e e745 d8be 51ce b0be 5f22 ef3e
000000c0: 1f5c ea3d 2028 a83e d557 88be e671 b2be
000000d0: 46a6 563d 785b 683e 6d48 c53e 3f1e 8b3e
000000e0: d35c 933e a4fa 003f 0571 ff3e 93a6 a03e
000000f0: 7e5a f73d fdac a93e 8cc4 163f f8a5 98be
00000100: eb07 b1be 7bf7 2fbe 9b14 e23a d5c9 4fbe
00000110: 63a8 d23d 8cb1 803e c72a a3be 14c3 f13e
00000120: 8877 b43e 842c ba3d 05a8 b43e b0ab 5cbe
00000130: e33a 053f d30d bbbe f4b8 a13e 8941 413e
00000140: ade2 073e cb72 b13e 6837 013f 3ee3 623e
00000150: cbc4 cb3e a77d f3bd e34b e5be 2b15 ff3e
00000160: 3dfe 403e 5912 dcbe c010 84bd 3243 4f3e
00000170: e80d cb3e 8625 903d 4e37 b13e 2ec5 f8be
00000180: 89f1 03bf 430d 053f 366c eebe fb22 00bd
00000190: cfd3 c7be f5ac 9abe 4398 0fbf 217c 023f
000001a0: c1c5 263e d90f 25bf dc54 fd3e f971 bc3d
000001b0: 017d 2d3e b237 c9be b7ff 85be be4c 8b3e
000001c0: a32e 993e e0d9 d3be ec93 c8be 3660 22be
000001d0: 19e6 00be bad7 a43d 425b e0be 38d1 5b3e
000001e0: 5e7d e53d a17f 7e3e 2616 e23e a7f9 13bf
000001f0: 75e5 e4bd 68f0 7ebe 6519 ca3e 6412 d8be
00000200: 2b68 b43e 02e5 b73d 0f59 03bf dc0d 80be
00000210: cb11 e13c adac cbbe 6596 0b3f 7b3b d73e
00000220: 2aac 3cbe 3155 a0bd 1b9f 8d3e 111c 9f3e
00000230: 8db9 b33e 1bdc 043f 88c5 9a3e 9c4f e93e
00000240: 8984 aabe f645 a2be 24e4 933e 556c b93c
00000250: 1e71 25bf ea61 66be 8bf8 9ebe 4ebb 05bf
00000260: 10f7 9ebe b98c ed3e 8598 82be 0878 5a3e
00000270: 68bb 3cbe 8985 d9bd 6f49 a1bd e285 0f3f
00000280: 9c7d 103f c6fb dcbd 3244 e3be 48f8 093f
00000290: fce7 353e 93d0 c5be 2c87 b13e bb2f cebe
000002a0: 7eb4 02bf 25af 01bf 552d ba3e c54a 003e
000002b0: dc43 d2bc aca8 b63e 154e 063f 625d f0be
000002c0: 72e8 ba3d 0db2 67bd bf25 08bf ac9b e93e
000002d0: 0290 03bf 132e c2bc 98f6 ddbe 650b a1bb
000002e0: d9a4 ca3e bae9 c2bd dc43 5f3d 43fd ca3d
000002f0: b70d b93e 600e 5cbd 59e9 ff3e ce28 ec3e
00000300: fb44 b2be bf74 c9be 5f29 893e 51f9 f43e
00000310: 0986 843e 74be c0bd 6707 5b3e 1ee5 b0bd
00000320: f1fc 1a3e 272f 753e cd8c 4bbd fd50 1ebf
00000330: 32b6 063f e7eb aebd 9210 90be 7a13 08bf
00000340: 39b2 bf3e d5a5 cb3d b6da dcbc 4af9 e4bd
00000350: 77e8 22bf e79c 0b3f d551 333e 1184 80bd
00000360: cc12 593e 9321 263d 0876 fb3e 5b97 b7be
00000370: aca0 b03e b1e8 0d3f ba7f 13bf 6960 b53d
00000380: 0032 023f 0e82 d13e a360 1a3e d2db afbe
00000390: f332 183e 5de3 d13e 2be4 20bf 2d4d 023f
000003a0: 6f0d b53e 4329 6d3e 420a 17be 6358 a93e
000003b0: 5af8 c3be 58b5 61be 364f 13be 8347 23bf
000003c0: be2a f13e d90c 19bf bbb3 00bf bcd3 793d
000003d0: 0659 4fbe ad5a ad3e 223d 03bf a493 803e
000003e0: 88c1 dfbe cb49 22bf f07c 483d 9d63 f7bd
000003f0: 04cc 013e 4e5d 0abf 4d0e 063f c484 1bbf

conv2.weight f4 [32, 16, 4]
0.114714965 0.051446725 -0.04434609 0.023897612 -0.01995251 -0.094134256 -0.055378057 0.010953474
-0.024834316 -0.077104725 0.035462882 0.0004513778 0.011738944 -0.009231565 0.018707464 0.039061964
-0.08724609 -0.02842785 0.002698547 -0.078586124 -0.013014217 0.04515922 -7.756665e-05 0.03498669
-0.005970123 -0.027257238 -0.086405836 0.0043804343 -0.039771732 -0.063454725 0.023711933 -0.029993016
0.059957497 0.018801892 -0.09408438 0.07020364 0.083146885 0.0860637 -0.10088187 -0.049530774
-0.07913324 0.015283679 -0.0077447053 -0.025850791 -0.03332879 0.0135054095 -0.03583234 0.033757508
-0.017190294 -0.020198315 0.0006158266 0.019827222 -0.00037919308 -0.032070346 0.025398044 0.0020246624
-0.0046119825 0.00951079 -0.015023246 0.050968803 -0.07594967 -0.04926392 0.055635512 0.07607544
0.060702555 0.06753805 0.06020749 0.09085749 0.08352125 -0.009420718 0.09012148 -0.0658812
0.0038229367 0.030921416 0.044291902 -0.07956071 -0.043765962 0.040281072 -0.02511479 0.046792768
-0.0011390038 0.044132054 -0.032376386 0.027465144 0.051478807 0.021927536 0.0754424 -0.028937535
-0.061319437 0.06046345 0.053191897 -0.024182063 0.053421274 0.052085355 -0.025891287 0.024801318
0.017752921 -0.016030617 -0.075676754 0.06632061 0.020129586 -0.020738775 0.06771263 -0.04295514
0.07172089 0.020575698 0.09052294 0.090108655 -0.035262253 -0.07879277 -0.048389647 -0.08913338
-0.008989074 0.02551107 -0.064678155 -0.034710787 0.095881194 -0.02476663 0.05315043 -0.016533922
-0.013697401 -0.010993709 -0.02894233 0.0025512888 0.021406727 -0.07181254 0.04091169 -0.027957236
-0.060829334 -0.025223838 0.03617054 0.03460466 0.0018119847 -0.022148322 -0.0019282295 -0.007718233
0.03370324 -0.04085308 -0.07187808 -0.045774937 0.039077837 -0.00658551 0.07814536 -0.0130995475
-0.0026447799 -0.05511874 -0.082858816 -0.01970064 -0.033394415 -0.045340486 -0.083036125 -0.097850524
0.0041862163 -0.073198244 0.009127465 -0.0494201 -0.035209235 0.020767407 -0.009638282 -0.0038732153
-0.0916964 -0.037562683 -0.069741815 -0.09128243 -0.12407058 -0.067440145 0.0171758 0.043820944
-0.051828634 0.0026639302 -0.073500365 0.031922333 -0.056882057 -0.0045537357 -0.031867027 0.04270345
-0.023679469 -0.059754185 -0.05202514 0.016822126 -0.040843822 0.048388477 -0.0060688397 0.05445895
-0.060762327 -0.08075164 -0.087656595 -0.050610825 0.008472016 0.032351587 -0.01913441 0.08244797
0.08057432 -0.057633832 0.08211439 -0.036481436 -0.08215448 0.10004237 0.035685986 -0.03936141
0.053070553 -0.011053033 -0.01910074 0.045552734 -0.0076174913 -0.0019582796 0.061961867 0.011822319
0.073136814 0.0051516867 0.014483877 -0.018443692 0.07820971 0.0077065034 0.0021876113 -0.09236247
0.049489047 -0.0030036012 0.0951575 -0.10657076 -0.0062558474 0.055261053 0.040009167 -0.072901554
0.0045760637 -0.077173546 -0.033859383 0.05587705 0.02250326 0.018865677 0.055692937 0.021541009
0.064526126 0.03330308 -0.016999232 0.06407013 -0.04543684 -0.06976429 -0.05871531 0.013122648
-0.051021457 -0.027598772 0.08008712 -0.005035635 0.09628517 0.0100792805 -0.060950544 -0.045308564
0.003320739 0.041135933 -0.03544184 0.013918475 -6.719971e-08 0.09191123 -0.03683169 -0.059180386
00000000: aeef ea3d cdb9 523d 3fa4 35bd edc4 c33c
00000010: 7273 a3bc 76c9 c0bd 1ad4 62bd 3376 333c
00000020: 5671 cbbc 15e9 9dbd 8741 113d e7a6 ec39
00000030: b354 403c fd3f 17bc 6540 993c 70ff 1f3d
00000040: 14ae b2bd 86e1 e8bc 1bda 303b c3f1 a0bd
00000050: 9539 55bc e0f8 383d 47ab a2b8 344e 0f3d
00000060: 06a1 c3bb 924a dfbc 8bf5 b0bd bf89 8f3b
00000070: afe7 22bd 8df4 81bd 873f c23c eab3 f5bc
00000080: fe95 753d 6d06 9a3c 50af c0bd edc6 8f3d
00000090: ea48 aa3d 2a42 b03d 279b cebd c8e0 4abd
000000a0: 9c10 a2bd 6568 7a3c 4cc7 fdbb 0ac5 d3bc
000000b0: c583 08bd cb45 5d3c efc4 12bd 5045 0a3d
000000c0: a9d2 8cbc f076 a5bc 6c6f 213a b36c a23c
000000d0: 6fce c6b9 325c 03bd 8f0f d03c 33b0 043b
000000e0: 1d20 97bb 25d3 1b3c 1024 76bc aac4 503d
000000f0: 808b 9bbd f7c8 49bd 10e2 633d 71cd 9b3d
00000100: 3ea3 783d 6451 8a3d 219c 763d 7e13 ba3d
00000110: 300d ab3d 5b59 1abc 9c91 b83d b9ec 86bd
00000120: 3c8a 7a3b e94e fd3c 6d6b 353d baf0 a2bd
00000130: f043 33bd c4fd 243d 88bd cdbc c6a9 3f3d
00000140: a04a 95ba d0c3 343d 1a9d 04bd 95fe e03c
00000150: 71db 523d 60a1 b33c 8c81 9a3d 690e edbc
00000160: 172a 7bbd 86a8 773d bfdf 593d 7619 c6bc
00000170: 44d0 5a3d 7457 553d f719 d4bc 222c cb3c
00000180: 936e 913c a452 83bc 6afc 9abd 1ad3 873d
00000190: cde6 a43c 5de4 a9bc ebac 8a3d bbf1 2fbd
000001a0: 67e2 923d 5e8e a83c 1764 b93d e38a b83d
000001b0: 276f 10bd 1b5e a1bd 3934 46bd 908b b6bd
000001c0: e946 13bc 97fc d03c fb75 84bd e62c 0ebd
000001d0: 5c5d c43d 63e3 cabc 44b4 593d 2672 87bc
000001e0: 106b 60bc f51e 34bc 7718 edbc 8633 273b
000001f0: 295d af3c 7412 93bd 0493 273d 9306 e5bc
00000200: 2e28 79bd 39a2 cebc 8f27 143d 9ebd 0d3d
00000210: 1e80 ed3a 6670 b5bc a5bc fcba 3be9 fcbb
00000220: 690c 0a3d 8f55 27bd d134 93bd 807e 3bbd
00000230: 1510 203d 43cb d7bb ad0a a03d 7c9f 56bc
00000240: 0b54 2dbb 30c4 61bd e2b1 a9bd 3d63 a1bc
00000250: 95c8 08bd f2b6 39bd d80e aabd db65 c8bd
00000260: 872c 893b f6e8 95bd 5d8b 153c bb6c 4abd
00000270: 8f37 10bd 6920 aa3c e2e9 1dbc c5d5 7dbb
00000280: 52cb bbbd 54db 19bd ccd4 8ebd 48f2 babd
00000290: b718 febd 0f1e 8abd 43b4 8c3c 977d 333d
000002a0: 434a 54bd 5595 2e3b 5c87 96bd fec0 023d
000002b0: 29fd 68bd 8137 95bb 0087 02bd d0e9 2e3d
000002c0: 72fb c1bc cec0 74bd 5018 55bd 8ece 893c
000002d0: da4b 27bd ff32 463d 1edd c6bb 5910 5f3d
000002e0: ebe1 78bd 1e61 a5bd 4d85 b3bd 4c4d 4fbd
000002f0: 36ce 0a3c 1983 043d c4bf 9cbc 7bda a83d
00000300: 2604 a53d 7411 6cbd 972b a83d 8f6d 15bd
00000310: 9c40 a8bd 04e3 cc3d 782b 123d 6e39 21bd
00000320: 8260 593d c817 35bc 2879 9cbc 8195 3a3d
00000330: 269c f9bb 7b56 00bb bacb 7d3d 66b2 413c
00000340: c1c8 953d 7bcf a83b c94d 6d3c 3a17 97bc
00000350: 6a2c a03d d686 fc3b 075e 0f3b 8928 bdbd
00000360: 07b5 4a3d 11d8 44bb efe1 c23d c541 dabd
00000370: dafd ccbb 6a59 623d a7e0 233d 694d 95bd
00000380: cef2 953b 2a0d 9ebd 23b0 0abd 55df 643d
00000390: c258 b83c 318c 9a3c 471e 643d c576 b03c
000003a0: 4626 843d cf68 083d f941 8bbc 3337 833d
000003b0: fb1b 3abd 94e0 8ebd 777f 70bd 6000 573c
000003c0: e0fb 50bd d216 e2bc b704 a43d f801 a5bb
000003d0: 2931 c53d 9123 253c 47a7 79bd 7995 39bd
000003e0: c1a0 593b 277e 283d 762b 11bd 510a 643c
000003f0: 6e4f 90b3 f43b bc3d d4dc 16bd 2267 72bd

conv2.bias f4 [16]
-0.042713787 -0.071463026 -0.15172699 0.0018193015 0.057450347 -0.12876226 -0.110028915 -0.09457998
-0.014365456 -0.026765665 -0.12571509 0.07218341 -0.026350953 -0.08107139 -0.041406296 -0.024433378
00000000: a7f4 2ebd 355b 92bd 525e 1bbe a175 ee3a
00000010: 0e51 6b3d 41da 03be d756 e1bd 26b3 c1bd
00000020: 175d 6bbc ab43 dbbc 75bb 00be e5d4 933d
00000030: f4dd d7bc c208 a6bd a699 29bd 8228 c8bc

conv1.weight f4 [16, 1, 4]
-0.41989723 -0.053148128 -0.31828558 0.21040797 -0.17963994 -0.23550034 0.06726961 0.040970106
0.46644515 0.073231146 -0.13269804 -0.34386912 0.08364898 -0.39639083 0.15271395 0.027716994
-0.39349335 0.29461333 0.19498564 0.28298786 -0.014765745 -0.18624476 0.3138782 -0.09054259
0.42939928 0.30236873 -0.3153636 0.1355985 0.22047244 -0.052497283 -0.09282001 -0.31677446
-0.040501304 0.3245256 -0.005540176 0.048141044 0.031665213 0.101907164 0.42857674 -0.35028508
0.44716567 -0.3581261 -0.20441397 -0.24848108 0.14784025 -0.3026643 -0.0803147 0.09409442
-0.23584744 0.22365381 -0.13141464 -0.0033052566 0.16902216 -0.35872602 0.0073358696 0.30668616
0.17737173 0.013555208 -0.003123741 -0.28891906 -0.14988117 0.4178111 0.3069586 -0.28893736
00000000: c5fc d6be dab1 59bd 54f6 a2be 3075 573e
00000010: 88f3 37be 0027 71be a6c4 893d 45d0 273d
00000020: e6d1 ee3e 36fa 953d ffe1 07be 9d0f b0be
00000030: 2850 ab3d bdf3 cabe 0c61 1c3e c00e e33c
00000040: f677 c9be 8fd7 963e 51aa 473e c9e3 903e
00000050: 06ec 71bc f2b6 3ebe a5b4 a03e 656e b9bd
00000060: 39da db3e 13d0 9a3e 5677 a1be 55da 0a3e
00000070: 87c3 613e 6407 57bd 6b18 bebd 4330 a2be
00000080: b2e4 25bd 3828 a63e 5d8a b5bb 8b2f 453d
00000090: 62b3 013d b4b4 d03d 696e db3e 9158 b3be
000000a0: e6f2 e43e 4e5c b7be e551 51be d371 7ebe
000000b0: 6f63 173e d1f6 9abe 097c a4bd 93b4 c03d
000000c0: fe81 71be 8105 653e 8f91 06be 019d 58bb
000000d0: 2514 2d3e f0aa b7be bc61 f03b f805 9d3e
000000e0: efa0 353e aa16 5e3c adb7 4cbb 33ed 93be
000000f0: 737a 19be 56eb d53e ad29 9d3e 99ef 93be
