wavae_notebooks/WAV/Various-ups-downs/model-relu-1500/model-relu-1500.pt (torch, 103739 bytes, 13 tensors)

encoder.conv1.weight f4 [16, 1, 4]
00000000: 8c3c 75be 2a55 ea3e 33d6 ed3e 4eab 04be
00000010: dde8 a4be a14a 873c d663 fabe f14a 72be
00000020: a0f4 df3e 8f75 f2bd 54ff 13be 947f 843e
00000030: 866a 2e3e c90a a53e 2582 2abe d7c6 c2bd
00000040: 873b dfbe e6f9 ae3e 85d0 f83e 41d2 3c3e
00000050: faf1 8cbe b1ca c6be f17a b63e 6f07 eabe
00000060: 8d61 bd3e 08c0 6d3e 6549 8cbd 32aa 2c3e
00000070: de4c e1be c764 3a3e dcc8 773e f91c c8be
00000080: 4a67 233e fb5d 64be ad98 e73e 0e09 f73e
00000090: 3685 92be df38 75bd 3616 a43e 5723 c7be
000000a0: c7c5 a4bd 0ed6 a33e ef23 c13e bf40 9dbe
000000b0: f8c2 cc3e e5c5 ebbe 4b88 d6be 0d7c 21bc
000000c0: c35e c8be 0c2a be3e 46ec bfbe 69ca b03e
000000d0: 0a3a 4cbe e041 90be ac0f d53e 10cf 06be
000000e0: c82c f13e 2728 873d 8c10 acbe fccd 993e
000000f0: cc27 a3bd 77d4 923b cdcc b53b 00e9 25be
-0.23948878 0.457681 0.46452484 -0.12955973 -0.3220891 0.016515078 -0.48904294 -0.236614
0.43741322 -0.11838829 -0.14452869 0.25878584 0.17032823 0.3223479 -0.16651209 -0.09510582
-0.43600103 0.34175032 0.48596588 0.1843958 -0.27528363 -0.38826516 0.35640672 -0.45708796
0.36988488 0.23217785 -0.068499364 0.168618 -0.44003958 0.18202506 0.24197716 -0.39084604
0.1595737 -0.22301476 0.4523367 0.48249096 -0.28617257 -0.05986869 0.32048196 -0.3889415
-0.080455355 0.31999248 0.37722728 -0.3071346 0.399925 -0.4604942 -0.41900858 -0.009856236
-0.39134797 0.37141454 -0.3748495 0.34529427 -0.19944015 -0.2817526 0.4161352 -0.13164926
0.47104478 0.06599455 -0.33606374 0.30039966 -0.07966575 0.004480894 0.005548096 -0.16202164

encoder.conv1.bias f4 [16]
00000000: dc2a ddbd 6025 e63d 3b64 35bb a32c b33e
00000010: aca7 87bc e0b7 033e a1fc 09be ff40 623e
00000020: 48d2 e6bd 7a3d 3fbe 82c9 ac3d 71ee 96be
00000030: c059 18be 9413 cbbe ad5b e43e 2452 b4bc
-0.107991904 0.112375975 -0.002767815 0.34994993 -0.016559444 0.12863111 -0.13475277 0.22095107
-0.11270577 -0.18675795 0.08436872 -0.2947879 -0.14877987 -0.39663374 0.44601193 -0.022011824

encoder.conv2.weight f4 [32, 16, 4]
00000000: fd1e 02bc a927 823d 38c1 a73d 0fe5 733d
00000010: 2682 c6bd 662d 053d 2d98 fe3d 0679 183d
00000020: 39a3 7d3d 270e f43c c954 c83d eefe 0b3b
00000030: c0eb b7bd 1e7e c63d 32bc 483d 1304 87bd
00000040: ec5f b1bd a2e6 d8bd bf56 f5bd 8ea8 81ba
00000050: 871c 6f3d f622 7c3c c2be 833d ff10 f03c
00000060: 073b e63d 491f 8a37 87e5 7fbd 04ce e23c
00000070: 1431 1a3c 06c3 3abc a1e9 e5bd a500 913d
00000080: aaff a4bd 0aa5 a0bd bf1c 773d bea9 b9bd
00000090: b878 59bd 81ab 68bc e857 273d f1c9 7c3d
000000a0: a6bf bebd 6fc8 5bbd 22c1 ecbd 1e88 f4bd
000000b0: fb03 87bd 134f b33c feb3 f3ba dc05 b63c
000000c0: f859 8c3d 6696 143d b866 a53c b69f 01be
000000d0: 4b08 5081 cf43 af09 dca9 f53b 1a73 223d
000000e0: 63ad 683c e1b4 df3d 6ced a5bd a08b 0ebd
000000f0: ab5e a33a c9f3 953b 8b8d 8d3c 640d 29bb
00000100: 1020 f5bd b843 4fbd f8c2 353b e22c 04bd
00000110: 1a8f 8abd 05d1 eebc 24ea 1208 3079 a582
00000120: 4fa3 a73d e36c 77bc aa84 b53d 95ec 7b3d
00000130: e1de a7bb bef4 6ebd 6f86 4fbd 106c 97bb
00000140: 4f50 69bd 8e07 963d 8fc4 2f3d a3a9 06be
00000150: 15f9 fa3c 18a5 4b3d 01eb a83d 6c53 8ebd
00000160: a32a b3bd 436b 52bd f7ae ffbc 592b b13d
00000170: 3156 343d 9e8e 2bbd d03c 45bd 037f a23d
00000180: 4fe4 5a3d a1d7 a33d 4c64 ab3c bb45 e53d
00000190: 3abf 8d3d 37c3 86bd 5197 6fbd 63db 0d8b
000001a0: a018 07be e976 0ebd e78c b7bc a091 afbc
000001b0: 7ebc 6d3d 03b2 d43d d003 9082 a6a3 7cbd
000001c0: c236 4a3c 5aa6 04bd 8371 aa3b 3a5e 83bd
000001d0: 0c08 c43c d714 56bd 2c8c ae3d ae9e e801
000001e0: 7517 07bd af8b 693d 4c83 9fbd 520e ac3d
000001f0: 82a4 a9ba 0383 983c 1ce3 613c a7dd 1305
00000200: dc47 553c b70e a0bd f24b 2cbd dc70 66bd
00000210: 8096 67bd e5af 8e3d b162 49bd d8ae 8b3d
00000220: f6c3 2fbd e7b4 e9bd 5ff5 b83d 1179 c6bc
00000230: 4456 b33d 419f adbd 7118 37bb 6b94 133d
00000240: 2c7f 96bd 1516 1e3d 6896 683c e118 3ebd
00000250: 5584 25bd 0e45 86bd 4ee7 a2bc ed67 65bb
00000260: 4ec0 5cbd b732 463d 20ac 4bbd 84e3 e83d
00000270: 9466 fcbc 9aa4 f13d 4298 a5bc ff0f 26bd
00000280: dd6e cbbd 1a59 e5bc d282 73bd b88d ec3d
00000290: 4461 80bb 260d da3d 1f7d a6bd faf4 41bc
000002a0: 91fb f33d 7c46 6d3d a744 0abc e704 eabc
000002b0: 18bc 86bc 8ea4 23bc 2bd7 06bd 3fef eb3d
000002c0: d37b 883d d203 903b d766 0cbd d772 783d
000002d0: 0aa7 f53d df2d dfbb 48bb 1e3d 2a3e cb3d
000002e0: 5416 bbbd 4a56 9c3d 7379 d9bd f5dd 253d
000002f0: c51d 1d3b 5fc7 0ebc e7aa 0e3c 19c4 9bbc
00000300: c692 33bd 605a b7bc 7741 c53d a919 f03d
00000310: 5c0b 9a3d 9d48 b8bd 331c 88bd 06c7 debd
00000320: c11f 8bbd e197 aa3d e891 aebd a979 5e3d
00000330: a745 1a3d 10a1 763d b7a2 4bbc 2cc5 06bd
00000340: a0b0 d03d bdc0 a6bd 42f6 e7bd 36a3 9abd
00000350: b8d4 773c 1b7b 613c fa6b a3bc bf5e 803d
00000360: 5e99 903d 7cdf 1ebc 40a8 ca3c cc26 153d
00000370: 55f9 afbd 3f1a 853d 371e ca3c 608f d53d
00000380: acb4 69bd 93e1 c23b 40cc 45ba ad04 033e
00000390: 0c09 ee3b bfa3 55bd 04ba e4bd e420 b03d
000003a0: 7674 89bc cbab b1bd 5dc7 76ba 29a6 8cbd
000003b0: 62b1 633d 605a 413d 47a0 673d 3b90 13bd
000003c0: dd17 ba3c 9e55 60bd 6850 a43d da8f 0abe
000003d0: d5f7 b8bd e4a5 6d3d 4ad3 01bd dd6d 99bd
000003e0: eacf 8f3d 4663 70bd cfe3 a13d 199f 96bd
000003f0: 05ae 35bc a847 23bc fa0b d3bc a2d8 423c
-0.0079419585 0.06355221 0.081911504 0.05954462 -0.096927926 0.032514 0.12431369 0.037224792
0.06192324 0.029791905 0.097817965 0.0021361667 -0.089805126 0.09692024 0.049007602 -0.06592574
-0.08660874 -0.10590865 -0.11979436 -0.0009892152 0.058376815 0.015389195 0.064328685 0.02930498
0.11241727 1.646545e-05 -0.062474754 0.027686127 0.009411115 -0.011399036 -0.11226202 0.07080201
-0.080565766 -0.07843979 0.06033015 -0.09065579 -0.053093642 -0.014201046 0.04085532 0.061716024
-0.09313898 -0.053657945 -0.11560275 -0.11940025 -0.06592556 0.021888291 -0.001859307 0.02221959
0.06853098 0.036276244 0.020190582 -0.12658581 -3.8209516e-38 4.2193484e-33 0.0074970555 0.03966055
0.014201495 0.10923172 -0.08101925 -0.034801126 0.0012464126 0.0045761806 0.017279407 -0.0025795335
-0.11969006 -0.05060169 0.0027734619 -0.032269366 -0.06765576 -0.029152403 4.421051e-34 -2.431413e-37
0.081854455 -0.015101644 0.08863194 0.06150492 -0.005123005 -0.058338873 -0.050665315 -0.0046210364
-0.056961354 0.0732566 0.042912062 -0.13150649 0.03063635 0.049717993 0.082479484 -0.06949505
-0.08748367 -0.051371824 -0.03121136 0.08650846 0.04402751 -0.041884057 -0.0481537 0.07934382
0.05344039 0.08000112 0.020921849 0.11194941 0.06921239 -0.06580203 -0.058493916 -2.732066e-32
-0.13192987 -0.03478137 -0.022406055 -0.021431744 0.05804109 0.103855155 -2.1161087e-37 -0.061679505
0.012342157 -0.032385208 0.00520152 -0.06414457 0.023929618 -0.05226597 0.085228294 8.5451035e-38
-0.032981355 0.05701798 -0.07788715 0.08401169 -0.0012942704 0.018617159 0.013787057 6.952618e-36
0.013017621 -0.07815307 -0.042064615 -0.056259975 -0.056540012 0.06967143 -0.049166385 0.06820458
-0.042911492 -0.114114575 0.09031176 -0.02422765 0.08756688 -0.08477641 -0.0027938152 0.036030214
-0.07348475 0.038595278 0.014196016 -0.046410445 -0.040409405 -0.0655614 -0.019885685 -0.0035004572
-0.053894334 0.04838821 -0.049724698 0.1137152 -0.030810632 0.117989734 -0.020214204 -0.0405426
-0.09933255 -0.027996588 -0.05945093 0.11550468 -0.003917845 0.10647039 -0.08129334 -0.011838192
0.11913217 0.057928547 -0.00843922 -0.02856679 -0.016447112 -0.009987963 -0.032920044 0.11520242
0.066642426 0.0043949867 -0.034277763 0.060656395 0.11994751 -0.006810888 0.038752824 0.09923966
-0.09135118 0.07633646 -0.10618868 0.040494878 0.0023974043 -0.008714526 0.0087077385 -0.019014405
-0.043841146 -0.022381961 0.09631627 0.11723644 0.07521698 -0.08998225 -0.066460036 -0.108778045
-0.06793166 0.0832975 -0.08523923 0.054315243 0.037664082 0.060212195 -0.012428931 -0.03290288
0.101899385 -0.08142231 -0.11326267 -0.07550661 0.0151264 0.013762261 -0.019948948 0.062680714
0.070605025 -0.0096968375 0.024738431 0.036413953 -0.08592478 0.06499147 0.02467261 0.10427737
-0.057057068 0.0059473007 -0.0007545389 0.12794752 0.007264262 -0.052158114 -0.11168292 0.086000234
-0.016779166 -0.08675345 -0.0009413863 -0.0686763 0.055589087 0.04720533 0.056549337 -0.03602622
0.022716457 -0.05476915 0.08023149 -0.13531438 -0.09031645 0.058019534 -0.03169564 -0.07491658
0.07022078 -0.058688425 0.07904779 -0.07354564 -0.011088853 -0.009965815 -0.025762547 0.01189247

encoder.conv2.bias f4 [32]
00000000: ea0a 6f3b 91f1 03be 7ad2 e63c 5f59 cd3c
00000010: 6d65 443d 4015 dc3d a4bf 5d3d 2f67 383c
00000020: 9e8b 003e abaf c13d ddc7 06bd af48 b0bc
00000030: 5c07 c5bc ea99 cd3a ecf3 df3d da58 453d
00000040: 1026 03bd 4197 c83d b482 953d 3bb1 983c
00000050: adc8 2e3d f843 893d 3c47 6d3d 270e 2e3d
00000060: 54bf 983d 4060 87bd 23b9 053c 7b2a d6bd
00000070: 4b5f d23d 933e 893d 91f8 bfbd a72c 45bd
0.003647501 -0.12885119 0.028176535 0.02506703 0.04794829 0.107462406 0.05413784 0.01125507
0.1255326 0.09457334 -0.03290545 -0.021519033 -0.02405136 0.0015686129 0.10935196 0.04818044
-0.03201872 0.097944744 0.0730032 0.018639198 0.042671848 0.06702417 0.057929263 0.042493965
0.07458368 -0.06610155 0.008161816 -0.10457321 0.10272082 0.06701388 -0.09373582 -0.048138287

encoder.fc_mu.weight f4 [3, 2048]
00000000: a171 8d3c 9087 823b f510 eeba 3732 793c
00000010: e270 db3b 43fe b538 d7bb 553a da3a 08bd
00000020: e805 b7bb c6d0 b53b 706e 0fbc 4f26 0cbc
00000030: 2d6e a2bc 4b58 9e3b b995 0b3c 0eb9 e2bb
00000040: 3cab 9b3c 48b3 783c 01b2 83bc 0799 ed3b
00000050: a010 d53b b0ac c53c c252 7e3b 60e9 ab3c
00000060: cac3 bbbb 0273 9dbc 87c9 4f3a 9282 f73a
00000070: 6161 15bb 97fd 81bc a719 bf3b b141 32bc
00000080: 650e 4ebc 3b8a e5bc 82ea 3f39 668d d53c
00000090: 3ba0 95bc 6dd5 12bc 882e 56bc b8d1 753c
000000a0: 1adc eebb 8dda 9dbb 3e11 8bbc f7dd 55bc
000000b0: e6b0 173a 6b19 52bc afa3 893b 6aa6 fe3b
000000c0: ee19 9cbc 146b 12bc 85a6 5f3a cbd3 99bc
000000d0: 88cc d23b cfcd 8abc 0366 14bc b641 bb3c
000000e0: daac bfbb 69dc 94bb 28e9 993c a0b7 353c
000000f0: 6fe8 3dbb e4dc ee3b ba29 5cbc 8a45 d93b
00000100: d6cf 503c f716 99bb 8853 e9bb e1db 85bb
00000110: 182d a8bb 029e 42bc 7b95 7bbc 724a 3bbb
00000120: b29c 4f3c 8daf 953c 2a43 183c 95df 2fbb
00000130: 4a69 bf3b 5d93 33bc 2b48 9b3c e3f8 31bc
00000140: 91d7 37ba a048 d1b9 184f 18bb ab74 003b
00000150: 9e5c 7cb9 5ed5 9b3c 29b3 89bb e084 91bc
00000160: 2aca e7ba 0cd4 62bb bece 5fbc 273c 96bc
00000170: 0d82 c3bb b026 ff3b 4367 31bc 1a0d 9bbc
00000180: a916 a1bc 0818 16bc 772c af3c 75fa 33bc
00000190: c946 3dba c850 99bc 33eb 943a d8a5 d33c
000001a0: 53e2 b73c ed78 803c 502e 363c 583f d83c
000001b0: 61eb 3c3c 1c63 383b dffe c43b dfd1 dfbb
000001c0: fbb0 763c 98ce 0c3c c81d f4bb b915 50bc
000001d0: 6f8d b03b 41f5 863c fdcd 7d3c e046 9b3b
000001e0: 027f 2cbc 9225 b73b 0820 bf3c c658 d1bc
000001f0: 9fbd 41bc df8b 573c 9127 21ba 7420 ba81
00000200: fa86 b0bb 8cb2 683c ee2d 223c 0c21 a6bc
00000210: 52f6 523c 0fb9 6f3c a13e 7e3b 0de3 3d3c
00000220: 574e 153c 0d9e ecb7 40a1 8a3c ccad 4a3c
00000230: 29f6 993b 3084 83bc d26d b8ba e6cd 4a3b
00000240: 7be9 28bc 3230 033c 281c b43c 61f3 eb3b
00000250: d446 babc ff68 e33c f561 2fb8 7906 b8bc
00000260: 4b8e a13b d2ed 083a 473d 823b c3f2 30bc
00000270: 57b9 513c 7896 49bc ddc9 21bc d758 45bb
00000280: 7663 9a3c 5350 b03c b91a a8bc 102f cebc
00000290: faa5 83bc b104 d239 e0b9 e2bb 9868 2f3a
000002a0: 8908 6a3c 31c5 883c 0f22 263b b3c4 50bc
000002b0: eaf7 50bc fe11 4b3b b984 9abc c66c 593c
000002c0: e829 91bc 3abe d7bb a77e 203c 076e 62bc
000002d0: feb2 84bb 7778 a93c 8861 853b 06df 68bc
000002e0: 24ab c13b b7aa ccbc 1c9d 9bbb 8118 e8bc
000002f0: 0189 32bc d8db a93c 6626 5abb c807 993c
00000300: 005f 0d3d 0261 243c a1e1 a2bb d026 50ba
00000310: 4ed1 bcba 0768 883b 2253 2b3c d30f a6bc
00000320: ea33 5fbc cd0a 1fbc 16b9 853c 090f 963b
00000330: da95 813c 6af5 a83c 6387 213b 3a55 31bc
00000340: 5a45 5ebc 9f46 4dbc b591 cfbb a5c6 54bb
00000350: 4d96 223c 39a9 8fbc 3a85 18bc ded8 bdbc
00000360: 40b7 0f3b 2ed6 2bbb 56e9 b2bc bbe4 fabb
00000370: d709 b0bc 05f5 aebc 3217 c73b 9dbb 733c
00000380: 0a97 053c 4d73 aebb eb6d dabc 62e8 143c
00000390: 6a8d a2bc 3592 26bc 5f3c 35bc b6f0 c93c
000003a0: 1de0 13bc fde2 1fbc c1fa 1b3b 1c41 a3bb
000003b0: ff2f 89bb bd4e c5bb 8e73 51bc e875 c6bc
000003c0: 8dbd 6dbc 013e d5bc 4ca0 87bc e647 d53b
000003d0: b593 20bc 0db4 3a3c 7456 93bc 2c8c 313c
000003e0: c40a 853b 0b9f 5cbc 5c24 a5bc 40ee cebc
000003f0: 9719 7d3b 9160 bc3c 871c b13a f783 a23b
0.017266097 0.0039834455 -0.0018163013 0.015209726 0.0066968063 8.6781125e-05 0.00081532955 -0.03325925
-0.005585421 0.0055485694 -0.008754358 -0.008554055 -0.019827927 0.0048323027 0.008519583 -0.006919033
0.01900255 0.015179463 -0.01607609 0.0072509083 0.006502226 0.024130195 0.0038806652 0.020985305
-0.005730127 -0.019219879 0.0007926453 0.0018883517 -0.0022793638 -0.015867991 0.0058319154 -0.01087992
-0.012576674 -0.028020015 0.0001830254 0.0260684 -0.01826488 -0.0089620175 -0.013072617 0.015003614
-0.0072894217 -0.004817313 -0.016975995 -0.013053409 0.0005786553 -0.012823443 0.004200421 0.007771303
-0.019055333 -0.008936662 0.0008531588 -0.018777749 0.0064330734 -0.01694384 -0.009057525 0.022858482
-0.005849463 -0.0045428765 0.018787935 0.011091143 -0.0028977653 0.007289516 -0.013437683 0.006630604
0.012744864 -0.004671927 -0.0071205534 -0.0040850495 -0.0051323287 -0.011878492 -0.015355463 -0.0028578308
0.012671636 0.018272186 0.009293357 -0.0026836146 0.005841409 -0.010960427 0.01895531 -0.010862562
-0.0007013018 -0.00039917696 -0.0023240503 0.001960079 -0.00024067095 0.01902264 -0.0042022658 -0.017763555
-0.0017684151 -0.0034611253 -0.013660131 -0.01833923 -0.005966431 0.0077865943 -0.010827842 -0.018927146
-0.019664126 -0.009161003 0.021383507 -0.010985007 -0.00072203256 -0.018715277 0.0011361599 0.025835916
0.022446787 0.015682662 0.01111944 0.026397392 0.011530728 0.0028135246 0.0060118283 -0.0068304385
0.015056844 0.008594178 -0.0074498393 -0.012700492 0.005387954 0.016474368 0.015491006 0.0047386736
-0.010528328 0.0055891955 0.023330703 -0.025555026 -0.011824994 0.013155906 -0.00061475585 -6.8372177e-38
-0.005387184 0.014202725 0.009898646 -0.02027943 0.01287611 0.014631524 0.0038794654 0.011589778
0.009112916 -2.820699e-05 0.016922593 0.012370538 0.004698534 -0.016054243 -0.0014070815 0.003094548
-0.010309572 0.008007096 0.021986082 0.007200644 -0.022738852 0.027760027 -4.181448e-05 -0.022464024
0.0049302927 0.0005223426 0.00397459 -0.010800066 0.012800536 -0.012303941 -0.009874788 -0.0030112767
0.018846255 0.021522677 -0.020520555 -0.025168926 -0.016070355 0.00040057817 -0.0069191307 0.0006691306
0.0142842615 0.01669559 0.002534989 -0.012742209 -0.01275442 0.0030986066 -0.018862115 0.0132705625
-0.017720178 -0.006583956 0.009795821 -0.013820178 -0.004049658 0.020687325 0.0040704645 -0.014213329
0.005910294 -0.024983747 -0.0047489535 -0.028331997 -0.010896922 0.020734712 -0.0033287047 0.018680468
0.034514427 0.010032894 -0.0049707447 -0.0007940354 -0.0014405639 0.0041627917 0.010456832 -0.020271217
-0.013623217 -0.009707165 0.016323607 0.004579429 0.015818525 0.020624835 0.0024647347 -0.010823542
-0.013566339 -0.012529044 -0.0063345083 -0.0032467034 0.00992353 -0.017536746 -0.009309107 -0.0231747
0.0021929294 -0.002622019 -0.021839779 -0.0076566613 -0.021489067 -0.021357069 0.006075763 0.014876273
0.008153686 -0.0053238035 -0.026663741 0.0090886075 -0.019842822 -0.010166694 -0.011061757 0.024650913
-0.009025601 -0.009758708 0.0023800584 -0.004982127 -0.00418663 -0.006021349 -0.012783898 -0.024226144
-0.014510524 -0.026030542 -0.016555928 0.006508815 -0.009800841 0.0113954665 -0.01798556 0.010836642
0.0040601213 -0.013465653 -0.020158939 -0.02526009 0.003861999 0.022995265 0.001351253 0.004959579

encoder.fc_mu.bias f4 [3]
00000000: 8aa5 a13c 6f40 34bc a77b 7abc
0.019732255 -0.01100169 -0.01528827

encoder.fc_logvar.weight f4 [3, 2048]
00000000: 34d0 d2bb a59f 303b 4d88 5dbc e73c 8abc
00000010: c4b8 8cbc e09f 08bd adbe 27bc 8ce1 2b3c
00000020: 143d 98bb ddc1 4a3c eb64 9c3a d7af acbc
00000030: c526 03bd bda3 2fbc b6a2 113b cf7b 6e3b
00000040: fbfc 3d3c 636f 02bd 7738 c5bc 78eb 65bc
00000050: 2311 5bba 2235 91bc 4c36 7abc 68a1 a539
00000060: 7bd8 e7bc 954d 4cbc ccf2 9bbc fb5d 283c
00000070: 8c26 90bc ff33 253c bec8 e3bb 1dff 91bc
00000080: 2c69 afbb c8ff 4dbc 5f01 b3bc 75f7 87bc
00000090: bc97 c73b 88dc 4ebb 78a7 41bc 8278 9dba
000000a0: aad8 26bc 9810 20bb ee51 8dbb 3588 d0bc
000000b0: 6620 163b bf90 6bbc 8513 4fbb 42b8 85bc
000000c0: 6030 fa3b 442a 89bb 7886 c4bc 3325 cd3a
000000d0: d568 36bb f00f 55bc 08c0 8bbb 72b2 2dbb
000000e0: cff9 bbbc 2ac8 85bc 997f 4abc d11a b93b
000000f0: b4cb 23bc c84b cfbb 76e6 f3bc ec2c 0b3c
00000100: efdd 35bc cbcb d2bc 001a 8c3b 35b7 bebc
00000110: 13c3 9abc 3ec0 f13a 99d2 0abc f94f 10bd
00000120: b507 fabc a528 18bc 1097 6cbc 8ce0 ffba
00000130: 9101 8abc 424e d2bc 2b15 e3bb 782e 9dbc
00000140: 25a7 81bc 05f2 d5bb 5d3a 10ba 22d9 dcba
00000150: 1e92 e1bc e9e6 9a3b 15f4 58bc 057a 73bc
00000160: 995a 00bd 3ab4 f9bc c41f 9d3b d7de f7bc
00000170: 6daa 02bd 3936 97bb 538e 1abc 233d 75bc
00000180: 6c05 1fbc 098e c73b 900a 43bc 1c5f 63bc
00000190: 7dcd 10bd 946a f4bc 18c8 81bc c75a c1ba
000001a0: d993 01bd 0fb3 7cbb e817 d1bc 15bb b7bc
000001b0: a05d 8cbc be34 84bb 29b5 4a38 ca59 9bbc
000001c0: 4433 ba3b 9349 6fbc 274f d0bc 2383 fdbc
000001d0: c12f f4ba b2d3 1a3c d5d5 7abc bede a2bc
000001e0: 7897 cdbc 08ed 89ba f6f9 2dbc 66a1 abbc
000001f0: 653f b03a 5649 c83b 8d24 25ba 738f c683
00000200: 8840 89bb 5663 ecbc c311 11bb a174 42bc
00000210: c9a4 82bc 9f01 f4bc 156f d439 af84 b9bc
00000220: 00c9 97bc 93ca 56bb 23eb 0fbc c6d2 36bb
00000230: db71 4abc d870 e2bc 49d6 57bb 2c85 54bc
00000240: b2a6 8dbc 9e02 2a38 5e05 c9bc 9f43 bb3a
00000250: 7b2f dcbc 1852 eb3b 270f a13b ea7a 48bc
00000260: 946e 81bc 01dd 91bc 47ad 29bc cd9c 98bb
00000270: ec63 8abc 6ce9 50bb 3882 e1bc 7f04 99bc
00000280: 445a b3bc 47f5 bebc 5898 ccbc 56fe c4bc
00000290: ac83 2bbb 5453 79bb e834 25bc c61b eb3b
000002a0: 5ee8 f2bb 8e53 95bc 61b6 cdbc 0433 a7bc
000002b0: b0e8 7f3a a658 e1bc 548b da3b 5798 90bc
000002c0: a17e b3bb c3fe bfbc c333 0dbc 8465 ebbc
000002d0: 246a 203c b2d3 083c 3788 2dbc 6fec 3dbc
000002e0: ba78 8bbc 29c1 62bc d313 ebbc abbc 0abc
000002f0: cb32 41bc aa02 77bb 1493 ffbc 139a 093c
00000300: 9844 e43c 252e d1bc 72a9 63bc 1310 54bb
00000310: ba93 ec3a 7bcb 60bc c97e d03a b190 41bc
00000320: 8db5 08bd a0ec fbbb 0492 84bc 2f6b 76bc
00000330: 87f9 30bc 39ef d2bc 3be5 b9bc 6c70 6bbc
00000340: 5ede 60bc 565b 99bc f796 f0bc 3fc0 49bc
00000350: f51f bd3b db6d 98bc 3eed 85bc 8b77 03bd
00000360: 30a1 cdbc 0461 3abc cd9e ccbc 2723 fc3b
00000370: 2d16 843b 2e63 1a3b d676 d6b9 cb39 c7bc
00000380: dcf2 b7bc b1a0 5abc b063 2b3c 590f 9dbc
00000390: afac a43b d68f 95bb 0023 06bd 580c 8ebc
000003a0: 53a9 ccbc 6851 303b 2c9e 1cbc c7bd c3bc
000003b0: 7deb 6dbc 929f b8ba e741 0ebc 8efa 60bc
000003c0: 1fb2 4fbb f109 26bc 26cc eabb c6e7 75bc
000003d0: b33d a7bc da67 e6b9 cc87 2e3b 19d4 6bbc
000003e0: 53ab 0ebb 1e88 1e3b 4515 c0bc 6089 59bb
000003f0: c730 e9bc 01b5 49bc d87f 39bc 5661 a0bc
-0.006433511 0.0026950624 -0.013521266 -0.016874744 -0.017177947 -0.033355594 -0.010238332 0.010490786
-0.004645953 0.012375322 0.0011931931 -0.02107994 -0.032019395 -0.010720191 0.0022222227 0.0036389714
0.01159596 -0.031844508 -0.024074776 -0.014033191 -0.00083567406 -0.017725531 -0.015271734 0.0003159151
-0.028301468 -0.012469669 -0.019036673 0.010276313 -0.017596506 0.010083198 -0.0069514206 -0.017821843
-0.0053531136 -0.01257319 -0.02185124 -0.016597489 0.006091086 -0.0031564552 -0.011819713 -0.0012014064
-0.010183493 -0.0024423953 -0.0043127453 -0.025455574 0.0022907495 -0.014377772 -0.0031597328 -0.016323213
0.0076351613 -0.0041859467 -0.023989901 0.0015651345 -0.002783348 -0.013004288 -0.0042648353 -0.0026504067
-0.022946266 -0.016330797 -0.012359523 0.0056489487 -0.009997297 -0.0063261725 -0.029772978 0.008494597
-0.011100276 -0.025731942 0.0042755604 -0.02328072 -0.018891847 0.0018444133 -0.008473062 -0.035232518
-0.030521253 -0.009287034 -0.014440313 -0.0019521876 -0.01684645 -0.025672082 -0.0069300137 -0.019187197
-0.015826771 -0.006529095 -0.0005501861 -0.0016849379 -0.027535494 0.0047272337 -0.013241787 -0.014860635
-0.0313364 -0.030481447 0.0047950465 -0.030257626 -0.031900812 -0.004614618 -0.009433347 -0.014968189
-0.0097058825 0.00608993 -0.011904374 -0.013877656 -0.03535222 -0.029835977 -0.015842482 -0.0014751785
-0.03163514 -0.0038558876 -0.025524095 -0.022428075 -0.017134488 -0.0040346077 4.832927e-05 -0.018963713
0.005682381 -0.014604944 -0.025428368 -0.03094632 -0.0018629954 0.009449886 -0.015309771 -0.019881602
-0.02509664 -0.0010522911 -0.010618677 -0.020950984 0.0013446627 0.006112258 -0.0006299697 -1.1670328e-36
-0.004188601 -0.02885596 -0.002213583 -0.011868627 -0.015947716 -0.02978593 0.00040518554 -0.022646276
-0.018528461 -0.0032774552 -0.008784088 -0.0027896627 -0.012356247 -0.027641699 -0.003293412 -0.012971204
-0.0172914 4.0533596e-05 -0.024538692 0.001428712 -0.02687811 0.007181417 0.0049151364 -0.012236336
-0.015799798 -0.017805578 -0.010356254 -0.004657364 -0.01689335 -0.0031877412 -0.027527913 -0.018678902
-0.021893628 -0.023310317 -0.024974987 -0.024047058 -0.0026171012 -0.0038044052 -0.010083415 0.0071749417
-0.0074129542 -0.018228319 -0.02511138 -0.020410068 0.0009762151 -0.027508091 0.0066694412 -0.017650766
-0.005477742 -0.02343691 -0.008618298 -0.02873493 0.009790931 0.008351253 -0.010591558 -0.011592015
-0.01702534 -0.013839998 -0.028695976 -0.0084678335 -0.011791895 -0.0037690797 -0.031198062 0.008398551
0.02786474 -0.025534699 -0.013895379 -0.0032358214 0.0018049397 -0.0137203885 0.0015906926 -0.011814282
-0.033376265 -0.00768812 -0.016182907 -0.015040203 -0.010801679 -0.025748836 -0.022692313 -0.014370065
-0.0137248915 -0.01872031 -0.02936886 -0.012313901 0.005771632 -0.01860707 -0.016348477 -0.032096427
-0.025101274 -0.011375669 -0.024978066 0.00769462 0.004030964 0.002355765 -0.000409058 -0.02431955
-0.022454672 -0.013343976 0.010460779 -0.019172357 0.0050254683 -0.0045642657 -0.032748222 -0.01733987
-0.024983084 0.002690399 -0.0095591955 -0.023894204 -0.014521477 -0.0014085642 -0.0086827045 -0.013731612
-0.0031691862 -0.010134206 -0.0071654497 -0.015008872 -0.020415163 -0.00043946394 0.0026631234 -0.01439383
-0.0021769598 0.002419002 -0.023447642 -0.0033193454 -0.028465642 -0.012311221 -0.011321984 -0.019577663

encoder.fc_logvar.bias f4 [3]
00000000: ca51 25bc b259 d8bc df02 08bd
-0.010090301 -0.026409958 -0.033205863

decoder.fc.weight f4 [2048, 3]
00000000: 1ecd d4be 1568 873e 1fb1 833e 8ae9 9bbe
00000010: 3630 eb3e 7e52 0f3e 6166 613d 64f5 03be
00000020: 6795 84bd e1ff d73e f107 063e c214 82be
00000030: a6d7 d0be 7cb2 35be 8b95 3bbe bba6 bcbe
00000040: 80e5 9dbe 1ad5 9fbe 2a8e 053f 3343 f03e
00000050: 913a 1dbe ea90 8cbe 7a7d e7bc ac37 09be
00000060: 94a3 ce3e b8b7 91bd 9be4 d43e 9eea cd3e
00000070: 7a68 b7bd f85b c23e 7c00 c93e 4815 c8be
00000080: 5cfc e3be f96f 163e 7346 6abe 7707 cdbb
00000090: c5c0 003f 2a42 903d a666 94be 3eca e9bd
000000a0: 0241 8e3e 693b 373d 1529 4abe ea46 87be
000000b0: 5699 1bbe 26f5 273e b10f d0be e50b 7cbe
000000c0: 9731 8dbe 0873 5e3e 7ee3 c6be 2a30 ee3d
000000d0: 173c 563e 7593 06bd 3c19 c6be 9ff8 cebc
000000e0: 0be1 bdbe 36c0 513e eabd b8be c085 573e
000000f0: 4f92 783e d9f4 dcbd 5b5e 073e ede1 7f3e
00000100: 85df 9c3e eb6e c4be 4b0b cb3e ade6 e83c
00000110: c9dd 48be 661c b03e 7567 23bf c135 f6be
00000120: 85ef ab3e 7326 dbbe 5dc4 87be 06de 2abe
00000130: 1019 45be 7034 c83d 4c60 bfbe e6ca 69be
00000140: dcc4 e7bc 25b8 313e 5ac1 2ebe 7825 ae3d
00000150: 7d99 a3be bb72 aabb a7d1 1ebc 085b 48bd
00000160: 4c57 073e ad2d a73e 5cd8 5abd 0c02 4e3e
00000170: 32a3 c0be d5d4 d13e 4c4a 9fbe d093 75be
00000180: 1f3c a4be 59cb 463e 1cb3 ce3e 7a43 8b3e
00000190: a0a1 4fbe 9ebb d7be 516e 61be 64f8 00bf
000001a0: 57eb cdbe 6f78 27be 21bb 39bd 526b 33bb
000001b0: a050 6ebe 7869 51be 0c22 843e 1971 8cbd
000001c0: 10c9 4c3e b2fd b43d c7e1 e0be 401d 8f3c
000001d0: a590 2fbe 188f b53e f111 84be c844 fb3e
000001e0: 9a84 913e c155 813e 47b2 f73e d7e0 cc3e
000001f0: d8d2 9cbe 13b5 0abe a074 9bbe f8f3 83be
00000200: cee7 45bd 333b e9be 909e 783b 5b5a ea3e
00000210: 6a75 1cbe 4f15 053f d55f cc3e 47f2 323e
00000220: 6f80 adbd 3405 a13e e267 743e 015f 123c
00000230: 4ddd ab3e 745a a9be c085 353d b1db aabe
00000240: 0706 05bf b643 b4be c2c1 e53e ba79 1dbe
00000250: efda c1be 2d84 283e 6aeb 1c3e 277c e4be
00000260: e786 8abd 5a32 d13e f710 9dbe 8fad e7bd
00000270: 924c 8ebd 32f9 f13b 8a2b 30be 9804 aeb9
00000280: ca2e 043f be88 abbe ef4c 94be 47db 6dbe
00000290: ab60 863e 3741 da3c aa18 923e 1cfb c3be
000002a0: bea9 cebe 651a bd3d 5707 efbe 2e79 aabc
000002b0: 571f 34be c88f f13e 7fc3 4abe 8dfa cebe
000002c0: 146f 263e 9b4c 9c3e 4bca 673e 88fd a33e
000002d0: ff07 813e 78c5 3e3e 6e5f 2c3f 81cc 6cbc
000002e0: aa4b 2f3d ff47 f33d 2a70 2d3d 9ea0 5f3e
000002f0: 34e1 a5be 2c1e e8be 460a e3be 0024 883e
00000300: 118a 9abe e362 31bd ecf5 0c3f d17e a3be
00000310: 6976 af3e 4b9e a9be 63cd c03e ffd0 14be
00000320: 2d5d 86be a3a1 07be 61d7 553d fe61 4bbe
00000330: 4803 a3bc 29b5 023e 810b aebe 7033 d5be
00000340: 638d 3fbe bc22 12bc df1d 8b3e 0998 0a3e
00000350: 4b10 d23e 5bac d13e 58a8 19bd ac88 92be
00000360: 4fa8 00be cb5a 833e 64ce b83e a50a afbd
00000370: c1eb 76be ae6e 0a3e 08c2 c73e 3886 b83e
00000380: 807e 253e 6396 263e 2aa2 0fbf 97d8 8c3d
00000390: d2aa e13e d425 0e3d c11c abbd fce5 f2bd
000003a0: 1613 8f3e 78b4 b9be 48f3 49be 34dc 003d
000003b0: a279 ed3e 3a46 133f 6f5f f73e 0937 a13e
000003c0: ba20 0bbe b22a bebe 899e 9b3e 47a7 cbbe
000003d0: c599 913d 52a2 323d 062d fabe 3e87 9abe
000003e0: c64b 6abe ffa5 183e 144a c6be f904 223e
000003f0: 9c8d ea3d 0500 d2be a981 b9be 8f62 a7be
-0.41562742 0.26446596 0.2572107 -0.30451614 0.4593522 0.13996312 0.055029277 -0.12886578
-0.06473809 0.42187408 0.13088967 -0.25406462 -0.40789527 -0.17743868 -0.18318765 -0.36845955
-0.30839157 -0.3121727 0.5217005 0.4692627 -0.15354373 -0.2745431 -0.028258074 -0.13400143
0.40359175 -0.0711512 0.41580662 0.4021806 -0.08955474 0.37960792 0.39258182 -0.39078736
-0.44528472 0.14691152 -0.22878437 -0.0062569934 0.5029414 0.0704387 -0.28984565 -0.11415528
0.27783972 0.044734392 -0.19742234 -0.2642129 -0.15195212 0.1640211 -0.40636972 -0.24613912
-0.27576897 0.21723568 -0.38845438 0.1163028 0.2092136 -0.03285547 -0.38691127 -0.025265036
-0.37085757 0.20483479 -0.36082393 0.21047115 0.24274562 -0.107888885 0.13219588 0.24988528
0.30639282 -0.38365874 0.39657053 0.028430307 -0.19615854 0.34396666 -0.6382974 -0.48087886
0.33581176 -0.42802772 -0.26517 -0.16686258 -0.19247842 0.09775627 -0.37378156 -0.22831306
-0.028292112 0.17355402 -0.17065945 0.0850324 -0.3195304 -0.005201665 -0.00969354 -0.04891494
0.13216895 0.32652035 -0.053428993 0.20117968 -0.37624508 0.4098269 -0.31111372 -0.23982167
-0.3207712 0.19413508 0.40371025 0.27199918 -0.20276499 -0.42135328 -0.22014739 -0.50379014
-0.40218613 -0.16354536 -0.045344476 -0.00273772 -0.23272943 -0.2045039 0.25807226 -0.06857509
0.19998574 0.08837451 -0.43922254 0.017470002 -0.17145021 0.35460734 -0.25794938 0.49075913
0.2842148 0.25260738 0.48378202 0.4001529 -0.3062961 -0.13545637 -0.30362415 -0.2577207
-0.04831677 -0.45552978 0.0037936307 0.4577206 -0.15279165 0.5198564 0.39916864 0.17475234
-0.084717624 0.31449282 0.23867753 0.0089337835 0.33567277 -0.33076823 0.044317007 -0.33370736
-0.5196232 -0.3520791 0.44874388 -0.15378466 -0.37862346 0.16456671 0.15324178 -0.4462597
-0.06764012 0.40858728 -0.30677006 -0.113124005 -0.069481984 0.0073844427 -0.17204109 -0.0003319129
0.51633894 -0.33502764 -0.28964946 -0.23228179 0.26245627 0.026642425 0.28534442 -0.3827752
-0.40363878 0.0923355 -0.46685287 -0.020809736 -0.1759008 0.4718001 -0.19801138 -0.4042553
0.1625331 0.30527195 0.22635762 0.32029366 0.25201413 0.18630016 0.67333114 -0.014453054
0.04279677 0.118789665 0.042343296 0.21838614 -0.3239838 -0.4533552 -0.44343776 0.26589966
-0.3018346 -0.043307196 0.55062747 -0.3193269 0.34270027 -0.3312858 0.37656698 -0.1453285
-0.26242962 -0.13245253 0.052207354 -0.198616 -0.019899026 0.1276442 -0.33993152 -0.41640806
-0.18706279 -0.008919414 0.27171227 0.1353456 0.41028056 0.4095181 -0.03751406 -0.28619897
-0.12564205 0.25655207 0.36094964 -0.08546952 -0.2411337 0.13518783 0.39015222 0.360399
0.16161537 0.16268305 -0.5610682 0.06877249 0.44075638 0.034704044 -0.08355094 -0.11860272
0.2794425 -0.362705 -0.1972171 0.031460002 0.4638186 0.5752903 0.48314998 0.314873
-0.13586703 -0.3714195 0.3039439 -0.3977606 0.07109407 0.043611832 -0.48862475 -0.30181307
-0.22880468 0.14907072 -0.38728392 0.1582221 0.11452791 -0.4101564 -0.36231735 -0.32692382

decoder.fc.bias f4 [2048]
00000000: f2b5 19be 6f3b bc3e 3986 dabd e461 b03d
00000010: 008f a8be 749d d83e 445a 8ebe 7c10 f1be
00000020: ddc4 e3be ed05 d03d 4a8a e83e 319e 9e3e
00000030: 6f2c 5fbe 4c80 2a3f ba1d 96be 83a6 b23e
00000040: df79 7ebd 3686 dabe 5561 d53e 2a8e bbbe
00000050: 8e23 223f 2892 c9be 5dee 5e3d 35f1 cdbe
00000060: 436d dabe 2da5 783d 1083 bdbd f77e 983c
00000070: 98b0 133f 3075 b5be e897 eebe 1bba ad3d
00000080: a2fc 23be 0a30 04be 4986 77be 00ae bebb
00000090: 12fb 13be 2a9a 71be 1aeb 583d 0770 25be
000000a0: aad6 173f d556 283f 1161 81be cd1a c3bc
000000b0: 0acf 723e e745 d8be 51ce b0be 5f22 ef3e
000000c0: 1f5c ea3d 2028 a83e d557 88be e671 b2be
000000d0: 46a6 563d 785b 683e 6d48 c53e 3f1e 8b3e
000000e0: d35c 933e a4fa 003f 0571 ff3e 93a6 a03e
000000f0: 7e5a f73d fdac a93e 8cc4 163f f8a5 98be
00000100: eb07 b1be 7bf7 2fbe 9b14 e23a d5c9 4fbe
00000110: 63a8 d23d 8cb1 803e c72a a3be 14c3 f13e
00000120: 8877 b43e 842c ba3d 05a8 b43e b0ab 5cbe
00000130: e33a 053f d30d bbbe f4b8 a13e 8941 413e
00000140: ade2 073e cb72 b13e 6837 013f 3ee3 623e
00000150: cbc4 cb3e a77d f3bd e34b e5be 2b15 ff3e
00000160: 3dfe 403e 5912 dcbe c010 84bd 3243 4f3e
00000170: e80d cb3e 8625 903d 4e37 b13e 2ec5 f8be
00000180: 89f1 03bf 430d 053f 366c eebe fb22 00bd
00000190: cfd3 c7be f5ac 9abe 4398 0fbf 217c 023f
000001a0: c1c5 263e d90f 25bf dc54 fd3e f971 bc3d
000001b0: 017d 2d3e b237 c9be b7ff 85be be4c 8b3e
000001c0: a32e 993e e0d9 d3be ec93 c8be 3660 22be
000001d0: 19e6 00be bad7 a43d 425b e0be 38d1 5b3e
000001e0: 5e7d e53d a17f 7e3e 2616 e23e a7f9 13bf
000001f0: 75e5 e4bd 68f0 7ebe 6519 ca3e 6412 d8be
00000200: 2b68 b43e 02e5 b73d 0f59 03bf dc0d 80be
00000210: cb11 e13c adac cbbe 6596 0b3f 7b3b d73e
00000220: 2aac 3cbe 3155 a0bd 1b9f 8d3e 111c 9f3e
00000230: 8db9 b33e 1bdc 043f 88c5 9a3e 9c4f e93e
00000240: 8984 aabe f645 a2be 24e4 933e 556c b93c
00000250: 1e71 25bf ea61 66be 8bf8 9ebe 4ebb 05bf
00000260: 10f7 9ebe b98c ed3e 8598 82be 0878 5a3e
00000270: 68bb 3cbe 8985 d9bd 6f49 a1bd e285 0f3f
00000280: 9c7d 103f c6fb dcbd 3244 e3be 48f8 093f
00000290: fce7 353e 93d0 c5be 2c87 b13e bb2f cebe
000002a0: 7eb4 02bf 25af 01bf 552d ba3e c54a 003e
000002b0: dc43 d2bc aca8 b63e 154e 063f 625d f0be
000002c0: 72e8 ba3d 0db2 67bd bf25 08bf ac9b e93e
000002d0: 0290 03bf 132e c2bc 98f6 ddbe 650b a1bb
000002e0: d9a4 ca3e bae9 c2bd dc43 5f3d 43fd ca3d
000002f0: b70d b93e 600e 5cbd 59e9 ff3e ce28 ec3e
00000300: fb44 b2be bf74 c9be 5f29 893e 51f9 f43e
00000310: 0986 843e 74be c0bd 6707 5b3e 1ee5 b0bd
00000320: f1fc 1a3e 272f 753e cd8c 4bbd fd50 1ebf
00000330: 32b6 063f e7eb aebd 9210 90be 7a13 08bf
00000340: 39b2 bf3e d5a5 cb3d b6da dcbc 4af9 e4bd
00000350: 77e8 22bf e79c 0b3f d551 333e 1184 80bd
00000360: cc12 593e 9321 263d 0876 fb3e 5b97 b7be
00000370: aca0 b03e b1e8 0d3f ba7f 13bf 6960 b53d
00000380: 0032 023f 0e82 d13e a360 1a3e d2db afbe
00000390: f332 183e 5de3 d13e 2be4 20bf 2d4d 023f
000003a0: 6f0d b53e 4329 6d3e 420a 17be 6358 a93e
000003b0: 5af8 c3be 58b5 61be 364f 13be 8347 23bf
000003c0: be2a f13e d90c 19bf bbb3 00bf bcd3 793d
000003d0: 0659 4fbe ad5a ad3e 223d 03bf a493 803e
000003e0: 88c1 dfbe cb49 22bf f07c 483d 9d63 f7bd
000003f0: 04cc 013e 4e5d 0abf 4d0e 063f c484 1bbf
-0.15010813 0.36764094 -0.10670132 0.08612421 -0.329216 0.42307627 -0.27803242 -0.4708289
-0.44486132 0.1015738 0.45418006 0.30980065 -0.21794294 0.66602015 -0.29319555 0.34892663
-0.062127944 -0.4268052 0.4167582 -0.366319 0.633355 -0.3936932 0.05442654 -0.4022309
-0.42661485 0.0607044 -0.09253514 0.018615229 0.57691336 -0.3544097 -0.4660027 0.084827624
-0.1601434 -0.1290895 -0.2417232 -0.0058190823 -0.14451244 -0.23593965 0.052958585 -0.16156016
0.59311926 0.65757495 -0.25269368 -0.02381649 0.23711792 -0.4224083 -0.34532407 0.4670591
0.11443352 0.32843113 -0.2662951 -0.34852523 0.052404664 0.22691143 0.3853182 0.27171513
0.28781757 0.5038245 0.49890915 0.31377086 0.12077807 0.33139792 0.58893657 -0.29814124
-0.34576353 -0.1718425 0.0017248573 -0.20291837 0.102860235 0.25135458 -0.31868574 0.47219145
0.35247445 0.09090522 0.3528444 -0.21549869 0.5204298 -0.36533985 0.3158642 0.18872656
0.13270064 0.34657893 0.5047517 0.22156999 0.3979858 -0.11889201 -0.4478446 0.49820837
0.18846984 -0.42982748 -0.06448507 0.20240477 0.39659047 0.07038407 0.34612507 -0.48587936
-0.5154043 0.5197336 -0.46566933 -0.03128336 -0.39028785 -0.3021008 -0.5609171 0.50970656
0.16286375 -0.64477307 0.49478805 0.09201426 0.16942216 -0.39300305 -0.26171657 0.27206987
0.29918393 -0.41377163 -0.39175355 -0.15857014 -0.12587775 0.08048959 -0.43819624 0.2146653
0.112055525 0.24853374 0.44157523 -0.57802814 -0.11176578 -0.24896395 0.394725 -0.4220153
0.35235724 0.08979227 -0.5130777 -0.25010574 0.027474305 -0.3978018 0.5452636 0.42037567
-0.1842505 -0.07828749 0.2766045 0.310761 0.35102502 0.51898354 0.3022883 0.4556855
-0.3330424 -0.31694 0.28884995 0.022634665 -0.6462573 -0.22498289 -0.31048998 -0.5223893
-0.3104787 0.46396425 -0.25506988 0.21334851 -0.18430865 -0.10621173 -0.078753345 0.56063664
0.56441665 -0.107902095 -0.44387966 0.5389447 0.17764276 -0.38635692 0.3467344 -0.4027079
-0.5105666 -0.50657874 0.3636271 0.12528522 -0.025667123 0.3567556 0.52462894 -0.46946245
0.09126367 -0.056566287 -0.53182596 0.4562658 -0.51391613 -0.02370361 -0.433522 -0.0049146884
0.39578894 -0.09517236 0.054508075 0.09911587 0.36143276 -0.053724647 0.49982718 0.46124882
-0.34818253 -0.39346883 0.26789376 0.47846463 0.2588351 -0.09411326 0.21389543 -0.08637451
0.15135552 0.23943768 -0.049694825 -0.6184233 0.5262176 -0.085410886 -0.28137642 -0.5315472
0.3744066 0.09943739 -0.026959758 -0.111803606 -0.63635963 0.5453629 0.17511685 -0.0627519
0.21198577 0.040559363 0.49113488 -0.35857663 0.34497583 0.55433184 -0.5761677 0.088562794
0.50857544 0.40919536 0.15075926 -0.34347397 0.14863186 0.40993777 -0.62848157 0.5089901
0.35361812 0.23160271 -0.14750007 0.33075246 -0.38275415 -0.22041833 -0.14385685 -0.63780993
0.47102922 -0.5978523 -0.50274247 0.06099294 -0.20248803 0.33858243 -0.51265156 0.2511264
-0.4370234 -0.6339385 0.048947275 -0.120795466 0.12675482 -0.5404862 0.5236557 -0.6074946

decoder.conv2.weight f4 [32, 16, 4]
00000000: aeef ea3d cdb9 523d 3fa4 35bd edc4 c33c
00000010: 7273 a3bc 76c9 c0bd 1ad4 62bd 3376 333c
00000020: 5671 cbbc 15e9 9dbd 8741 113d e7a6 ec39
00000030: b354 403c fd3f 17bc 6540 993c 70ff 1f3d
00000040: 14ae b2bd 86e1 e8bc 1bda 303b c3f1 a0bd
00000050: 9539 55bc e0f8 383d 47ab a2b8 344e 0f3d
00000060: 06a1 c3bb 924a dfbc 8bf5 b0bd bf89 8f3b
00000070: afe7 22bd 8df4 81bd 873f c23c eab3 f5bc
00000080: fe95 753d 6d06 9a3c 50af c0bd edc6 8f3d
00000090: ea48 aa3d 2a42 b03d 279b cebd c8e0 4abd
000000a0: 9c10 a2bd 6568 7a3c 4cc7 fdbb 0ac5 d3bc
000000b0: c583 08bd cb45 5d3c efc4 12bd 5045 0a3d
000000c0: a9d2 8cbc f076 a5bc 6c6f 213a b36c a23c
000000d0: 6fce c6b9 325c 03bd 8f0f d03c 33b0 043b
000000e0: 1d20 97bb 25d3 1b3c 1024 76bc aac4 503d
000000f0: 808b 9bbd f7c8 49bd 10e2 633d 71cd 9b3d
00000100: 3ea3 783d 6451 8a3d 219c 763d 7e13 ba3d
00000110: 300d ab3d 5b59 1abc 9c91 b83d b9ec 86bd
00000120: 3c8a 7a3b e94e fd3c 6d6b 353d baf0 a2bd
00000130: f043 33bd c4fd 243d 88bd cdbc c6a9 3f3d
00000140: a04a 95ba d0c3 343d 1a9d 04bd 95fe e03c
00000150: 71db 523d 60a1 b33c 8c81 9a3d 690e edbc
00000160: 172a 7bbd 86a8 773d bfdf 593d 7619 c6bc
00000170: 44d0 5a3d 7457 553d f719 d4bc 222c cb3c
00000180: 936e 913c a452 83bc 6afc 9abd 1ad3 873d
00000190: cde6 a43c 5de4 a9bc ebac 8a3d bbf1 2fbd
000001a0: 67e2 923d 5e8e a83c 1764 b93d e38a b83d
000001b0: 276f 10bd 1b5e a1bd 3934 46bd 908b b6bd
000001c0: e946 13bc 97fc d03c fb75 84bd e62c 0ebd
000001d0: 5c5d c43d 63e3 cabc 44b4 593d 2672 87bc
000001e0: 106b 60bc f51e 34bc 7718 edbc 8633 273b
000001f0: 295d af3c 7412 93bd 0493 273d 9306 e5bc
00000200: 2e28 79bd 39a2 cebc 8f27 143d 9ebd 0d3d
00000210: 1e80 ed3a 6670 b5bc a5bc fcba 3be9 fcbb
00000220: 690c 0a3d 8f55 27bd d134 93bd 807e 3bbd
00000230: 1510 203d 43cb d7bb ad0a a03d 7c9f 56bc
00000240: 0b54 2dbb 30c4 61bd e2b1 a9bd 3d63 a1bc
00000250: 95c8 08bd f2b6 39bd d80e aabd db65 c8bd
00000260: 872c 893b f6e8 95bd 5d8b 153c bb6c 4abd
00000270: 8f37 10bd 6920 aa3c e2e9 1dbc c5d5 7dbb
00000280: 52cb bbbd 54db 19bd ccd4 8ebd 48f2 babd
00000290: b718 febd 0f1e 8abd 43b4 8c3c 977d 333d
000002a0: 434a 54bd 5595 2e3b 5c87 96bd fec0 023d
000002b0: 29fd 68bd 8137 95bb 0087 02bd d0e9 2e3d
000002c0: 72fb c1bc cec0 74bd 5018 55bd 8ece 893c
000002d0: da4b 27bd ff32 463d 1edd c6bb 5910 5f3d
000002e0: ebe1 78bd 1e61 a5bd 4d85 b3bd 4c4d 4fbd
000002f0: 36ce 0a3c 1983 043d c4bf 9cbc 7bda a83d
00000300: 2604 a53d 7411 6cbd 972b a83d 8f6d 15bd
00000310: 9c40 a8bd 04e3 cc3d 782b 123d 6e39 21bd
00000320: 8260 593d c817 35bc 2879 9cbc 8195 3a3d
00000330: 269c f9bb 7b56 00bb bacb 7d3d 66b2 413c
00000340: c1c8 953d 7bcf a83b c94d 6d3c 3a17 97bc
00000350: 6a2c a03d d686 fc3b 075e 0f3b 8928 bdbd
00000360: 07b5 4a3d 11d8 44bb efe1 c23d c541 dabd
00000370: dafd ccbb 6a59 623d a7e0 233d 694d 95bd
00000380: cef2 953b 2a0d 9ebd 23b0 0abd 55df 643d
00000390: c258 b83c 318c 9a3c 471e 643d c576 b03c
000003a0: 4626 843d cf68 083d f941 8bbc 3337 833d
000003b0: fb1b 3abd 94e0 8ebd 777f 70bd 6000 573c
000003c0: e0fb 50bd d216 e2bc b704 a43d f801 a5bb
000003d0: 2931 c53d 9123 253c 47a7 79bd 7995 39bd
000003e0: c1a0 593b 277e 283d 762b 11bd 510a 643c
000003f0: 6e4f 90b3 f43b bc3d d4dc 16bd 2267 72bd
0.114714965 0.051446725 -0.04434609 0.023897612 -0.01995251 -0.094134256 -0.055378057 0.010953474
-0.024834316 -0.077104725 0.035462882 0.0004513778 0.011738944 -0.009231565 0.018707464 0.039061964
-0.08724609 -0.02842785 0.002698547 -0.078586124 -0.013014217 0.04515922 -7.756665e-05 0.03498669
-0.005970123 -0.027257238 -0.086405836 0.0043804343 -0.039771732 -0.063454725 0.023711933 -0.029993016
0.059957497 0.018801892 -0.09408438 0.07020364 0.083146885 0.0860637 -0.10088187 -0.049530774
-0.07913324 0.015283679 -0.0077447053 -0.025850791 -0.03332879 0.0135054095 -0.03583234 0.033757508
-0.017190294 -0.020198315 0.0006158266 0.019827222 -0.00037919308 -0.032070346 0.025398044 0.0020246624
-0.0046119825 0.00951079 -0.015023246 0.050968803 -0.07594967 -0.04926392 0.055635512 0.07607544
0.060702555 0.06753805 0.06020749 0.09085749 0.08352125 -0.009420718 0.09012148 -0.0658812
0.0038229367 0.030921416 0.044291902 -0.07956071 -0.043765962 0.040281072 -0.02511479 0.046792768
-0.0011390038 0.044132054 -0.032376386 0.027465144 0.051478807 0.021927536 0.0754424 -0.028937535
-0.061319437 0.06046345 0.053191897 -0.024182063 0.053421274 0.052085355 -0.025891287 0.024801318
0.017752921 -0.016030617 -0.075676754 0.06632061 0.020129586 -0.020738775 0.06771263 -0.04295514
0.07172089 0.020575698 0.09052294 0.090108655 -0.035262253 -0.07879277 -0.048389647 -0.08913338
-0.008989074 0.02551107 -0.064678155 -0.034710787 0.095881194 -0.02476663 0.05315043 -0.016533922
-0.013697401 -0.010993709 -0.02894233 0.0025512888 0.021406727 -0.07181254 0.04091169 -0.027957236
-0.060829334 -0.025223838 0.03617054 0.03460466 0.0018119847 -0.022148322 -0.0019282295 -0.007718233
0.03370324 -0.04085308 -0.07187808 -0.045774937 0.039077837 -0.00658551 0.07814536 -0.0130995475
-0.0026447799 -0.05511874 -0.082858816 -0.01970064 -0.033394415 -0.045340486 -0.083036125 -0.097850524
0.0041862163 -0.073198244 0.009127465 -0.0494201 -0.035209235 0.020767407 -0.009638282 -0.0038732153
-0.0916964 -0.037562683 -0.069741815 -0.09128243 -0.12407058 -0.067440145 0.0171758 0.043820944
-0.051828634 0.0026639302 -0.073500365 0.031922333 -0.056882057 -0.0045537357 -0.031867027 0.04270345
-0.023679469 -0.059754185 -0.05202514 0.016822126 -0.040843822 0.048388477 -0.0060688397 0.05445895
-0.060762327 -0.08075164 -0.087656595 -0.050610825 0.008472016 0.032351587 -0.01913441 0.08244797
0.08057432 -0.057633832 0.08211439 -0.036481436 -0.08215448 0.10004237 0.035685986 -0.03936141
0.053070553 -0.011053033 -0.01910074 0.045552734 -0.0076174913 -0.0019582796 0.061961867 0.011822319
0.073136814 0.0051516867 0.014483877 -0.018443692 0.07820971 0.0077065034 0.0021876113 -0.09236247
0.049489047 -0.0030036012 0.0951575 -0.10657076 -0.0062558474 0.055261053 0.040009167 -0.072901554
0.0045760637 -0.077173546 -0.033859383 0.05587705 0.02250326 0.018865677 0.055692937 0.021541009
0.064526126 0.03330308 -0.016999232 0.06407013 -0.04543684 -0.06976429 -0.05871531 0.013122648
-0.051021457 -0.027598772 0.08008712 -0.005035635 0.09628517 0.0100792805 -0.060950544 -0.045308564
0.003320739 0.041135933 -0.03544184 0.013918475 -6.719971e-08 0.09191123 -0.03683169 -0.059180386

decoder.conv2.bias f4 [16]
00000000: a7f4 2ebd 355b 92bd 525e 1bbe a175 ee3a
00000010: 0e51 6b3d 41da 03be d756 e1bd 26b3 c1bd
00000020: 175d 6bbc ab43 dbbc 75bb 00be e5d4 933d
00000030: f4dd d7bc c208 a6bd a699 29bd 8228 c8bc
-0.042713787 -0.071463026 -0.15172699 0.0018193015 0.057450347 -0.12876226 -0.110028915 -0.09457998
-0.014365456 -0.026765665 -0.12571509 0.07218341 -0.026350953 -0.08107139 -0.041406296 -0.024433378

decoder.conv1.weight f4 [16, 1, 4]
00000000: c5fc d6be dab1 59bd 54f6 a2be 3075 573e
00000010: 88f3 37be 0027 71be a6c4 893d 45d0 273d
00000020: e6d1 ee3e 36fa 953d ffe1 07be 9d0f b0be
00000030: 2850 ab3d bdf3 cabe 0c61 1c3e c00e e33c
00000040: f677 c9be 8fd7 963e 51aa 473e c9e3 903e
00000050: 06ec 71bc f2b6 3ebe a5b4 a03e 656e b9bd
00000060: 39da db3e 13d0 9a3e 5677 a1be 55da 0a3e
00000070: 87c3 613e 6407 57bd 6b18 bebd 4330 a2be
00000080: b2e4 25bd 3828 a63e 5d8a b5bb 8b2f 453d
00000090: 62b3 013d b4b4 d03d 696e db3e 9158 b3be
000000a0: e6f2 e43e 4e5c b7be e551 51be d371 7ebe
000000b0: 6f63 173e d1f6 9abe 097c a4bd 93b4 c03d
000000c0: fe81 71be 8105 653e 8f91 06be 019d 58bb
000000d0: 2514 2d3e f0aa b7be bc61 f03b f805 9d3e
000000e0: efa0 353e aa16 5e3c adb7 4cbb 33ed 93be
000000f0: 737a 19be 56eb d53e ad29 9d3e 99ef 93be
-0.41989723 -0.053148128 -0.31828558 0.21040797 -0.17963994 -0.23550034 0.06726961 0.040970106
0.46644515 0.073231146 -0.13269804 -0.34386912 0.08364898 -0.39639083 0.15271395 0.027716994
-0.39349335 0.29461333 0.19498564 0.28298786 -0.014765745 -0.18624476 0.3138782 -0.09054259
0.42939928 0.30236873 -0.3153636 0.1355985 0.22047244 -0.052497283 -0.09282001 -0.31677446
-0.040501304 0.3245256 -0.005540176 0.048141044 0.031665213 0.101907164 0.42857674 -0.35028508
0.44716567 -0.3581261 -0.20441397 -0.24848108 0.14784025 -0.3026643 -0.0803147 0.09409442
-0.23584744 0.22365381 -0.13141464 -0.0033052566 0.16902216 -0.35872602 0.0073358696 0.30668616
0.17737173 0.013555208 -0.003123741 -0.28891906 -0.14988117 0.4178111 0.3069586 -0.28893736
