wavae_notebooks/WAV/Various-ups-downs/model-tanh-500/model-tanh-500.onnx (onnx, 68782 bytes, 5 tensors)

fc.weight f4 [2048, 3]
0.27085072 -0.13668652 -1.0414455 -0.3760271 0.24448422 -0.04971047 -0.10811481 0.13171409
-0.05630478 0.2105181 0.62238175 0.40646264 0.5195878 0.16782613 0.008154654 -0.55380684
0.15799129 -0.16820854 0.09694473 -0.76635957 0.018432777 0.53384304 0.029487062 0.5067339
-0.029319355 -0.4526422 -0.2531863 -0.5833617 0.11245833 -0.24340262 0.022346612 -0.11678646
0.10996683 -0.09061675 -0.6060096 0.94550973 -0.023936864 -0.27208796 -0.07622613 -0.18663886
0.24246597 -0.17179519 0.015954308 0.19121838 -0.29705778 0.2877469 -0.22199096 0.30561158
-0.5609146 -0.16223097 -0.07146423 1.0936222 -0.33447105 -0.29655215 -0.29639494 -0.5836318
-0.6304257 -0.64068085 0.5820491 -0.28127864 0.24936539 0.5664636 1.0363407 -0.48014337
0.46510586 0.36338124 -0.20260689 0.015027331 -0.38853484 -0.14405356 -0.38450715 0.6019493
-0.5996159 -0.30499887 0.048219018 -0.57923114 0.6354543 -0.3776116 0.69657815 -0.22751126
0.6146214 -0.12329023 -0.57285756 -0.2876086 -0.41563728 0.3819018 -0.28367272 -0.19960997
0.56398267 -0.79296684 -0.5243621 -0.114967465 -0.4894538 -0.35643598 0.09652632 -0.123381615
-0.011205323 0.17707025 0.2959733 0.4292575 -0.44713643 -0.38340485 0.32822013 -0.0154303145
0.3089345 -0.15220264 0.33240327 -0.13314053 -0.22902085 -0.78771967 0.45654884 -0.10638409
-0.61170405 0.113617904 -0.48221076 -0.16887169 -0.07283646 -0.8235289 0.3486973 0.25003287
0.8152528 -0.39134055 0.3315678 0.1589315 -0.5180776 0.17824037 0.027448088 0.00833082
-0.09846043 0.4842587 -0.54558736 -0.068848476 -0.5023812 -0.16880389 0.03202415 -0.10224744
-0.26591507 -0.29588962 0.14673138 0.39657205 0.040886067 0.1653551 -0.25416797 -0.32738656
0.47722632 -0.11900228 0.030190088 -0.392886 0.34501904 -0.45749617 -0.5940679 -0.12003694
-0.17689192 -0.30493048 0.49153683 -0.04693696 0.44222313 0.75522846 0.2627252 0.8292021
0.23105787 0.2456994 0.35449147 0.033418663 -0.19258983 0.2861089 -0.070522 -0.22738977
-0.41403523 -0.036724746 0.3659622 -0.35322803 -0.27638504 -0.6105741 0.30078834 -0.08665206
0.20141828 -0.3453565 -0.5869485 -0.07462999 0.18980363 0.3550298 -0.46757928 0.35676473
-0.107594855 0.2921896 0.0011756659 -0.41378948 0.1011051 -0.7648589 -0.64928305 0.207514
-0.218965 0.68624115 -0.33756405 -0.09181195 -0.069892615 0.22203484 -0.6474982 0.2885527
0.02764272 0.25888684 -0.4592521 -0.48307037 -0.14596535 -0.7933861 0.36238712 0.5070903
0.11423204 0.52786213 -0.29475924 0.22421095 -0.23515257 -0.23933299 -0.36395612 0.27732375
0.30430144 -0.62000066 0.13410544 0.08870532 0.78303385 0.20421317 0.09425942 0.26448932
0.12654953 -0.24110681 -0.31827843 0.18420002 -0.3925904 -0.01626853 -0.13097781 -0.17990609
0.40213764 0.5476493 0.305168 0.064204484 0.49970633 -0.14698865 0.177355 0.34593964
0.5823889 0.14843175 -0.12720619 -0.6595433 -0.32569164 0.71728337 -0.5874641 0.15615568
0.56779397 -0.16612493 -0.38365445 -0.37868002 -0.010775767 0.19770177 0.69037485 -0.35863006
00000000: f2ac 8a3e 8df7 0bbe 164e 85bf a086 c0be
00000010: 125a 7a3e 359d 4bbd 4c6b ddbd 0fe0 063e
00000020: d79f 66bd 0f92 573e 6954 1f3f df1b d03e
00000030: b503 053f 9dda 2b3e 199b 053c 49c6 0dbf
00000040: 78c8 213e dc3e 2cbe f58a c63d 2430 44bf
00000050: 5600 973c f0a9 083f da8e f13c 50b9 013f
00000060: 252f f0bc b8c0 e7be a2a1 81be 3157 15bf
00000070: 8e50 e63d 893e 79be 3e10 b73c bd2d efbd
00000080: 4a36 e13d 4695 b9bd 7223 1bbf ed0c 723f
00000090: 3e17 c4bc 1d4f 8bbe 721c 9cbd 421e 3fbe
000000a0: 0049 783e 14eb 2fbe 9cb2 823c c0ce 433e
000000b0: f517 98be 9053 933e 9951 63be 1f79 9c3e
000000c0: 1998 0fbf e01f 26be d75b 92bd d0fb 8b3f
000000d0: ca3f abbe afd5 97be 14c1 97be e568 15bf
000000e0: 9463 21bf a903 24bf 2b01 153f c103 90be
000000f0: a459 7f3e c203 113f d0a6 843f 5ad5 f5be
00000100: 5b22 ee3e 1b0d ba3e 2e78 4fbe 3235 763c
00000110: 0aee c6be c782 13be 1fde c4be 5919 1a3f
00000120: 6d80 19bf d028 9cbe 4e81 453d 7e48 14bf
00000130: 22ad 223f 4f56 c1be f252 323f b6f8 68be
00000140: d457 1d3f 977f fcbd cba6 12bf 6f41 93be
00000150: 69ce d4be a288 c33e 8d3d 91be 8e66 4cbe
00000160: 2b61 103f e0ff 4abf 983c 06bf 1074 ebbd
00000170: b099 fabe c77e b6be 97af c53d 80af fcbd
00000180: 8896 37bc e751 353e d089 973e a4c7 db3e
00000190: 11ef e4be a44d c4be 780c a83e 6ecf 7cbc
000001a0: aa2c 9e3e 02db 1bbe c330 aa3e fe55 08be
000001b0: 7184 6abe ffa7 49bf c5c0 e93e e7df d9bd
000001c0: a398 1cbf 81b0 e83d 54e4 f6be b3ec 2cbe
000001d0: 482b 95bd cad2 52bf 7488 b23e 4f04 803e
000001e0: 68b4 503f ca5d c8be 41c3 a93e f0be 223e
000001f0: bca0 04bf a584 363e d0da e03c fe7d 083c
00000200: 9fa5 c9bd c2f0 f73e 9dab 0bbf 6e00 8dbd
00000210: 0e9c 00bf edda 2cbe c12b 033d 1b67 d1bd
00000220: 0526 88be d87e 97be c040 163e 7e0b cb3e
00000230: 2678 273d d952 293e 4e22 82be 369f a7be
00000240: 0257 f43e 78b7 f3bd 3451 f73c 5b28 c9be
00000250: 56a6 b03e f03c eabe d514 18bf edd5 f5bd
00000260: 2823 35be d91f 9cbe b7aa fb3e f840 40bd
00000270: 126b e23e a756 413f eb83 863e 9746 543f
00000280: 6f9a 6c3e a098 7b3e e87f b53e 02e2 083d
00000290: 4536 45be de7c 923e d76d 90bd ddd8 68be
000002a0: 6dfc d3be b06c 16bd 665f bb3e 4eda b4be
000002b0: 5782 8dbe 964e 1cbf ee00 9a3e a376 b1bd
000002c0: 9840 4e3e 91d2 b0be 4242 16bf 9cd7 98bd
000002d0: e25b 423e 77c6 b53e 8d66 efbe dea9 b63e
000002e0: b15a dcbd e099 953e cd18 9a3a 37dc d3be
000002f0: 3110 cf3d cbcd 43bf 6a37 26bf 8d7e 543e
00000300: 5c38 60be 80ad 2f3f 32d5 acbe e707 bcbd
00000310: dc23 8fbd 1a5d 633e 71c2 25bf 2ebd 933e
00000320: fc72 e23c d18c 843e 1723 ebbe 0055 f7be
00000330: f177 15be 5a1b 4bbf ce8a b93e abd0 013f
00000340: 7df2 e93d f921 073f afea 96be 8e97 653e
00000350: d6cb 70be b513 75be 7558 babe 61fd 8d3e
00000360: 66cd 9b3e 5db8 1ebf f052 093e 23ab b53d
00000370: e874 483f 421d 513e 150b c13d 256b 873e
00000380: 3396 013e b4e4 76be 64f5 a2be ee9e 3c3e
00000390: 9c01 c9be 9545 85bc 0c1f 06be 4d39 38be
000003a0: fce4 cd3e bf32 0c3f fb3e 9c3e a47d 833d
000003b0: 82d9 ff3e 3184 16be 8d9c 353e 001f b13e
000003c0: 7017 153f 7efe 173e 5742 02be d4d7 28bf
000003d0: 0ec1 a6be e29f 373f 0c64 16bf 46e7 1f3e
000003e0: f25a 113f a71c 2abe 5b6e c4be 59e2 c1be
000003f0: d88c 30bc 5572 4a3e 68bc 303f 5c9e b7be

fc.bias f4 [2048]
-0.09599343 -0.27958545 0.29239315 -0.029064117 -0.22368874 0.014797461 0.3552699 -0.1388816
0.06257563 -0.1358404 0.43322644 0.82591 -0.8079914 0.0054891184 0.43097958 0.015117777
0.29049516 0.40494266 -0.0014667134 0.52419066 0.5081687 0.012128945 -0.9290586 0.14705391
0.8202067 -1.1453837 0.13639815 0.13031341 -0.36297238 -0.32816887 0.38384214 -0.7032537
-0.38855708 1.4405292 0.44041988 0.39032254 -0.061989397 -0.49166733 0.06434987 0.5599763
0.5008226 -0.13336088 0.47287276 0.4578489 -0.41101766 0.27375963 0.36350313 -0.10763131
-0.008246976 0.81731296 0.83396095 -0.30873704 0.43672305 0.0036955115 -0.13446777 -0.35455436
0.83854103 0.164709 0.4731246 0.46704885 -0.16159877 -0.68113226 -0.53543776 0.27088925
0.022389702 0.25663206 0.06445352 0.11240108 -0.20160557 0.34935975 0.06577325 0.5981907
-0.21320473 -0.9077257 0.32711908 1.1246362 0.515239 -0.5363521 -0.5252239 -0.92755085
-0.16078293 0.16214094 -0.10342382 -0.2520972 -0.8096306 -1.2051932 -0.45437685 0.2962709
0.05433236 -0.47634283 -0.31312722 0.055617884 -0.16783075 -0.2278422 -0.12700634 -0.34828687
0.1477819 -0.16971582 -0.1719396 0.5141294 -0.02395919 0.15205365 -0.48523954 0.40782735
0.5798396 -0.61011267 -0.2129696 -0.8292496 0.39668715 -0.09299771 0.10417489 -0.2329693
0.8449601 -0.41738626 0.16115406 -0.63135767 -0.28672948 -0.38717234 -0.25923476 -0.23796107
0.26686862 0.3204921 -0.05049982 -0.6133075 0.22161907 -0.71434534 0.008510634 0.0749567
-0.0033352475 -0.08538156 -0.7694548 -0.2606747 -0.13628589 -0.9394209 -0.2626546 0.20534392
0.13692904 0.10980712 -0.62961704 -0.950619 -1.3122834 -0.36178854 -0.6195704 -0.2876637
-0.77068406 -0.16010694 -0.30459902 0.48624328 0.309382 -0.31702578 -0.14742216 0.18266536
-0.48370674 1.1128354 -0.90365875 -0.41437107 0.32755852 -0.5363951 0.40763304 0.09093118
-0.45471472 -0.05750692 -0.14430197 -0.30226246 -0.8233755 0.031394217 -0.036596972 -0.32778633
-0.037794564 -0.46983725 -1.0776527 -0.18358375 0.15373965 -0.369276 -0.62855434 -0.24215345
-0.106472954 -1.0534345 -0.27422553 0.25776997 -0.49305212 -0.55359936 -0.56591403 -0.35003853
-0.41477868 0.6263332 -0.3394445 0.496849 -0.51258016 -0.23587066 0.4875045 -0.51619065
-0.6685601 -0.74171895 -0.20533852 -0.5630468 -0.10416877 -0.02399655 -0.32050768 0.5128426
-0.21179987 -0.40087292 -0.20676509 -0.51293457 -0.5185431 -0.68854165 0.116171725 0.34364134
0.39908475 0.19937666 -0.51313335 -0.25665134 -0.066793725 -0.6248194 0.7203739 0.5213487
-0.36429405 0.3029362 -0.09693902 0.6319099 -0.20844838 -0.03415058 0.07511378 0.066898994
-0.2245307 -0.3486108 -0.1909453 0.06637504 -0.7706156 -0.0067891623 -0.5152905 0.5596893
-0.51546735 0.44768807 -0.28338894 0.6690822 -0.36876655 0.207321 0.413684 0.13110228
0.5421459 0.48275083 -0.12976919 -0.087785535 0.24339847 -0.38032585 -0.19849254 -0.49551803
-0.28360596 0.42420533 0.026448246 0.38539594 0.23822863 -0.15771447 0.07863098 -0.06302135
00000000: 3498 c4bd d325 8fbe 8eb4 953e df17 eebc
00000010: a90e 65be 0d71 723c f0e5 b53e fa36 0ebe
00000020: a727 803d bf19 0bbe dbcf dd3e d66e 533f
00000030: 86d8 4ebf 10de b33b 5ba9 dc3e 8db0 773c
00000040: c8bb 943e a554 cf3e bc3e c0ba 5c31 063f
00000050: 5817 023f 7cb8 463c c9d6 6dbf 4d95 163e
00000060: 11f9 513f ef9b 92bf f5ab 0b3e e170 053e
00000070: 84d7 b9be c005 a8be f586 c43e 6f08 34bf
00000080: f4f0 c6be 4363 b83f b77e e13e 5bd8 c73e
00000090: 98e8 7dbd d2bb fbbe ddc9 833d 9b5a 0f3f
000000a0: e935 003f c18f 08be 611c f23e 2c6b ea3e
000000b0: e870 d2be 392a 8c3e 151d ba3e ce6d dcbd
000000c0: 531e 07bc 6c3b 513f 777e 553f c812 9ebe
000000d0: 2a9a df3e 6530 723b ebb1 09be 2688 b5be
000000e0: a0aa 563f 7aa9 283e 633d f23e 0721 ef3e
000000f0: 267a 25be af5e 2ebf 7312 09bf ffb1 8a3e
00000100: 9c6a b73c 4765 833e 3500 843d 8a32 e63d
00000110: b171 4ebe 48df b23e 20b4 863d 0723 193f
00000120: 5752 5abe b660 68bf 277c a73e 14f4 8f3f
00000130: b4e6 033f 5f4e 09bf 1375 06bf f973 6dbf
00000140: 48a4 24be 4608 263e decf d3bd e212 81be
00000150: f343 4fbf c543 9abf 15a4 e8be d2b0 973e
00000160: 9c8b 5e3d 35e3 f3be 3652 a0be 94cf 633d
00000170: d3db 2bbe 774f 69be f30d 02be a852 b2be
00000180: 2354 173e fcc9 2dbe ef10 30be fc9d 033f
00000190: 1046 c4bc f4b3 1b3e 5171 f8be bfce d03e
000001a0: 5e70 143f 5830 1cbf b414 5abe b449 54bf
000001b0: 941a cb3e 9575 bebd a559 d53d 818f 6ebe
000001c0: 4e4f 583f a7b3 d5be 9205 253e a8a0 21bf
000001d0: 35ce 92be 743b c6be 6bba 84be 11ac 73be
000001e0: 01a3 883e 8a17 a43e e6d8 4ebd b801 1dbf
000001f0: 1cf0 623e 56df 36bf 3070 0b3c e682 993d
00000200: 2b94 5abb 87dc aebd fdfa 44bf 2777 85be
00000210: 878e 0bbe e37d 70bf aa7a 86be ad45 523e
00000220: 2037 0c3e 8ee2 e03d 952e 21bf c45b 73bf
00000230: e7f8 a7bf 593c b9be 2a9c 1ebf a848 93be
00000240: 8d4b 45bf 13f3 23be 67f4 9bbe e1f4 f83e
00000250: 5167 9e3e 3451 a2be d6f5 16be a10c 3b3e
00000260: 69a8 f7be 6471 8e3f 2e56 67bf 7228 d4be
00000270: c0b5 a73e 3051 09bf 47b5 d03e 203a ba3d
00000280: 5ed0 e8be 608c 6bbd e5c3 13be 25c2 9abe
00000290: bdc8 52bf 3997 003d b5e6 15bd 9cd3 a7be
000002a0: 79ce 1abd 828e f0be 86f0 89bf 61fd 3bbe
000002b0: ed6d 1d3e be11 bdbe f0e8 20bf 13f7 77be
000002c0: 7e0e dabd f1d6 86bf 4a67 8cbe 6dfa 833e
000002d0: 5471 fcbe b0b8 0dbf bedf 10bf 4038 b3be
000002e0: df5d d4be 5f57 203f abcb adbe fe62 fe3e
000002f0: 7438 03bf 1488 71be 319a f93e 1225 04bf
00000300: c126 2bbf 4be1 3dbf 4344 52be d623 10bf
00000310: 7056 d5bd 6a94 c4bc 9519 a4be a749 033f
00000320: 11e2 58be 373f cdbe 3aba 53be ae4f 03bf
00000330: 3ebf 04bf 4444 30bf 71eb ed3d c2f1 af3e
00000340: d654 cc3e 6529 4c3e b55c 03bf ce67 83be
00000350: 26cb 88bd 2af4 1fbf 6d6a 383f 1c77 053f
00000360: c084 babe 741a 9b3e f787 c6bd d9c4 213f
00000370: 7e73 55be 7be1 0bbd 41d5 993d 5702 893d
00000380: 60eb 65be 1d7d b2be 2a87 43be a3ef 873d
00000390: 1047 45bf 9f77 debb 14ea 03bf cc47 0f3f
000003a0: abf5 03bf 5f37 e53e 5b18 91be f948 2b3f
000003b0: f8ce bcbe f54b 543e 64ce d33e ad3f 063e
000003c0: 13ca 0a3f 1e2b f73e 37e2 04be e7c8 b3bd
000003d0: 733d 793e 12ba c2be a141 4bbe 8ab4 fdbe
000003e0: cd34 91be 7131 d93e fea9 d83c 9e52 c53e
000003f0: 35f2 733e e77f 21be 4709 a13d 5611 81bd

conv2.weight f4 [32, 16, 4]
0.11317302 0.20938843 -0.037694603 -0.0049020383 0.0062814984 -0.102527685 -0.06671966 0.078999996
0.15402506 -0.010038412 -0.080161385 0.016857466 0.059297625 0.12379315 -0.06507092 -0.055500858
0.054610934 -0.09751623 0.036206316 0.056348734 0.07628067 -0.06600322 -0.013187804 0.08649067
-0.0020729015 -0.14475507 0.11352707 -0.116025984 0.003396151 0.00019356879 -0.05648268 0.17722984
0.038614523 0.12272511 0.081382215 -0.14001884 0.025156561 -0.042427786 0.11778012 -0.08341199
0.00661397 0.08020211 -0.08896451 -0.05632339 -0.17894232 0.014297942 0.076609544 0.120193265
0.07789068 0.04885007 0.13349615 -0.1041021 -0.07622757 0.10602953 -0.08018864 -0.15747301
0.104385994 0.17760617 -0.02970034 -0.051398385 0.028088888 -0.041787338 -0.07743003 0.031101476
0.018567003 -0.011684373 -0.20798494 -0.0021897317 0.11489923 0.024423104 -0.087320775 0.017350793
-0.08215177 -0.017368441 0.18776646 -0.08341755 -0.14318235 0.019932609 -0.060684755 -0.1109804
0.087587796 -0.0038031405 0.055594932 0.20451514 0.087202564 0.06841607 -0.12662838 -0.05118937
0.058462877 0.06871981 0.041408993 -0.19018336 0.07916964 -0.11771457 0.04568962 -0.034881573
0.029527126 0.16390008 -0.015758842 0.050039522 0.03815309 0.09431887 0.02565127 -0.08077577
-0.055901956 -0.054440346 -0.006978889 -0.026780326 -0.03344528 0.027102476 -0.08727844 0.053746577
0.08737381 0.020362025 -0.014506055 0.055553053 0.08329369 0.0037040676 -0.005469291 -0.10996915
-0.2245684 -0.027594604 -0.2598937 -0.09092213 -0.06275308 -0.031105185 0.07582113 0.07304871
0.13718669 0.12283274 -0.08038458 -0.20464087 0.078068584 0.08224418 0.058522087 0.01207223
-0.06262556 -0.09285339 -0.1984995 -0.02915415 0.029262157 -0.008351494 0.013072498 -0.11205033
0.044689927 -0.021268696 0.06276703 -0.15636887 0.058747165 0.062507376 0.24689035 -0.058362376
0.053142 -0.0041176276 0.06666833 -0.06250975 0.17153792 0.049462188 -0.07715453 0.013464098
-0.16143832 0.10356879 0.034974784 0.06434621 -0.02229086 0.090460934 -0.12902954 0.010263849
0.077976994 -0.065075554 -0.022136703 -0.045534197 0.002905624 0.011016158 0.15193288 0.1287585
-0.034735076 0.014947613 -0.08990653 -0.0074697654 -0.14096318 0.08890414 -0.10471427 0.010860989
-0.03569655 -0.2853156 -0.034361042 -0.1186971 0.047488693 -0.042840626 -0.03784281 -0.07152975
0.00955244 -0.22016208 0.025636867 -0.09440588 0.016520439 0.0053057945 0.09090531 -0.101975895
-0.010584907 -0.03083316 -0.03502774 -0.0766897 -0.16096164 -0.05026383 -0.0089826025 -0.055415697
0.0071855774 -0.0066849235 -0.023606744 0.004477261 0.16095552 0.19276585 0.115290366 0.015596407
0.11865897 0.059597816 -0.14202692 0.11408374 0.057922572 -0.057755828 -0.06755159 -0.11773793
-0.053897243 0.122338586 0.15255918 0.0022812807 0.04368894 -0.19866462 0.0023820468 -0.022573534
0.028206494 -0.040405985 -0.008756197 0.06513805 -0.10974878 -0.11576615 -0.08016424 -0.054538414
0.043406077 -0.008863754 0.063858405 0.10205629 -0.06829811 -0.073515736 -0.021277951 0.02171606
0.13710952 -0.04744028 -0.057806488 0.00078955846 0.057410475 0.048233267 -0.021556312 0.059401862
00000000: 42c7 e73d ec69 563e a865 1abd 47a1 a0bb
00000010: 07d5 cd3b 09fa d1bd 51a4 88bd c0ca a13d
00000020: bfb8 1d3e 2778 24bc a72b a4bd ab18 8a3c
00000030: 11e2 723d 4387 fd3d e743 85bd de54 63bd
00000040: b7af 5f3d 97b6 c7bd 134d 143d eecd 663d
00000050: 0a39 9c3d b22c 87bd a911 58bc 0522 b13d
00000060: 84d9 07bb ac3a 14be e180 e83d 089f edbd
00000070: f591 5e3b baf8 4a39 625a 67bd bd7b 353e
00000080: 432a 1e3d 4d57 fb3d b8ab a63d 1961 0fbe
00000090: 2215 ce3c c2c8 2dbd b436 f13d e8d3 aabd
000000a0: 00ba d83b 0141 a43d 0633 b6bd 5bb3 66bd
000000b0: a83c 37be ea41 6a3c 77e5 9c3d e327 f63d
000000c0: 2685 9f3d 0317 483d 37b3 083e 7b33 d5bd
000000d0: 331d 9cbd 0326 d93d f139 a4bd 9b40 21be
000000e0: 53c8 d53d 64de 353e 214e f3bc 1d87 52bd
000000f0: ab1a e63c 3329 2bbd a393 9ebd 86c8 fe3c
00000100: d419 983c d06f 3fbc 01fa 54be 9a81 0fbb
00000110: 4a50 eb3d f612 c83c 3cd5 b2bd 4023 8e3c
00000120: 303f a8bd 4348 8ebc da45 403e d2d6 aabd
00000130: 659e 12be b649 a33c 9490 78bd b149 e3bd
00000140: 3b61 b33d 1c3e 79bb 83b7 633d 6b6c 513e
00000150: 4297 b23d b91d 8c3d dfaa 01be f2ab 51bd
00000160: c576 6f3d f9bc 8c3d 7a9c 293d 6dbf 42be
00000170: b123 a23d 5614 f1bd 0a25 3b3d fbdf 0ebd
00000180: dfe2 f13c 6cd5 273e b018 81bc 3ef6 4c3d
00000190: 6a46 1c3d 402a c13d 9d22 d23c c46d a5bd
000001a0: 73f9 64bd d7fc 5ebd 2aaf e4bb 6a62 dbbc
000001b0: ebfd 08bd 0306 de3c 0abf b2bd 5f25 5c3d
000001c0: 0af1 b23d 43ce a63c ceaa 6dbc 998b 633d
000001d0: e295 aa3d f1bf 723b bd37 b3bb 8137 e1bd
000001e0: 42f5 65be 140e e2bc c910 85be 6235 babd
000001f0: b084 80bd 4dd0 febc 1c48 9b3d 909a 953d
00000200: ab7a 0c3e bb8f fb3d aca0 a4bd 608d 51be
00000210: 6ce2 9f3d a36f a83d dbb4 6f3d 9aca 453c
00000220: d441 80bd eb29 bebd 7443 4bbe afd4 eebc
00000230: 31b7 ef3c b4d4 08bc 082e 563c a57a e5bd
00000240: c90c 373d b03b aebc 008c 803d 291f 20be
00000250: dea0 703d de03 803d d3d0 7c3e 630d 6fbd
00000260: 6dab 593d 2aed 86bb 6889 883d 1d05 80bd
00000270: a3a7 2f3e dd98 4a3d 3203 9ebd 8598 5c3c
00000280: 1650 25be e01b d43d b841 0f3d f2c7 833d
00000290: 529b b6bc 9543 b93d 5220 04be b429 283c
000002a0: 67b2 9f3d 5546 85bd 0858 b5bc 1182 3abd
000002b0: 486c 3e3b 1e7d 343c 4b94 1b3e 45d9 033e
000002c0: 5e46 0ebd d5e6 743c ea20 b8bd efc4 f4bb
000002d0: a758 10be 6013 b63d 6f74 d6bd 4af2 313c
000002e0: 8c36 12bd e314 92be 2abe 0cbd 7717 f3bd
000002f0: 8183 423d a779 2fbd 1001 1bbd 317e 92bd
00000300: d681 1c3c 2b72 61be 6804 d23c df57 c1bd
00000310: df55 873c 3bdc ad3b 902c ba3d bdd8 d0bd
00000320: 516c 2dbc d395 fcbc 3f79 0fbd 7d0f 9dbd
00000330: 21d3 24be 72e1 4dbd c42b 13bc 92fb 62bd
00000340: fe74 eb3b 340d dbbb ee62 c1bc fdb5 923b
00000350: 86d1 243e 6964 453e 5b1d ec3d 1388 7f3c
00000360: 7903 f33d d71c 743d 816f 11be bca4 e93d
00000370: 3840 6d3d 6091 6cbd 7d58 8abd 9520 f1bd
00000380: 5bc3 5cbd a78c fa3d 7938 1c3e 8a81 153b
00000390: 2df3 323d bd6e 4bbe 1d1c 1c3b 22ec b8bc
000003a0: 4e11 e73c bf80 25bd 2776 0fbc 1967 853d
000003b0: f8c3 e0bd ce16 edbd 262d a4bd ac63 5fbd
000003c0: 92ca 313d 4739 11bc 32c8 823d e302 d13d
000003d0: e1df 8bbd 6b8f 96bd 194f aebc e1e5 b13c
000003e0: 7066 0c3e bd50 42bd 7fc6 6cbd 5ffa 4e3a
000003f0: 3f27 6b3d 3f90 453d dd96 b0bc 5e4f 733d

conv2.bias f4 [16]
0.11155625 0.04750218 0.19935861 -0.18361981 -0.04991993 0.0067523904 -0.2237312 -0.006924059
0.15032911 0.014267172 0.08228251 0.033434883 -0.026208434 0.0090265665 0.38055775 0.009034226
00000000: 9a77 e43d a591 423d aa24 4c3e d506 3cbe
00000010: d778 4cbd 2843 dd3b cb19 65be 37e3 e2bb
00000020: e0ef 193e dbc0 693c bc83 a83d 04f3 083d
00000030: 12b3 d6bc 2ae4 133c 77d8 c23e 4a04 143c

conv1.weight f4 [16, 1, 4]
-0.24097633 -0.36643213 -0.3389713 -0.24769782 0.22067264 0.36115357 0.083373584 -0.052155036
-0.41304564 -0.5088851 -0.39552462 -0.4333051 0.40823975 0.40001145 0.30856732 0.21339531
0.5264939 0.62831366 0.47383127 0.36456016 -0.33363488 -0.46688458 -0.46485615 -0.45523223
0.39428103 0.37688026 0.5134818 0.46518105 0.34084263 0.26639685 0.46165928 0.33545095
0.41599816 0.42852652 0.3719506 0.2237186 0.08148849 0.23721215 0.11394722 0.23003308
-0.06863975 0.12864915 -0.42157394 -0.45559675 -0.13162923 -0.276808 -0.051787086 -0.12162544
-0.14072996 -0.26147676 -0.4505546 -0.43477893 0.431879 0.3601037 0.07776942 -0.101931594
0.5300035 0.61773 0.6066722 0.543121 0.3144986 0.07898709 -0.1547288 -0.24534234
00000000: 80c2 76be fe9c bbbe a58d adbe 7fa4 7dbe
00000010: 02f8 613e 1fe9 b83e c5bf aa3d 85a0 55bd
00000020: b87a d3be 4b46 02bf 3482 cabe 2bda ddbe
00000030: cd04 d13e 4dce cc3e 89fc 9d3e 4d84 5a3e
00000040: 4ec8 063f 2ad9 203f 039a f23e a1a7 ba3e
00000050: 31d2 aabe 7f0b efbe a001 eebe 3314 e9be
00000060: 34df c93e 73f6 c03e 8b73 033f 362c ee3e
00000070: ed82 ae3e 2b65 883e 9b5e ec3e 3ac0 ab3e
00000080: b6fd d43e d467 db3e 4f70 be3e 7d16 653e
00000090: 70e3 a63d bee7 723e 295d e93d cb8d 6b3e
000000a0: ff92 8cbd 9abc 033e 8ad8 d7be fa43 e9be
000000b0: d0c9 06be c7b9 8dbe b21e 54bd c216 f9bd
000000c0: 841b 10be 48e0 85be 18af e6be 589b debe
000000d0: 3f1f dd3e 835f b83e 9345 9f3d 83c1 d0bd
000000e0: 4fae 073f 8e23 1e3f df4e 1b3f fa09 0b3f
000000f0: f605 a13e fcc3 a13d 3a71 1ebe 063b 7bbe
