wavae_notebooks/WAV/Various-ups-downs/model-tanh-500/model-tanh-500.pt (torch, 103723 bytes, 13 tensors)

encoder.conv1.weight f4 [16, 1, 4]
00000000: e3bb d83e bd3c bd3e a700 22be 3536 a23e
00000010: 486b e43e 70d7 8dbe 30b4 af3e 9819 3ebe
00000020: 815b bc3e 2ff0 46bd e92a d0be 0ad2 7d3e
00000030: 4df3 6abe 446f fbbd 20c2 073f fc03 91be
00000040: 947d 72bd 85f3 943e bc17 3d3d e9fe e23e
00000050: a091 4f3e ba7c 943e 4d10 d1be e3cc de3e
00000060: 288d 483e b076 c13d c859 a6be ad6c 0f3e
00000070: 5a58 ed3e c9f1 02bf a00b fc3d 53b7 363e
00000080: a579 71be 5ff8 e63e 073b 20be 9073 9c3e
00000090: 9a4e 11be 5f0f 2bbe 14a4 d23e 99fb 243e
000000a0: 52f8 cb3e d9ae 6bbd d18b 2dbd 0a33 b2be
000000b0: 42ac 3a3e 7e39 c33d ba43 bc3d b6ec babe
000000c0: 604b 20bb f58e fc3e d85f 9f3b 9b4b 383d
000000d0: 6d00 943c b29b f73d 2090 35be a9dd bd3c
000000e0: 39cd e1be 1553 a33e 4bcb 953b 2630 f03e
000000f0: 0dfd a2be e777 97be 7e8e 0fbe c9d8 523d
0.42330846 0.36960402 -0.15820561 0.31681982 0.446131 -0.27703428 0.3431716 -0.1856445
0.36788562 -0.0485689 -0.40657738 0.24787155 -0.22944374 -0.122770816 0.53030586 -0.28323352
-0.059201792 0.2909204 0.046165213 0.44335106 0.20270395 0.2900141 -0.4083275 0.4351569
0.19585097 0.09446466 -0.32490373 0.140063 0.4635647 -0.51150185 0.12306905 0.1784337
-0.2358156 0.45111367 -0.15647517 0.30556917 -0.1419014 -0.16705082 0.41140807 0.16111602
0.3983789 -0.057539795 -0.042369667 -0.34804565 0.18229774 0.0953245 0.09192605 -0.3650872
-0.002445899 0.49327818 0.0048637204 0.044993978 0.01806661 0.120902434 -0.1773076 0.023176985
-0.44101885 0.31899324 0.0045713536 0.46911734 -0.31833687 -0.29583666 -0.140192 0.051476274

encoder.conv1.bias f4 [16]
00000000: f4c1 6dbe 4a5b 2bbd 6497 cbbe 1f51 b6be
00000010: 6657 9fbe c922 afbe 7dcd 62bd b238 e7bd
00000020: 33ec e8be 900e 42be 3aab d63c 99df 6a3e
00000030: ad9d d1be ff58 88bd 0992 43be c046 893e
-0.23218518 -0.041835107 -0.3976394 -0.35608765 -0.31121367 -0.34206226 -0.05537175 -0.11290111
-0.45492706 -0.18950868 0.026204694 0.22936858 -0.4094061 -0.066576 -0.19098677 0.2681179

encoder.conv2.weight f4 [32, 16, 4]
00000000: 72c7 c13d 05f9 0dbe 3d21 a8bd da4f da3d
00000010: d89f 773d bb76 d1bd 9191 e13b 5fe8 9c3d
00000020: 2b6f 39bd 2d0e cbbc a20e dcbd 8297 963d
00000030: 2cc0 733d b6f2 f23b fc21 0bbd d419 a4bd
00000040: 4699 21bd 6930 b9bd a80a e13d 38b1 f9bd
00000050: e799 513d 5e78 7b3d 67fe d6bd cd8a a53d
00000060: f456 8f3d b580 a4bd a930 a4ba 53cf a03c
00000070: 071c e43b 6d3c 8ebc 295c 20bc 1291 e03d
00000080: 5f89 3c3d 441b c2ba a125 ccbd 432e 2d3d
00000090: 6a99 653d cd35 0f3b 744b 9ebd 2f26 263d
000000a0: ac25 a13d 067a 813d e9e6 81bc 2adc a3bd
000000b0: 058a db3d fec1 1a3d 588a 8dbd 459d d13c
000000c0: ecf4 813d 9e17 99bd 9d48 1c3d ac14 983d
000000d0: b770 febd 5bf0 74bc b7e6 fdbd 1024 823d
000000e0: 1cab 3abd a852 ef3d 3f3a c9bd aec2 0bbc
000000f0: 8d47 643d 4218 65bd 8dc1 37bd 2d12 abbd
00000100: ddf2 0e3e 6367 783c 3a7a c2bd 2a7e cdbc
00000110: da62 77bd 9056 90bd 65a5 a73d 0fe6 5b3c
00000120: 875a 58bd 4f39 1ebd 5ccf 93bc 65f8 c3bc
00000130: 9927 9f3d 8913 20bc 5a4a 81bd b492 9dbd
00000140: e07b 12bd d217 12be 27fd 503d c3a8 ccbc
00000150: ded7 12bc a27a 7b3c 758f 603c 20b9 a93d
00000160: 476e 37bd 17f9 343c 6a1c 743d 7ce6 8fbc
00000170: 125f 803d 36ab 3abd 480a 5d3d bd60 223c
00000180: 049b e3ba 0fca 1ebd 251e acbc 61cb d6bd
00000190: 196b a93d 2ffa b3bd 735b 263d 5c4b 0bbd
000001a0: b367 2c3d e9c4 f9bd 1522 3fbc 99d5 dabd
000001b0: 37cf 8bbd 404c 96bb f033 d5bb d3c3 71bd
000001c0: 64bd 593d 7841 31bc 1da3 a53d 612d d5bd
000001d0: 8016 f9bd d246 cebd 866e a0bc b464 b43d
000001e0: c28d 66bd 7449 4b3d 5c3c 323d 82b7 afbd
000001f0: 522a de3d e889 14bd 3a69 92bc 23ea d1bc
00000200: f66f 79bd d69b 043e 9726 80bd f2ef 75bd
00000210: 1247 a03b 7394 25bd 223d b3bd e476 463c
00000220: 0dc1 f63c 5b66 7c3c d155 dc3d 903b 13bd
00000230: 6040 cdba aca4 de3d 1d73 96bd f432 a63d
00000240: 159b a03b bd0c ddbc 0e17 903d feab a6bc
00000250: 089c c83d 9ca3 a5bd 835a d8bd 70ef a0bc
00000260: fb4c cbbd 6680 93bc 0220 55bd 706c 5f3d
00000270: 44e9 b0bd b40e 2b3c 1239 f53a 9510 b03d
00000280: 317b 82bd 0317 a83d 8e61 e3ba a713 b63d
00000290: af5f 453d 5b0c ae3c d345 8f3d 6334 c5bd
000002a0: 716f 733c fb7b 88bd 990b d03d 8bc6 eebd
000002b0: b8de b63d ad3c b5bd c6ac 983d cd55 173d
000002c0: 5499 473d b51e 333d 2394 e7bc 8ecd 1e3d
000002d0: 5ec8 e2bd ad03 1f3c cee6 ebbd 02f1 f7bc
000002e0: bc60 96bd f4e2 fbbc 42a6 0f3d 8b86 acbc
000002f0: 883b acbc 18dc 963c 200d 3cbc 2751 54bd
00000300: e15d ce3d 8025 dc3c e72b 473c fd8b 393d
00000310: bd10 1b3d fb60 d6ba f0ff db3c 5185 b93d
00000320: 99dc 98bd e7fb 163b 40dc b93d 1609 093d
00000330: a2b8 1c3c 3ec4 af3b d450 aeba cfb4 d1bd
00000340: d6bd 0dbd 0350 863b fbcf efbd 4ebf 0ebd
00000350: 2b46 b1bc 69d9 5cbd 367a 5e3d 4338 c2bc
00000360: 3fc7 d33d 964a 3bbb ce5f 8bbd eb48 bbbd
00000370: e598 d83c 1fc1 1e3d 93db d7bd f14d 633d
00000380: 8daf 7ebd 95d1 0abe 78ce 823d cc64 533d
00000390: 5675 f7bd b892 b93a 9725 d3bd a7de b5bd
000003a0: 3681 823c e776 b9bb 853e 0cbd dad7 61ba
000003b0: 8383 dbbc 15ac ac3d 857e d3bd f1c7 0dbd
000003c0: f953 223d f6f4 7ebc e6dd bd3c ac1c 203d
000003d0: 2dcd ad3b 6f62 c83d 7bdb 623d f5a1 fdbd
000003e0: 4592 9d3d bac5 b4bc d2e3 c93d 6c2f 89bc
000003f0: 032e 053e 24a6 8dbc ae54 bfbd 7af1 183c
0.09461869 -0.13864525 -0.08209465 0.10659762 0.060455173 -0.10227724 0.006883808 0.07661509
-0.045272034 -0.024787033 -0.107449785 0.073531166 0.05950944 0.0074141873 -0.033967957 -0.08012739
-0.039452814 -0.09042437 0.10988361 -0.12192005 0.051172163 0.061394088 -0.10497742 0.08083115
0.06999007 -0.080323614 -0.0012526709 0.01963011 0.006961349 -0.017362798 -0.009787598 0.1096517
0.046029445 -0.0014809151 -0.09968115 0.042280447 0.05605451 0.0021852136 -0.07729235 0.04056376
0.078685135 0.06322102 -0.015857177 -0.08000977 0.107196845 0.03778266 -0.069111526 0.025587687
0.06345543 -0.07475208 0.038155187 0.07425818 -0.124238424 -0.014949883 -0.12397521 0.063545346
-0.04557334 0.11685687 -0.09825563 -0.008530302 0.0557323 -0.055931337 -0.04486232 -0.08353076
0.13959832 0.015161368 -0.09495969 -0.025084574 -0.060397007 -0.070477605 0.081858434 0.013421549
-0.05282071 -0.038628872 -0.018043213 -0.023922155 0.077712245 -0.009770283 -0.063130096 -0.07693997
-0.035762668 -0.14266899 0.051022675 -0.024982816 -0.0089626 0.015349062 0.013706078 0.08287263
-0.044782903 0.011045716 0.05959741 -0.017565958 0.06268133 -0.045573436 0.053964883 0.0099107595
-0.0017364924 -0.038766917 -0.021010468 -0.1048801 0.082723804 -0.08787953 0.040614557 -0.034007415
0.042091083 -0.12195761 -0.011665841 -0.10685272 -0.068266325 -0.0045867264 -0.0065064356 -0.059024643
0.053159133 -0.010818832 0.08087752 -0.10409046 -0.12162495 -0.10072102 -0.019583952 0.0880827
-0.056287535 0.049630597 0.043514594 -0.08579923 0.10847916 -0.03626433 -0.017872442 -0.02562434
-0.06089779 0.12950072 -0.062573604 -0.060043283 0.0048912847 -0.040424775 -0.087518945 0.012113307
0.03012135 0.015405263 0.10758556 -0.035945475 -0.0015659444 0.108712524 -0.07346175 0.08115187
0.0049012997 -0.026983613 0.07035647 -0.020345684 0.097953856 -0.08087847 -0.10564139 -0.019645423
-0.09926792 -0.018005561 -0.05203248 0.054546773 -0.08638242 0.010440517 0.0018709025 0.08596913
-0.06371153 0.08207514 -0.0017347799 0.08890467 0.048186954 0.021246126 0.0699574 -0.096291326
0.014858113 -0.066642724 0.10158462 -0.11658963 0.08929199 -0.088494636 0.07454829 0.03694706
0.04873021 0.043730456 -0.02826888 0.03877025 -0.11073373 0.009705466 -0.11518632 -0.030266289
-0.07342669 -0.030747868 0.035070665 -0.021060249 -0.02102448 0.018415496 -0.011477739 -0.051835205
0.100765 0.02687335 0.012156463 0.04529952 0.03785776 -0.0016355807 0.026855439 0.09058631
-0.07463951 0.002303833 0.090752125 0.03345593 0.009565504 0.00536397 -0.0013299235 -0.102395646
-0.03460487 0.0040988936 -0.11709591 -0.03485041 -0.021639904 -0.053918276 0.05431577 -0.023708468
0.103407376 -0.0028578392 -0.06805383 -0.091447674 0.026440093 0.038758393 -0.10539927 0.055494253
-0.062179137 -0.13556512 0.06387037 0.0516098 -0.12082927 0.0014158105 -0.10309904 -0.08880358
0.015930753 -0.005659926 -0.03423931 -0.0008615233 -0.026796108 0.084312595 -0.10326866 -0.034614507
0.039630864 -0.015561333 0.023177098 0.039089844 0.005304 0.097844 0.055385094 -0.123844065
0.07693914 -0.02206694 0.098579064 -0.016746245 0.13005833 -0.017291136 -0.09342323 0.009334916

encoder.conv2.bias f4 [32]
00000000: a964 cd3d 2a7f a5bd 48fd d13d 6dda 84bd
00000010: 704c 393d b57e 023d b566 88bb 9954 fcbd
00000020: 8f88 053d 8ae4 47bd bf4a 953d 7e25 543d
00000030: 343a a03c d4c8 51bd 099a 73bd 2b36 3a3d
00000040: e586 153d f032 acbd d7a7 993d c27b d53c
00000050: 7d1b b8bd bd25 c03d b8b5 c33c 62df 483d
00000060: 8e88 e73d fa68 a7bd 3b20 bf3b 9a54 9e3d
00000070: 4e3f 8d3d 970c fa3c 344e 773c 9af4 08bc
0.10028965 -0.08080895 0.10253388 -0.06486974 0.045238912 0.03185912 -0.0041626343 -0.12320823
0.032600936 -0.048801936 0.07289647 0.051793568 0.019559003 -0.051216915 -0.05947307 0.045461815
0.0365056 -0.08408153 0.07502716 0.026059989 -0.08989618 0.09382198 0.023890361 0.04904116
0.113053426 -0.081743196 0.0058326996 0.0773098 0.0689684 0.030523581 0.015094329 -0.008359099

encoder.fc_mu.weight f4 [3, 2048]
00000000: 0ab1 0cbd fef2 69bc 6502 8d3c 991c b73b
00000010: 92bc 9fbc e7b1 223a d5e6 953c b35a eabb
00000020: 8a2b b0ba 2b7c 053d 40e9 633a b57b 9abc
00000030: 8762 af3c 83cf e73c bc58 eabc 74e3 cebc
00000040: 7c8e ecb8 31f8 25bb ad54 a4bc 4b05 14bc
00000050: a61c b9bc b41b 9a3c 8110 bdbb 8539 33bb
00000060: f616 c4bc 6cd7 acbc 4638 50bc 8ad9 c83c
00000070: d428 453c 6c70 3ebc fa97 083c bfcd 9cbb
00000080: 70dd c7bc 2e50 40bc 5589 993b 6b26 9bbc
00000090: 4378 8a3c 5165 e6bb 7154 85bc a253 afbc
000000a0: 50ad 8bbc 48ae 94bb 45cc 6ebb 654a 853c
000000b0: d3d8 9cbc 016c 023c 7986 06bc 045d 0f3c
000000c0: 48f1 813a bcaf 70bc da91 ab3b 98f8 ecbc
000000d0: 1cd5 0ebc 896a 173c d4c5 533c 978a 083b
000000e0: a6e5 94bb 5c4f 7ebc 14b7 873c 98d4 0fbc
000000f0: c6f5 4bbc d779 82bb d2b9 1fbd ecbd 903c
00000100: b4fa 0cbd 63ca 95bd 72a5 3d3c 2966 bbbc
00000110: e474 8d3c c788 98bc 8200 9dbd 491d 083b
00000120: 7a94 d3bb 38a0 a0bc fd30 29bc 6367 8a3c
00000130: a613 f2bc 6a32 1c3d 4211 893c bda0 bdbb
00000140: 7ab7 833c a6a1 a5bc 1793 08bd 580f 48bb
00000150: 37db f63c b2d4 4c3c 2b6c fb3c f180 7dbc
00000160: 769d 03bd 548d 8fbb c862 cebc 79b6 503d
00000170: a9b9 713c 6dfc 6dba ce67 463d 0808 f2bc
00000180: 1212 593d 3b7b cfbc 8490 f4bb 35f4 753d
00000190: 93d5 3ebd dcfd c43c b81d 6fbc abb6 df3c
000001a0: 1d90 66bc 1f58 963c 1469 3dba 1028 d23b
000001b0: 66bf 91bc fa21 3b3c 70e0 963a fd0a 14bc
000001c0: 1e40 b33c 6e8a b2bd adc2 b03c 7692 85bc
000001d0: 9c5c 14bd 1613 b03c 561a 853c 4ef4 9f3c
000001e0: 1cd8 fe3a c154 dc3c 87de 8f3c 191a 4a3d
000001f0: e10f 563d 03e1 50bc 6c93 d3bc 8c70 453c
00000200: 4324 833d 6fb1 f9ba bcc2 8c3c 596b a33c
00000210: 57aa 8ebc 7804 7c3c c809 e83a f14e 2a3d
00000220: af52 d4bc c073 333c 677a a8bb cbf5 4bbc
00000230: 356b a93b ebea 823c 2fbb 9837 b4d8 50bd
00000240: f932 aa3c a789 a63c 2978 193b d881 eebb
00000250: 680c 8fbc 6587 3cbc 2702 a63b 3e1c 95bd
00000260: 6d93 44bb 497c b83c ef33 7fbb dac9 0eba
00000270: d268 3fbb d7de bfbc 678e 84bc bc7a 3ebd
00000280: 31dc 48bb cf22 1bbc 8ae6 333c 6477 063c
00000290: 9afe cb3c 7ff9 a4bc c66b f2bc 4459 753c
000002a0: f51d 31b8 b85b b139 7f20 9b3c 35c0 8fbc
000002b0: 39ee 60bc 85f0 89bb 83d5 7f3c 9432 c8bc
000002c0: ba38 8d3b 4982 313c 7bcc 153d b17e ea3b
000002d0: 8946 f5bb 81cb d83b 0c64 b2bc dc9d e1bb
000002e0: 47dd a9bc 6a76 403c 0fbd 1abc 2c4d 033b
000002f0: 066c 66ba 71ac 92bc 3141 98bc 6313 573b
00000300: 5e44 ca3b 55af dcbc 7463 2a3c 4c0c 263c
00000310: 7c8a 6bbc 9f9e 683a c468 273b ae46 b8bc
00000320: 0f0e 18bd cdd0 0e3d 5fe3 2f3c 9f99 ed3b
00000330: 327e 7fbc 7c2a b13b be3e 963c f328 8bbc
00000340: a29a 14bd c92d 033d 71bb 253d 890c df3c
00000350: c57e 38bd 634c 263c 99ac 0d3d 5f58 06bd
00000360: cb68 7c3b 5982 a8bc ebc2 843b 8633 2b3d
00000370: 92f1 9fbb 0fef 84bc 0d96 113c 68d0 98bc
00000380: d9cc 17bc 3cf5 233c aa7f 0dbd a47a 8fbc
00000390: c98a 2b3d 8106 92bc ff10 73bc 3f34 ecbc
000003a0: fb01 94bb 31af 23bc 5e8d c63c 4f65 a13b
000003b0: 318c f9bb cf7b 23bd 32d3 6c3d bde9 d1bb
000003c0: 00fa 4e3c 8961 92bc 6b7d 62bc 678c 5a3c
000003d0: 2a0c 4b3b 60d7 8cbc f0eb 49bc 0263 3d3b
000003e0: cd9b c1bb b920 003d e26a 15bd c06c 60bc
000003f0: 6c4f 2a3d f5d6 163d eaad 46bd 9d66 f1bc
-0.034348525 -0.014279125 0.017213056 0.005588126 -0.019499097 0.0006206319 0.018298546 -0.0071519255
-0.001344071 0.03258912 0.000869412 -0.018857816 0.021409286 0.028297191 -0.028606765 -0.025254942
-0.00011279897 -0.0025324936 -0.020059908 -0.009034465 -0.022596668 0.018812038 -0.0057697897 -0.0027347517
-0.02393673 -0.021098815 -0.012708729 0.024517793 0.01203366 -0.011623483 0.008337015 -0.004785269
-0.024397582 -0.011737866 0.0046855607 -0.018939218 0.016903048 -0.007031121 -0.016275616 -0.021402184
-0.017050415 -0.0045373775 -0.0036437672 0.016270826 -0.019146359 0.00796032 -0.008210772 0.008750204
0.0009913826 -0.014690336 0.0052358927 -0.028927132 -0.008717801 0.009241709 0.012925584 0.002083456
-0.004543978 -0.01552185 0.01656679 -0.008778714 -0.012448734 -0.0039818096 -0.03899557 0.017668687
-0.034418777 -0.07313993 0.01157509 -0.022875862 0.017267652 -0.018619908 -0.076661125 0.0020769408
-0.006456909 -0.019607648 -0.010326621 0.016895002 -0.029550385 0.038134016 0.016731862 -0.0057869838
0.0160787 -0.020218682 -0.0333434 -0.0030526724 0.030133827 0.012501882 0.030691227 -0.015472637
-0.03213259 -0.0043808613 -0.025193587 0.05095527 0.0147537375 -0.0009078447 0.04843884 -0.029544845
0.05299575 -0.025327316 -0.0074635167 0.060047347 -0.0465904 0.02404683 -0.014594488 0.027308783
-0.014072445 0.018352566 -0.00072254357 0.006413467 -0.017791461 0.011421675 0.0011510979 -0.009035823
0.02188116 -0.087178096 0.021577204 -0.01630519 -0.03622113 0.021493476 0.01624791 0.019525673
0.0019443068 0.026895883 0.017562164 0.049341295 0.052261237 -0.0127489595 -0.025827132 0.012050759
0.06403401 -0.0019050072 0.0171827 0.019948648 -0.017415209 0.015381925 0.001770311 0.04157919
-0.025918333 0.01095289 -0.0051415446 -0.012448738 0.005170251 0.015981158 1.8206976e-05 -0.050987914
0.020776259 0.02032931 0.0023417568 -0.007278662 -0.01746197 -0.01150689 0.0050661745 -0.072807774
-0.00299951 0.022520201 -0.0038940867 -0.00054469483 -0.0029206765 -0.023421688 -0.016181184 -0.046503767
-0.0030648822 -0.009468748 0.010980258 0.008207176 0.024901677 -0.0201385 -0.029592406 0.014974896
-4.2227988e-05 0.00033828407 0.018936394 -0.017547706 -0.013728672 -0.0042095804 0.01561487 -0.02443818
0.004309741 0.010834285 0.03657196 0.007156216 -0.007485215 0.0066160564 -0.021776222 -0.0068852734
-0.020735396 0.011746982 -0.009444489 0.0020035012 -0.00087899005 -0.017904492 -0.018585773 0.0032817952
0.006172701 -0.026939074 0.010399688 0.010134768 -0.014376279 0.0008873734 0.0025544623 -0.02249464
-0.037122782 0.034867097 0.010735362 0.007250979 -0.015594052 0.005406676 0.018340465 -0.0169873
-0.03628028 0.032026086 0.04046196 0.027227657 -0.04504277 0.010150048 0.03458843 -0.03279912
0.003851461 -0.020569967 0.0040515563 0.041797183 -0.0048810923 -0.016227273 0.008885873 -0.018654063
-0.009265148 0.010007199 -0.034545578 -0.017514534 0.041880403 -0.017825367 -0.014835595 -0.028833507
-0.0045168377 -0.009990499 0.024237331 0.004925407 -0.007615589 -0.039912995 0.0578186 -0.0064060376
0.012632847 -0.017868774 -0.013823847 0.013339139 0.0030982592 -0.017192543 -0.012324318 0.0028898125
-0.0059084655 0.031281207 -0.036478885 -0.013697803 0.04157965 0.036826093 -0.0485057 -0.029467875

encoder.fc_mu.bias f4 [3]
00000000: a5eb 613b c16d 43bc 3273 dcbc
0.003447273 -0.011928023 -0.026910398

encoder.fc_logvar.weight f4 [3, 2048]
00000000: 4869 28bd d758 d93b af09 53bd 8ebe 17bd
00000010: 2eba a0bd ed31 5bbd cf77 ccbc d61b 95bd
00000020: d000 cebd d942 68bd 4fda 40bd cdc8 68bd
00000030: 405d 9fbd 7713 8cbd f571 adbd 7ad4 82bd
00000040: e0db e9bc 08cd 9ebd 2cc4 bdbc 0c8d 9bbd
00000050: f5e4 49bd 43d6 9bbd a7a2 6cbd c161 59bd
00000060: c6f2 0abd 9d90 9dbd 9c0d 3fbd f3f1 49bd
00000070: 9c8d c6bc f054 95bd f9fe d4bc fd96 78bc
00000080: b33b 7abd 9ea7 1abd 24e8 83bd e1c1 34bd
00000090: df0a 48bd 8d4d b1bd b057 a7bd 52c9 1ebc
000000a0: 3742 07bd b753 29bd 1134 0ebd a0fd 2abd
000000b0: 19a8 54bd 1666 0cbd d691 d7bc 38b2 98bd
000000c0: 2ae5 60bd 54e3 e2bc aa79 5bbd 09d4 a1bd
000000d0: f242 40bd a876 63bd f5d5 61bd b733 f6bc
000000e0: 56f6 2dbd 91dd 8dbc 48ec 88bd f4a4 12bd
000000f0: 713a 8cbd a7f0 8bbd 43e2 7ebd 93a7 71bd
00000100: 10b9 c8bb 3ec9 573d 9ed1 90bc d4f1 b3bc
00000110: 6d98 733d 3582 4cbd da23 903d ecbe 32bd
00000120: acc7 ed3b 5157 093c 8190 e13c f533 1abd
00000130: d547 2c3c 7fa1 24bc 4deb 53bd c42c 133d
00000140: 7d38 e93d 3db1 8bbd ce68 7e3c 2de5 34bc
00000150: 577c 88bc 41c0 92bd 0ecf 703d 8506 82bc
00000160: 1bf7 a3bc 12df 423d 2392 b3bd 3394 46bc
00000170: 0959 913c f639 4dbd 3064 033d 7ec6 ce3d
00000180: c899 43bd 9de9 733d 6579 bfbd abd9 0d3d
00000190: a08e d63c 1ef1 82bd d7ee a9bc b2eb fd3c
000001a0: ff26 df3b 1bdd 8c3d e3a2 0bbd 90ac 973d
000001b0: 9270 5ebd 3a7d 823d d111 c8bd a400 1e3d
000001c0: f767 a43b 0757 eb3d a0fd 083c 5e8d 8abc
000001d0: cc81 3dbd 27d1 c83c 16c7 85bd dcf7 cb3c
000001e0: 5318 0fbc 5cd1 5c3d 5ba7 993d 69a3 5bbd
000001f0: 0d7f 14bd 1a9c a9bc 9dcd 3abe 0c3e bb3d
00000200: ad27 d1bc f89a 883d ec73 9dbd d4b1 87bc
00000210: 3947 813b 9fd0 b73c 4aa2 30bc 8650 ac3c
00000220: 5205 3c3d ee48 053d 6ef8 deba 1082 bfbc
00000230: 2ef2 69bc 7045 573d 77ed f83b 8bc0 96bd
00000240: 0ec0 303d e1af 9ebd 2951 293d 3871 cfbb
00000250: 10c9 8d3c 82d4 543d 64ef c6bc 57d1 b3bb
00000260: c93e 733d 230f bdbc 08aa 253d 1061 c33d
00000270: 0ee0 8dbb ce7d 0abd c4aa 5a3a 4e5d a0bd
00000280: d64c 7bbd e007 b03c 3907 413d db9a 24bc
00000290: 6cf4 053c b92f 1fbd b231 003d 0d4b 863d
000002a0: 778a 99bd 8700 1a3a f0f5 62bd 2e25 573c
000002b0: be40 cc3b 9232 a6bc 4b04 b63c 8140 753d
000002c0: 8a0c b2bc 9a84 d4bd 1cc5 e1bb 1aa0 5bbc
000002d0: f6a7 56bd 1f42 463d fa0c c43c b629 733c
000002e0: db25 94bc 0f49 57bd dfb0 dd3c 1d21 b9bc
000002f0: d7a3 eebc 66a4 5f3d 8bfc 083d 47d7 ccbc
00000300: 50af 4c3d 1c0e d93d a97d 663d e6f7 b3bc
00000310: cdde 02bd 54cc 543d bd99 8a38 a37e 5d3c
00000320: 5cad 4bbc 7701 8e3d b340 8dbc 9016 51bc
00000330: 41ec 06bd 28db 42bd 7e83 24bd ce9e 86bd
00000340: 1ee9 4e3c 69c1 7abd 044d 5abc f375 5fbd
00000350: af37 c53c 8b24 e93b 2909 1bbe 084b 8e3c
00000360: 00eb 1d3d 94ed 63bd c4e0 0abd 3658 113c
00000370: da0a ab3c 4eb8 0e3d a942 603b 3882 cdbb
00000380: 2fb1 803d 4ebd 023c 2590 763d fa07 2bbd
00000390: 2891 873d e9ac 04bd e748 2ebd d679 3a3c
000003a0: a745 73bd 7caf a9bc 243f 59bd dad5 1bbd
000003b0: 5ed9 db3c e2e6 00bc db1b 6ebc f025 2c3c
000003c0: 5260 e13c c9ca 99bd 6df1 a23c 8001 1f3b
000003d0: 8a83 35bd f663 5f3c 634e 113d c3c8 5c3c
000003e0: 1089 c63d d30e 8abd e557 1e3d 044d c73c
000003f0: 8832 6d3c 72a5 2d3d 7906 d03c f379 223d
-0.04111603 0.006632905 -0.051522907 -0.03704696 -0.07848011 -0.05351441 -0.024959473 -0.072807
-0.10058749 -0.056704376 -0.047083195 -0.056832124 -0.07781458 -0.0683965 -0.08469001 -0.06388183
-0.028547227 -0.0775395 -0.023164831 -0.07595262 -0.049290616 -0.076092266 -0.057772305 -0.05307174
-0.033922933 -0.076935984 -0.04664384 -0.049303006 -0.024237446 -0.07291591 -0.026000487 -0.015172717
-0.06109209 -0.03775751 -0.06440762 -0.04413021 -0.048838492 -0.0865737 -0.08171022 -0.009691553
-0.03302213 -0.041339602 -0.034717623 -0.041745782 -0.051918123 -0.034277044 -0.026314657 -0.074558675
-0.054906048 -0.02769629 -0.053582825 -0.079017706 -0.046938844 -0.05553308 -0.055135686 -0.030053956
-0.042471252 -0.017317565 -0.06685692 -0.035801843 -0.06847084 -0.0683301 -0.0622275 -0.0589977
-0.006125577 0.052682154 -0.017678078 -0.021965899 0.059471536 -0.049928863 0.07038088 -0.04363911
0.0072564688 0.008382634 0.027534725 -0.037647206 0.010515173 -0.010048269 -0.051738072 0.035931364
0.113877274 -0.06820915 0.015527917 -0.011040968 -0.016660852 -0.07165576 0.058791213 -0.01587225
-0.02001529 0.047576018 -0.08768108 -0.012120294 0.01774265 -0.050104104 0.032077968 0.10096453
-0.04775408 0.059548963 -0.09349326 0.034631412 0.026191056 -0.06393646 -0.02074377 0.030996177
0.0068100686 0.0687811 -0.034090888 0.074059606 -0.054306574 0.06371541 -0.09769023 0.03857483
0.0050172764 0.114912085 0.00836125 -0.016913112 -0.046266362 0.024513794 -0.06532113 0.024898462
-0.008733827 0.0539106 0.07502624 -0.053622637 -0.036253978 -0.020704318 -0.18242498 0.09142694
-0.025531614 0.06670183 -0.07688126 -0.016564287 0.003945258 0.022438345 -0.01078088 0.02103449
0.04590351 0.032540254 -0.0017011294 -0.023377448 -0.014278932 0.052556455 0.0075966674 -0.073609434
0.043151908 -0.0774839 0.041337166 -0.0063306354 0.017307788 0.051960476 -0.024284072 -0.0054876017
0.05938605 -0.023078507 0.040445358 0.095399976 -0.004329688 -0.033811383 0.0008341486 -0.078302965
-0.061352573 0.02148813 0.04712603 -0.010046686 0.0081759505 -0.03886387 0.031297393 0.065572836
-0.07497113 0.00058747124 -0.055410326 0.013131423 0.006233304 -0.020287786 0.022218844 0.05987597
-0.021734495 -0.10376854 -0.0068899523 -0.01340487 -0.052406274 0.0484029 0.023931969 0.014841488
-0.018084457 -0.05255991 0.027061878 -0.022598797 -0.02913086 0.054600142 0.03344397 -0.025004996
0.04997188 0.10598394 0.056272183 -0.021968793 -0.03195076 0.051952675 6.608989e-05 0.013518962
-0.012431469 0.06933873 -0.017242765 -0.012761727 -0.032940153 -0.047572285 -0.040164463 -0.06573258
0.012628822 -0.061219607 -0.013324026 -0.054555845 0.024074404 0.007114952 -0.15140213 0.017369762
0.03855419 -0.055646494 -0.03390576 0.008871129 0.020879198 0.034843735 0.003421942 -0.006271627
0.06283795 0.007979704 0.06019606 -0.041755654 0.06619483 -0.032391462 -0.042549994 0.011381587
-0.059392598 -0.02071356 -0.05303873 -0.03804574 0.026837047 -0.007867547 -0.014533008 0.010507092
0.02751175 -0.07509381 0.019890511 0.0024262369 -0.0443149 0.013634672 0.035475146 0.0134756
0.09694111 -0.06741109 0.03865804 0.024328716 0.01447738 0.04239411 0.025393711 0.03966708

encoder.fc_logvar.bias f4 [3]
00000000: fa16 b5bd f754 82bd d132 b9bd
-0.08842273 -0.06363862 -0.090428956

decoder.fc.weight f4 [2048, 3]
00000000: f2ac 8a3e 8df7 0bbe 164e 85bf a086 c0be
00000010: 125a 7a3e 359d 4bbd 4c6b ddbd 0fe0 063e
00000020: d79f 66bd 0f92 573e 6954 1f3f df1b d03e
00000030: b503 053f 9dda 2b3e 199b 053c 49c6 0dbf
00000040: 78c8 213e dc3e 2cbe f58a c63d 2430 44bf
00000050: 5600 973c f0a9 083f da8e f13c 50b9 013f
00000060: 252f f0bc b8c0 e7be a2a1 81be 3157 15bf
00000070: 8e50 e63d 893e 79be 3e10 b73c bd2d efbd
00000080: 4a36 e13d 4695 b9bd 7223 1bbf ed0c 723f
00000090: 3e17 c4bc 1d4f 8bbe 721c 9cbd 421e 3fbe
000000a0: 0049 783e 14eb 2fbe 9cb2 823c c0ce 433e
000000b0: f517 98be 9053 933e 9951 63be 1f79 9c3e
000000c0: 1998 0fbf e01f 26be d75b 92bd d0fb 8b3f
000000d0: ca3f abbe afd5 97be 14c1 97be e568 15bf
000000e0: 9463 21bf a903 24bf 2b01 153f c103 90be
000000f0: a459 7f3e c203 113f d0a6 843f 5ad5 f5be
00000100: 5b22 ee3e 1b0d ba3e 2e78 4fbe 3235 763c
00000110: 0aee c6be c782 13be 1fde c4be 5919 1a3f
00000120: 6d80 19bf d028 9cbe 4e81 453d 7e48 14bf
00000130: 22ad 223f 4f56 c1be f252 323f b6f8 68be
00000140: d457 1d3f 977f fcbd cba6 12bf 6f41 93be
00000150: 69ce d4be a288 c33e 8d3d 91be 8e66 4cbe
00000160: 2b61 103f e0ff 4abf 983c 06bf 1074 ebbd
00000170: b099 fabe c77e b6be 97af c53d 80af fcbd
00000180: 8896 37bc e751 353e d089 973e a4c7 db3e
00000190: 11ef e4be a44d c4be 780c a83e 6ecf 7cbc
000001a0: aa2c 9e3e 02db 1bbe c330 aa3e fe55 08be
000001b0: 7184 6abe ffa7 49bf c5c0 e93e e7df d9bd
000001c0: a398 1cbf 81b0 e83d 54e4 f6be b3ec 2cbe
000001d0: 482b 95bd cad2 52bf 7488 b23e 4f04 803e
000001e0: 68b4 503f ca5d c8be 41c3 a93e f0be 223e
000001f0: bca0 04bf a584 363e d0da e03c fe7d 083c
00000200: 9fa5 c9bd c2f0 f73e 9dab 0bbf 6e00 8dbd
00000210: 0e9c 00bf edda 2cbe c12b 033d 1b67 d1bd
00000220: 0526 88be d87e 97be c040 163e 7e0b cb3e
00000230: 2678 273d d952 293e 4e22 82be 369f a7be
00000240: 0257 f43e 78b7 f3bd 3451 f73c 5b28 c9be
00000250: 56a6 b03e f03c eabe d514 18bf edd5 f5bd
00000260: 2823 35be d91f 9cbe b7aa fb3e f840 40bd
00000270: 126b e23e a756 413f eb83 863e 9746 543f
00000280: 6f9a 6c3e a098 7b3e e87f b53e 02e2 083d
00000290: 4536 45be de7c 923e d76d 90bd ddd8 68be
000002a0: 6dfc d3be b06c 16bd 665f bb3e 4eda b4be
000002b0: 5782 8dbe 964e 1cbf ee00 9a3e a376 b1bd
000002c0: 9840 4e3e 91d2 b0be 4242 16bf 9cd7 98bd
000002d0: e25b 423e 77c6 b53e 8d66 efbe dea9 b63e
000002e0: b15a dcbd e099 953e cd18 9a3a 37dc d3be
000002f0: 3110 cf3d cbcd 43bf 6a37 26bf 8d7e 543e
00000300: 5c38 60be 80ad 2f3f 32d5 acbe e707 bcbd
00000310: dc23 8fbd 1a5d 633e 71c2 25bf 2ebd 933e
00000320: fc72 e23c d18c 843e 1723 ebbe 0055 f7be
00000330: f177 15be 5a1b 4bbf ce8a b93e abd0 013f
00000340: 7df2 e93d f921 073f afea 96be 8e97 653e
00000350: d6cb 70be b513 75be 7558 babe 61fd 8d3e
00000360: 66cd 9b3e 5db8 1ebf f052 093e 23ab b53d
00000370: e874 483f 421d 513e 150b c13d 256b 873e
00000380: 3396 013e b4e4 76be 64f5 a2be ee9e 3c3e
00000390: 9c01 c9be 9545 85bc 0c1f 06be 4d39 38be
000003a0: fce4 cd3e bf32 0c3f fb3e 9c3e a47d 833d
000003b0: 82d9 ff3e 3184 16be 8d9c 353e 001f b13e
000003c0: 7017 153f 7efe 173e 5742 02be d4d7 28bf
000003d0: 0ec1 a6be e29f 373f 0c64 16bf 46e7 1f3e
000003e0: f25a 113f a71c 2abe 5b6e c4be 59e2 c1be
000003f0: d88c 30bc 5572 4a3e 68bc 303f 5c9e b7be
0.27085072 -0.13668652 -1.0414455 -0.3760271 0.24448422 -0.04971047 -0.10811481 0.13171409
-0.05630478 0.2105181 0.62238175 0.40646264 0.5195878 0.16782613 0.008154654 -0.55380684
0.15799129 -0.16820854 0.09694473 -0.76635957 0.018432777 0.53384304 0.029487062 0.5067339
-0.029319355 -0.4526422 -0.2531863 -0.5833617 0.11245833 -0.24340262 0.022346612 -0.11678646
0.10996683 -0.09061675 -0.6060096 0.94550973 -0.023936864 -0.27208796 -0.07622613 -0.18663886
0.24246597 -0.17179519 0.015954308 0.19121838 -0.29705778 0.2877469 -0.22199096 0.30561158
-0.5609146 -0.16223097 -0.07146423 1.0936222 -0.33447105 -0.29655215 -0.29639494 -0.5836318
-0.6304257 -0.64068085 0.5820491 -0.28127864 0.24936539 0.5664636 1.0363407 -0.48014337
0.46510586 0.36338124 -0.20260689 0.015027331 -0.38853484 -0.14405356 -0.38450715 0.6019493
-0.5996159 -0.30499887 0.048219018 -0.57923114 0.6354543 -0.3776116 0.69657815 -0.22751126
0.6146214 -0.12329023 -0.57285756 -0.2876086 -0.41563728 0.3819018 -0.28367272 -0.19960997
0.56398267 -0.79296684 -0.5243621 -0.114967465 -0.4894538 -0.35643598 0.09652632 -0.123381615
-0.011205323 0.17707025 0.2959733 0.4292575 -0.44713643 -0.38340485 0.32822013 -0.0154303145
0.3089345 -0.15220264 0.33240327 -0.13314053 -0.22902085 -0.78771967 0.45654884 -0.10638409
-0.61170405 0.113617904 -0.48221076 -0.16887169 -0.07283646 -0.8235289 0.3486973 0.25003287
0.8152528 -0.39134055 0.3315678 0.1589315 -0.5180776 0.17824037 0.027448088 0.00833082
-0.09846043 0.4842587 -0.54558736 -0.068848476 -0.5023812 -0.16880389 0.03202415 -0.10224744
-0.26591507 -0.29588962 0.14673138 0.39657205 0.040886067 0.1653551 -0.25416797 -0.32738656
0.47722632 -0.11900228 0.030190088 -0.392886 0.34501904 -0.45749617 -0.5940679 -0.12003694
-0.17689192 -0.30493048 0.49153683 -0.04693696 0.44222313 0.75522846 0.2627252 0.8292021
0.23105787 0.2456994 0.35449147 0.033418663 -0.19258983 0.2861089 -0.070522 -0.22738977
-0.41403523 -0.036724746 0.3659622 -0.35322803 -0.27638504 -0.6105741 0.30078834 -0.08665206
0.20141828 -0.3453565 -0.5869485 -0.07462999 0.18980363 0.3550298 -0.46757928 0.35676473
-0.107594855 0.2921896 0.0011756659 -0.41378948 0.1011051 -0.7648589 -0.64928305 0.207514
-0.218965 0.68624115 -0.33756405 -0.09181195 -0.069892615 0.22203484 -0.6474982 0.2885527
0.02764272 0.25888684 -0.4592521 -0.48307037 -0.14596535 -0.7933861 0.36238712 0.5070903
0.11423204 0.52786213 -0.29475924 0.22421095 -0.23515257 -0.23933299 -0.36395612 0.27732375
0.30430144 -0.62000066 0.13410544 0.08870532 0.78303385 0.20421317 0.09425942 0.26448932
0.12654953 -0.24110681 -0.31827843 0.18420002 -0.3925904 -0.01626853 -0.13097781 -0.17990609
0.40213764 0.5476493 0.305168 0.064204484 0.49970633 -0.14698865 0.177355 0.34593964
0.5823889 0.14843175 -0.12720619 -0.6595433 -0.32569164 0.71728337 -0.5874641 0.15615568
0.56779397 -0.16612493 -0.38365445 -0.37868002 -0.010775767 0.19770177 0.69037485 -0.35863006

decoder.fc.bias f4 [2048]
00000000: 3498 c4bd d325 8fbe 8eb4 953e df17 eebc
00000010: a90e 65be 0d71 723c f0e5 b53e fa36 0ebe
00000020: a727 803d bf19 0bbe dbcf dd3e d66e 533f
00000030: 86d8 4ebf 10de b33b 5ba9 dc3e 8db0 773c
00000040: c8bb 943e a554 cf3e bc3e c0ba 5c31 063f
00000050: 5817 023f 7cb8 463c c9d6 6dbf 4d95 163e
00000060: 11f9 513f ef9b 92bf f5ab 0b3e e170 053e
00000070: 84d7 b9be c005 a8be f586 c43e 6f08 34bf
00000080: f4f0 c6be 4363 b83f b77e e13e 5bd8 c73e
00000090: 98e8 7dbd d2bb fbbe ddc9 833d 9b5a 0f3f
000000a0: e935 003f c18f 08be 611c f23e 2c6b ea3e
000000b0: e870 d2be 392a 8c3e 151d ba3e ce6d dcbd
000000c0: 531e 07bc 6c3b 513f 777e 553f c812 9ebe
000000d0: 2a9a df3e 6530 723b ebb1 09be 2688 b5be
000000e0: a0aa 563f 7aa9 283e 633d f23e 0721 ef3e
000000f0: 267a 25be af5e 2ebf 7312 09bf ffb1 8a3e
00000100: 9c6a b73c 4765 833e 3500 843d 8a32 e63d
00000110: b171 4ebe 48df b23e 20b4 863d 0723 193f
00000120: 5752 5abe b660 68bf 277c a73e 14f4 8f3f
00000130: b4e6 033f 5f4e 09bf 1375 06bf f973 6dbf
00000140: 48a4 24be 4608 263e decf d3bd e212 81be
00000150: f343 4fbf c543 9abf 15a4 e8be d2b0 973e
00000160: 9c8b 5e3d 35e3 f3be 3652 a0be 94cf 633d
00000170: d3db 2bbe 774f 69be f30d 02be a852 b2be
00000180: 2354 173e fcc9 2dbe ef10 30be fc9d 033f
00000190: 1046 c4bc f4b3 1b3e 5171 f8be bfce d03e
000001a0: 5e70 143f 5830 1cbf b414 5abe b449 54bf
000001b0: 941a cb3e 9575 bebd a559 d53d 818f 6ebe
000001c0: 4e4f 583f a7b3 d5be 9205 253e a8a0 21bf
000001d0: 35ce 92be 743b c6be 6bba 84be 11ac 73be
000001e0: 01a3 883e 8a17 a43e e6d8 4ebd b801 1dbf
000001f0: 1cf0 623e 56df 36bf 3070 0b3c e682 993d
00000200: 2b94 5abb 87dc aebd fdfa 44bf 2777 85be
00000210: 878e 0bbe e37d 70bf aa7a 86be ad45 523e
00000220: 2037 0c3e 8ee2 e03d 952e 21bf c45b 73bf
00000230: e7f8 a7bf 593c b9be 2a9c 1ebf a848 93be
00000240: 8d4b 45bf 13f3 23be 67f4 9bbe e1f4 f83e
00000250: 5167 9e3e 3451 a2be d6f5 16be a10c 3b3e
00000260: 69a8 f7be 6471 8e3f 2e56 67bf 7228 d4be
00000270: c0b5 a73e 3051 09bf 47b5 d03e 203a ba3d
00000280: 5ed0 e8be 608c 6bbd e5c3 13be 25c2 9abe
00000290: bdc8 52bf 3997 003d b5e6 15bd 9cd3 a7be
000002a0: 79ce 1abd 828e f0be 86f0 89bf 61fd 3bbe
000002b0: ed6d 1d3e be11 bdbe f0e8 20bf 13f7 77be
000002c0: 7e0e dabd f1d6 86bf 4a67 8cbe 6dfa 833e
000002d0: 5471 fcbe b0b8 0dbf bedf 10bf 4038 b3be
000002e0: df5d d4be 5f57 203f abcb adbe fe62 fe3e
000002f0: 7438 03bf 1488 71be 319a f93e 1225 04bf
00000300: c126 2bbf 4be1 3dbf 4344 52be d623 10bf
00000310: 7056 d5bd 6a94 c4bc 9519 a4be a749 033f
00000320: 11e2 58be 373f cdbe 3aba 53be ae4f 03bf
00000330: 3ebf 04bf 4444 30bf 71eb ed3d c2f1 af3e
00000340: d654 cc3e 6529 4c3e b55c 03bf ce67 83be
00000350: 26cb 88bd 2af4 1fbf 6d6a 383f 1c77 053f
00000360: c084 babe 741a 9b3e f787 c6bd d9c4 213f
00000370: 7e73 55be 7be1 0bbd 41d5 993d 5702 893d
00000380: 60eb 65be 1d7d b2be 2a87 43be a3ef 873d
00000390: 1047 45bf 9f77 debb 14ea 03bf cc47 0f3f
000003a0: abf5 03bf 5f37 e53e 5b18 91be f948 2b3f
000003b0: f8ce bcbe f54b 543e 64ce d33e ad3f 063e
000003c0: 13ca 0a3f 1e2b f73e 37e2 04be e7c8 b3bd
000003d0: 733d 793e 12ba c2be a141 4bbe 8ab4 fdbe
000003e0: cd34 91be 7131 d93e fea9 d83c 9e52 c53e
000003f0: 35f2 733e e77f 21be 4709 a13d 5611 81bd
-0.09599343 -0.27958545 0.29239315 -0.029064117 -0.22368874 0.014797461 0.3552699 -0.1388816
0.06257563 -0.1358404 0.43322644 0.82591 -0.8079914 0.0054891184 0.43097958 0.015117777
0.29049516 0.40494266 -0.0014667134 0.52419066 0.5081687 0.012128945 -0.9290586 0.14705391
0.8202067 -1.1453837 0.13639815 0.13031341 -0.36297238 -0.32816887 0.38384214 -0.7032537
-0.38855708 1.4405292 0.44041988 0.39032254 -0.061989397 -0.49166733 0.06434987 0.5599763
0.5008226 -0.13336088 0.47287276 0.4578489 -0.41101766 0.27375963 0.36350313 -0.10763131
-0.008246976 0.81731296 0.83396095 -0.30873704 0.43672305 0.0036955115 -0.13446777 -0.35455436
0.83854103 0.164709 0.4731246 0.46704885 -0.16159877 -0.68113226 -0.53543776 0.27088925
0.022389702 0.25663206 0.06445352 0.11240108 -0.20160557 0.34935975 0.06577325 0.5981907
-0.21320473 -0.9077257 0.32711908 1.1246362 0.515239 -0.5363521 -0.5252239 -0.92755085
-0.16078293 0.16214094 -0.10342382 -0.2520972 -0.8096306 -1.2051932 -0.45437685 0.2962709
0.05433236 -0.47634283 -0.31312722 0.055617884 -0.16783075 -0.2278422 -0.12700634 -0.34828687
0.1477819 -0.16971582 -0.1719396 0.5141294 -0.02395919 0.15205365 -0.48523954 0.40782735
0.5798396 -0.61011267 -0.2129696 -0.8292496 0.39668715 -0.09299771 0.10417489 -0.2329693
0.8449601 -0.41738626 0.16115406 -0.63135767 -0.28672948 -0.38717234 -0.25923476 -0.23796107
0.26686862 0.3204921 -0.05049982 -0.6133075 0.22161907 -0.71434534 0.008510634 0.0749567
-0.0033352475 -0.08538156 -0.7694548 -0.2606747 -0.13628589 -0.9394209 -0.2626546 0.20534392
0.13692904 0.10980712 -0.62961704 -0.950619 -1.3122834 -0.36178854 -0.6195704 -0.2876637
-0.77068406 -0.16010694 -0.30459902 0.48624328 0.309382 -0.31702578 -0.14742216 0.18266536
-0.48370674 1.1128354 -0.90365875 -0.41437107 0.32755852 -0.5363951 0.40763304 0.09093118
-0.45471472 -0.05750692 -0.14430197 -0.30226246 -0.8233755 0.031394217 -0.036596972 -0.32778633
-0.037794564 -0.46983725 -1.0776527 -0.18358375 0.15373965 -0.369276 -0.62855434 -0.24215345
-0.106472954 -1.0534345 -0.27422553 0.25776997 -0.49305212 -0.55359936 -0.56591403 -0.35003853
-0.41477868 0.6263332 -0.3394445 0.496849 -0.51258016 -0.23587066 0.4875045 -0.51619065
-0.6685601 -0.74171895 -0.20533852 -0.5630468 -0.10416877 -0.02399655 -0.32050768 0.5128426
-0.21179987 -0.40087292 -0.20676509 -0.51293457 -0.5185431 -0.68854165 0.116171725 0.34364134
0.39908475 0.19937666 -0.51313335 -0.25665134 -0.066793725 -0.6248194 0.7203739 0.5213487
-0.36429405 0.3029362 -0.09693902 0.6319099 -0.20844838 -0.03415058 0.07511378 0.066898994
-0.2245307 -0.3486108 -0.1909453 0.06637504 -0.7706156 -0.0067891623 -0.5152905 0.5596893
-0.51546735 0.44768807 -0.28338894 0.6690822 -0.36876655 0.207321 0.413684 0.13110228
0.5421459 0.48275083 -0.12976919 -0.087785535 0.24339847 -0.38032585 -0.19849254 -0.49551803
-0.28360596 0.42420533 0.026448246 0.38539594 0.23822863 -0.15771447 0.07863098 -0.06302135

decoder.conv2.weight f4 [32, 16, 4]
00000000: 42c7 e73d ec69 563e a865 1abd 47a1 a0bb
00000010: 07d5 cd3b 09fa d1bd 51a4 88bd c0ca a13d
00000020: bfb8 1d3e 2778 24bc a72b a4bd ab18 8a3c
00000030: 11e2 723d 4387 fd3d e743 85bd de54 63bd
00000040: b7af 5f3d 97b6 c7bd 134d 143d eecd 663d
00000050: 0a39 9c3d b22c 87bd a911 58bc 0522 b13d
00000060: 84d9 07bb ac3a 14be e180 e83d 089f edbd
00000070: f591 5e3b baf8 4a39 625a 67bd bd7b 353e
00000080: 432a 1e3d 4d57 fb3d b8ab a63d 1961 0fbe
00000090: 2215 ce3c c2c8 2dbd b436 f13d e8d3 aabd
000000a0: 00ba d83b 0141 a43d 0633 b6bd 5bb3 66bd
000000b0: a83c 37be ea41 6a3c 77e5 9c3d e327 f63d
000000c0: 2685 9f3d 0317 483d 37b3 083e 7b33 d5bd
000000d0: 331d 9cbd 0326 d93d f139 a4bd 9b40 21be
000000e0: 53c8 d53d 64de 353e 214e f3bc 1d87 52bd
000000f0: ab1a e63c 3329 2bbd a393 9ebd 86c8 fe3c
00000100: d419 983c d06f 3fbc 01fa 54be 9a81 0fbb
00000110: 4a50 eb3d f612 c83c 3cd5 b2bd 4023 8e3c
00000120: 303f a8bd 4348 8ebc da45 403e d2d6 aabd
00000130: 659e 12be b649 a33c 9490 78bd b149 e3bd
00000140: 3b61 b33d 1c3e 79bb 83b7 633d 6b6c 513e
00000150: 4297 b23d b91d 8c3d dfaa 01be f2ab 51bd
00000160: c576 6f3d f9bc 8c3d 7a9c 293d 6dbf 42be
00000170: b123 a23d 5614 f1bd 0a25 3b3d fbdf 0ebd
00000180: dfe2 f13c 6cd5 273e b018 81bc 3ef6 4c3d
00000190: 6a46 1c3d 402a c13d 9d22 d23c c46d a5bd
000001a0: 73f9 64bd d7fc 5ebd 2aaf e4bb 6a62 dbbc
000001b0: ebfd 08bd 0306 de3c 0abf b2bd 5f25 5c3d
000001c0: 0af1 b23d 43ce a63c ceaa 6dbc 998b 633d
000001d0: e295 aa3d f1bf 723b bd37 b3bb 8137 e1bd
000001e0: 42f5 65be 140e e2bc c910 85be 6235 babd
000001f0: b084 80bd 4dd0 febc 1c48 9b3d 909a 953d
00000200: ab7a 0c3e bb8f fb3d aca0 a4bd 608d 51be
00000210: 6ce2 9f3d a36f a83d dbb4 6f3d 9aca 453c
00000220: d441 80bd eb29 bebd 7443 4bbe afd4 eebc
00000230: 31b7 ef3c b4d4 08bc 082e 563c a57a e5bd
00000240: c90c 373d b03b aebc 008c 803d 291f 20be
00000250: dea0 703d de03 803d d3d0 7c3e 630d 6fbd
00000260: 6dab 593d 2aed 86bb 6889 883d 1d05 80bd
00000270: a3a7 2f3e dd98 4a3d 3203 9ebd 8598 5c3c
00000280: 1650 25be e01b d43d b841 0f3d f2c7 833d
00000290: 529b b6bc 9543 b93d 5220 04be b429 283c
000002a0: 67b2 9f3d 5546 85bd 0858 b5bc 1182 3abd
000002b0: 486c 3e3b 1e7d 343c 4b94 1b3e 45d9 033e
000002c0: 5e46 0ebd d5e6 743c ea20 b8bd efc4 f4bb
000002d0: a758 10be 6013 b63d 6f74 d6bd 4af2 313c
000002e0: 8c36 12bd e314 92be 2abe 0cbd 7717 f3bd
000002f0: 8183 423d a779 2fbd 1001 1bbd 317e 92bd
00000300: d681 1c3c 2b72 61be 6804 d23c df57 c1bd
00000310: df55 873c 3bdc ad3b 902c ba3d bdd8 d0bd
00000320: 516c 2dbc d395 fcbc 3f79 0fbd 7d0f 9dbd
00000330: 21d3 24be 72e1 4dbd c42b 13bc 92fb 62bd
00000340: fe74 eb3b 340d dbbb ee62 c1bc fdb5 923b
00000350: 86d1 243e 6964 453e 5b1d ec3d 1388 7f3c
00000360: 7903 f33d d71c 743d 816f 11be bca4 e93d
00000370: 3840 6d3d 6091 6cbd 7d58 8abd 9520 f1bd
00000380: 5bc3 5cbd a78c fa3d 7938 1c3e 8a81 153b
00000390: 2df3 323d bd6e 4bbe 1d1c 1c3b 22ec b8bc
000003a0: 4e11 e73c bf80 25bd 2776 0fbc 1967 853d
000003b0: f8c3 e0bd ce16 edbd 262d a4bd ac63 5fbd
000003c0: 92ca 313d 4739 11bc 32c8 823d e302 d13d
000003d0: e1df 8bbd 6b8f 96bd 194f aebc e1e5 b13c
000003e0: 7066 0c3e bd50 42bd 7fc6 6cbd 5ffa 4e3a
000003f0: 3f27 6b3d 3f90 453d dd96 b0bc 5e4f 733d
0.11317302 0.20938843 -0.037694603 -0.0049020383 0.0062814984 -0.102527685 -0.06671966 0.078999996
0.15402506 -0.010038412 -0.080161385 0.016857466 0.059297625 0.12379315 -0.06507092 -0.055500858
0.054610934 -0.09751623 0.036206316 0.056348734 0.07628067 -0.06600322 -0.013187804 0.08649067
-0.0020729015 -0.14475507 0.11352707 -0.116025984 0.003396151 0.00019356879 -0.05648268 0.17722984
0.038614523 0.12272511 0.081382215 -0.14001884 0.025156561 -0.042427786 0.11778012 -0.08341199
0.00661397 0.08020211 -0.08896451 -0.05632339 -0.17894232 0.014297942 0.076609544 0.120193265
0.07789068 0.04885007 0.13349615 -0.1041021 -0.07622757 0.10602953 -0.08018864 -0.15747301
0.104385994 0.17760617 -0.02970034 -0.051398385 0.028088888 -0.041787338 -0.07743003 0.031101476
0.018567003 -0.011684373 -0.20798494 -0.0021897317 0.11489923 0.024423104 -0.087320775 0.017350793
-0.08215177 -0.017368441 0.18776646 -0.08341755 -0.14318235 0.019932609 -0.060684755 -0.1109804
0.087587796 -0.0038031405 0.055594932 0.20451514 0.087202564 0.06841607 -0.12662838 -0.05118937
0.058462877 0.06871981 0.041408993 -0.19018336 0.07916964 -0.11771457 0.04568962 -0.034881573
0.029527126 0.16390008 -0.015758842 0.050039522 0.03815309 0.09431887 0.02565127 -0.08077577
-0.055901956 -0.054440346 -0.006978889 -0.026780326 -0.03344528 0.027102476 -0.08727844 0.053746577
0.08737381 0.020362025 -0.014506055 0.055553053 0.08329369 0.0037040676 -0.005469291 -0.10996915
-0.2245684 -0.027594604 -0.2598937 -0.09092213 -0.06275308 -0.031105185 0.07582113 0.07304871
0.13718669 0.12283274 -0.08038458 -0.20464087 0.078068584 0.08224418 0.058522087 0.01207223
-0.06262556 -0.09285339 -0.1984995 -0.02915415 0.029262157 -0.008351494 0.013072498 -0.11205033
0.044689927 -0.021268696 0.06276703 -0.15636887 0.058747165 0.062507376 0.24689035 -0.058362376
0.053142 -0.0041176276 0.06666833 -0.06250975 0.17153792 0.049462188 -0.07715453 0.013464098
-0.16143832 0.10356879 0.034974784 0.06434621 -0.02229086 0.090460934 -0.12902954 0.010263849
0.077976994 -0.065075554 -0.022136703 -0.045534197 0.002905624 0.011016158 0.15193288 0.1287585
-0.034735076 0.014947613 -0.08990653 -0.0074697654 -0.14096318 0.08890414 -0.10471427 0.010860989
-0.03569655 -0.2853156 -0.034361042 -0.1186971 0.047488693 -0.042840626 -0.03784281 -0.07152975
0.00955244 -0.22016208 0.025636867 -0.09440588 0.016520439 0.0053057945 0.09090531 -0.101975895
-0.010584907 -0.03083316 -0.03502774 -0.0766897 -0.16096164 -0.05026383 -0.0089826025 -0.055415697
0.0071855774 -0.0066849235 -0.023606744 0.004477261 0.16095552 0.19276585 0.115290366 0.015596407
0.11865897 0.059597816 -0.14202692 0.11408374 0.057922572 -0.057755828 -0.06755159 -0.11773793
-0.053897243 0.122338586 0.15255918 0.0022812807 0.04368894 -0.19866462 0.0023820468 -0.022573534
0.028206494 -0.040405985 -0.008756197 0.06513805 -0.10974878 -0.11576615 -0.08016424 -0.054538414
0.043406077 -0.008863754 0.063858405 0.10205629 -0.06829811 -0.073515736 -0.021277951 0.02171606
0.13710952 -0.04744028 -0.057806488 0.00078955846 0.057410475 0.048233267 -0.021556312 0.059401862

decoder.conv2.bias f4 [16]
00000000: 9a77 e43d a591 423d aa24 4c3e d506 3cbe
00000010: d778 4cbd 2843 dd3b cb19 65be 37e3 e2bb
00000020: e0ef 193e dbc0 693c bc83 a83d 04f3 083d
00000030: 12b3 d6bc 2ae4 133c 77d8 c23e 4a04 143c
0.11155625 0.04750218 0.19935861 -0.18361981 -0.04991993 0.0067523904 -0.2237312 -0.006924059
0.15032911 0.014267172 0.08228251 0.033434883 -0.026208434 0.0090265665 0.38055775 0.009034226

decoder.conv1.weight f4 [16, 1, 4]
00000000: 80c2 76be fe9c bbbe a58d adbe 7fa4 7dbe
00000010: 02f8 613e 1fe9 b83e c5bf aa3d 85a0 55bd
00000020: b87a d3be 4b46 02bf 3482 cabe 2bda ddbe
00000030: cd04 d13e 4dce cc3e 89fc 9d3e 4d84 5a3e
00000040: 4ec8 063f 2ad9 203f 039a f23e a1a7 ba3e
00000050: 31d2 aabe 7f0b efbe a001 eebe 3314 e9be
00000060: 34df c93e 73f6 c03e 8b73 033f 362c ee3e
00000070: ed82 ae3e 2b65 883e 9b5e ec3e 3ac0 ab3e
00000080: b6fd d43e d467 db3e 4f70 be3e 7d16 653e
00000090: 70e3 a63d bee7 723e 295d e93d cb8d 6b3e
000000a0: ff92 8cbd 9abc 033e 8ad8 d7be fa43 e9be
000000b0: d0c9 06be c7b9 8dbe b21e 54bd c216 f9bd
000000c0: 841b 10be 48e0 85be 18af e6be 589b debe
000000d0: 3f1f dd3e 835f b83e 9345 9f3d 83c1 d0bd
000000e0: 4fae 073f 8e23 1e3f df4e 1b3f fa09 0b3f
000000f0: f605 a13e fcc3 a13d 3a71 1ebe 063b 7bbe
-0.24097633 -0.36643213 -0.3389713 -0.24769782 0.22067264 0.36115357 0.083373584 -0.052155036
-0.41304564 -0.5088851 -0.39552462 -0.4333051 0.40823975 0.40001145 0.30856732 0.21339531
0.5264939 0.62831366 0.47383127 0.36456016 -0.33363488 -0.46688458 -0.46485615 -0.45523223
0.39428103 0.37688026 0.5134818 0.46518105 0.34084263 0.26639685 0.46165928 0.33545095
0.41599816 0.42852652 0.3719506 0.2237186 0.08148849 0.23721215 0.11394722 0.23003308
-0.06863975 0.12864915 -0.42157394 -0.45559675 -0.13162923 -0.276808 -0.051787086 -0.12162544
-0.14072996 -0.26147676 -0.4505546 -0.43477893 0.431879 0.3601037 0.07776942 -0.101931594
0.5300035 0.61773 0.6066722 0.543121 0.3144986 0.07898709 -0.1547288 -0.24534234
