variational_autoencoder/torch_vae_model_10.pth (torch, 423403 bytes, 13 tensors)

encoder.conv1.weight f4 [16, 1, 4]
000000 67 04 56 3e 58 10 e4 3e 4f e7 fe 3e b9 c4 b4 3e
       0.20900117 0.4454372 0.4978585 0.35306337
000010 b4 3b 97 3e 00 d0 ef 3c 67 b0 c7 3e 51 7a cd 3e
       0.29537737 0.029273987 0.39001772 0.40132383
000020 a9 10 3d 3d 8a 7b b5 3e 8d d3 55 be 54 78 44 3e
       0.046158466 0.35445815 -0.20881481 0.19186527
000030 03 61 78 be 4d c2 1c be 09 c9 d5 3e fc a9 1a 3e
       -0.24255757 -0.15308495 0.4175494 0.15103906
000040 a3 29 6b 3e 58 22 83 be b2 33 6a be 44 62 ce be
       0.22965102 -0.2561214 -0.22871283 -0.40309346
000050 77 d7 c4 3d 9e 11 8c bd 47 35 bc be 0d 52 35 3e
       0.09611409 -0.06839298 -0.36759397 0.17707081
000060 93 fd 8a be ca 81 c7 be ac 57 a1 bc d8 57 67 3e
       -0.27146587 -0.3896621 -0.019695126 0.22592103
000070 a0 7b ab 3e b9 f5 e7 3e bf bf cd 3e 3b 4a 0e 3d
       0.33492756 0.4530466 0.40185353 0.03473876
000080 3c c6 1c bd 92 33 4e be d9 1a 83 3e 32 db f8 3d
       -0.03827499 -0.2013686 0.2560642 0.12151183
000090 ba 7b ba 3d 73 f6 a8 3e 08 bf 93 3d d5 ed c5 3e
       0.0910563 0.33000526 0.07214171 0.38658014
0000a0 70 25 fa 3e e5 2c b1 3e be f8 65 be 82 37 82 3e
       0.48856688 0.34604564 -0.22458169 0.25432974
0000b0 9c 19 79 be 84 42 c9 3e aa 29 e0 be a5 7f 24 3e
       -0.24326175 0.3930856 -0.43781787 0.16064318
0000c0 02 66 c2 be d1 3e 68 3d 82 1c 14 3e d7 58 88 3e
       -0.3796845 0.05670053 0.14464 0.2663028
0000d0 9d b7 70 3e a9 0e 87 bd 7b af 17 3d d1 6e ef 3e
       0.23507543 -0.06594593 0.037032586 0.46764234
0000e0 33 aa fe bc a4 6b 8d 3e 93 1d 01 3f 75 94 7c 3e
       -0.031087017 0.27621186 0.5043575 0.24666007
0000f0 f0 82 f0 3e 26 6f 0d be 61 6d 5a be 0b b4 57 3e
       0.46974897 -0.13811931 -0.21330787 0.21064775

encoder.conv1.bias f4 [16]
000000 68 95 f2 3e a8 cd a3 be f6 9f a1 be 12 64 8f 3c
       0.47379613 -0.3199284 -0.31567353 0.017503772
000010 42 3b 7d 3e 9c 28 78 3e 4e dd a0 3e fb 41 a8 be
       0.24729636 0.24234241 0.31418842 -0.3286284
000020 62 aa 26 be 33 11 26 be d1 8b ce be 44 91 01 3e
       -0.16275933 -0.16217498 -0.40341046 0.1265307
000030 99 4c 9c bd 7a cd 9d 3e cd 34 6f 3e 7a 2a 00 3f
       -0.07631797 0.3082083 0.23359986 0.50064814

encoder.conv2.weight f4 [32, 16, 4]
000000 14 92 a7 3d 63 bf dd bd 42 52 2b 3d f9 9c 53 3d
       0.08182159 -0.1082752 0.041826494 0.051663373
000010 61 52 b3 bd c6 e7 e7 3c 75 0f fe 3c cb 84 ea 3d
       -0.08755947 0.02830876 0.03101323 0.114511095
000020 36 96 22 bd f0 3e a6 3d ab ef ea 3d 84 84 08 3e
       -0.039694034 0.08117473 0.11471494 0.133318
000030 eb 79 d4 bd b0 3a a0 bd f4 13 f4 3d af 58 a7 ba
       -0.103748165 -0.07823694 0.11917868 -0.0012767519
000040 61 da 5c 3d cf 86 ac bc e5 4e a0 bd 03 a9 6a 3c
       0.0539192 -0.021060375 -0.07827548 0.014322522
000050 a1 64 a7 bd 41 f8 4e 3d c2 9b 71 3d 1e 41 93 3d
       -0.0817349 0.050529722 0.058986433 0.071901545
000060 d9 be 99 bc 1e 05 c7 bd 0a 8e f4 3d 8f cc 34 3d
       -0.018767761 -0.09717773 0.11941154 0.044140395
000070 3a 8e ff 3d 1b 21 bf bd 45 3a 13 bd fd 1f 21 3b
       0.124782994 -0.09332486 -0.035944242 0.0024585717
000080 ee f8 9d 3d bc 4d 07 3e 2a 27 01 3e be ef fd bc
       0.07713495 0.13213247 0.12612596 -0.030998107
000090 cb dc 96 bd 13 00 b6 3d c9 d6 ab 3d 44 02 fd bc
       -0.07366332 0.08886733 0.083905764 -0.03088487
0000a0 36 b3 83 3d 5f 0b dc 3d 87 e6 5a 3d 25 af 8b 3d
       0.06430666 0.10744356 0.053442504 0.068205155
0000b0 3a a1 72 3d 7e 51 ca 3d e6 9b 2f bc a4 da de bc
       0.05923579 0.09878825 -0.010718321 -0.027203865
0000c0 c0 87 93 3d 6c 19 d1 3d 04 21 cf bd 9d e1 9c bb
       0.07203627 0.10209927 -0.10113719 -0.0047876374
0000d0 19 38 81 3d 29 21 d3 bd e5 ed 50 3d 40 bb b4 3d
       0.06309528 -0.10309059 0.051008124 0.088247776
0000e0 54 2f ad 3d e5 24 be 3d d6 ef e9 bd c7 9d 18 bc
       0.08456293 0.09284381 -0.11422698 -0.009314961
0000f0 42 c7 88 3d 4e 64 ff 3d dc c7 8c bc c0 66 9d bd
       0.066786304 0.124703035 -0.017185144 -0.07685614
000100 d7 c6 8f bd 7c dd 45 bd 33 d2 bc 3d 41 5f bf 3b
       -0.070203476 -0.048306927 0.0921978 0.0058402126
000110 b4 39 02 bd 19 a6 08 bc 06 9d cc 3d 7d f5 b6 3d
       -0.03179331 -0.008340382 0.09990887 0.08933542
000120 39 de b4 3a 78 05 b9 37 eb 00 9f 3d f3 c9 cf bd
       0.0013799138 2.2056265e-05 0.07763847 -0.10145941
000130 f8 13 d4 3d e3 19 eb 3d 51 f8 91 bd ce e9 b3 bd
       0.10355371 0.11479547 -0.07127441 -0.08784829
000140 93 74 e0 bd 70 21 fc 3b b7 60 87 3d 6c e5 a6 bd
       -0.10959735 0.0076944157 0.06610244 -0.081492275
000150 ec 45 5e 3c fb fd 4e 3c 87 7c 92 3d 19 b1 4c 3d
       0.013566475 0.012633796 0.07152658 0.04997358
000160 a6 0b dd bd ec 4a e7 3d 1a 88 85 3c 95 b5 45 bc
       -0.107932374 0.11293587 0.01630025 -0.012067218
000170 79 33 d2 bd 36 f7 e2 3d 7f e7 2a 3d d6 c9 c4 bd
       -0.10263724 0.11082308 0.041724678 -0.0960881
000180 6a f1 e8 bd 23 b0 c0 bc cc 1c c5 bc 4a 4b 27 bd
       -0.11374171 -0.023521489 -0.024061583 -0.040843286
000190 12 8a cd 3d b0 34 ee 3d c4 40 95 3d 8b bd fb 3d
       0.100361004 0.11631143 0.07287744 0.12292012
0001a0 97 07 8a 3d 03 6f 5e 3d 0f 80 b3 bc be 9a e4 bd
       0.06739729 0.054305088 -0.021911649 -0.11162327
0001b0 63 aa 32 bd ed b8 6e 3c 4b a6 1c bd ba d8 72 bc
       -0.043619525 0.014570457 -0.038244527 -0.014822179
0001c0 08 db 83 3d 6a 76 06 3e 5f fa 42 3d 82 f9 27 bd
       0.06438261 0.13131109 0.047602054 -0.041009434
0001d0 dd 7f 1f 3d 4a 98 da 3d 3b 75 58 bd 24 bb 90 bd
       0.0389403 0.10673578 -0.052846175 -0.07066944
0001e0 09 e0 db 3a 70 a5 da bd 9d 00 ca bd 44 01 2f bd
       0.0016775142 -0.10676086 -0.09863398 -0.042725816
0001f0 1a ba 62 bd 27 34 bc bd e4 45 bc bd 66 53 64 3d
       -0.05535326 -0.09189635 -0.09193018 0.055743597
000200 5c a5 e9 3d bf 23 36 3d 5a 94 31 bd 60 9d 24 3d
       0.11408493 0.044467684 -0.04335437 0.040189147
000210 b3 c3 a4 bd 60 cf 6c bd f3 98 d1 3d 9d 0e 4a bc
       -0.08045139 -0.057814956 0.10234251 -0.012332586
000220 1d f0 d1 bd 3a 53 7c bd 64 34 9f bb 0a 4d ff bc
       -0.10250876 -0.06160281 -0.0048585404 -0.031164665
000230 6b 4c ad bd 17 da 95 bc 80 f7 9b bc 30 e7 a4 3d
       -0.08461841 -0.01829247 -0.019038916 0.08051908
000240 cb 5d b0 3c 7d 47 c4 3d 6c b4 48 bc a5 7f a0 bd
       0.021529099 0.09583948 -0.012250047 -0.07836846
000250 f1 fa 03 3c ba bd 06 bd d9 33 71 bc b8 45 08 3e
       0.008055435 -0.03289578 -0.014721834 0.13307846
000260 b5 34 b3 3d 32 4a e4 bd a6 ad dd bd af 26 10 3d
       0.087502874 -0.11146964 -0.108241364 0.03519314
000270 fc b3 ff 3d e3 8f b7 3d 36 4f 86 3d 76 c7 91 bd
       0.12485501 0.08962991 0.06558077 -0.07118122
000280 d3 44 e2 bd cf a6 80 3d 1c 5d 86 3d 6f 98 c3 3d
       -0.110482834 0.06281816 0.06560728 0.09550559
000290 84 d7 b4 bb c6 ab ac 3c 9f 44 97 bd df 40 8f bd
       -0.0055188555 0.021078002 -0.07386135 -0.06994795
0002a0 cc b0 55 bc b1 d4 e1 3d 0f fa 2a bc dd 83 eb 3d
       -0.01304264 0.11026896 -0.010435595 0.1149976
0002b0 29 c2 b7 bd 42 c8 47 bc e8 a3 bf bd c9 b5 89 bd
       -0.0897258 -0.012193741 -0.093574345 -0.06724126
0002c0 af 0f c3 bd 83 e3 95 3d 62 f9 c2 bb 5a bd 04 3e
       -0.09524476 0.07318785 -0.005950139 0.12962857
0002d0 1c dd a0 bd 3d 25 99 bd f2 88 c0 bd 7d 6f 9a 3d
       -0.07854673 -0.07477806 -0.0940112 0.07540796
0002e0 dc b5 8a bd 40 18 6a bb e9 52 f8 3d 8b ff f3 3d
       -0.06772968 -0.003572002 0.12125189 0.11913975
0002f0 12 8f 84 3d 20 d6 70 bc 86 d2 36 3d 56 7e 8d 3d
       0.06472601 -0.014699489 0.044634365 0.06908862
000300 e7 58 7b 3d 8b 5f c9 3d 8e c0 19 3d d9 29 be 3d
       0.06136408 0.098326765 0.03753715 0.092853256
000310 a9 e7 83 3d 28 12 be bd 85 62 d4 bd dd d2 a1 3d
       0.0644067 -0.09280807 -0.103703536 0.07901547
000320 ba a3 22 bd a2 17 00 bc e3 72 7f 3d 3d a3 00 3e
       -0.039706923 -0.0078181345 0.062365424 0.1256227
000330 b5 a1 17 3d f6 30 f0 3d a9 87 f7 bc 42 fe 3e bd
       0.03701945 0.117280886 -0.030216055 -0.046629198
000340 cb 77 bc 3d 52 29 dc 3c 29 5b e6 bd 6d 52 a3 bd
       0.09202536 0.026875172 -0.11247856 -0.07974706
000350 21 1b b1 3c 9c 2c 51 bd f3 ad 60 3d 91 18 b6 bd
       0.021619381 -0.051067933 0.05485339 -0.088914044
000360 1e ad 93 3d 28 b3 51 bb 00 e1 c3 bd c8 8b 9b 3d
       0.07210754 -0.0031997655 -0.095644 0.075950205
000370 f4 e3 8a 3d 53 99 fb bc bf 01 29 bd ec af 7a 3d
       0.0678176 -0.03071276 -0.04126143 0.06120293
000380 cd 19 e9 bc 43 82 c5 3b 60 e7 c4 3c 58 77 a1 3d
       -0.028454686 0.0060274913 0.02403611 0.07884091
000390 b8 a1 b0 3d 5b 57 59 bd 27 0c 83 3d e8 81 70 3d
       0.086245954 -0.053061824 0.06398802 0.05871764
0003a0 32 d7 e4 bd 3a 33 b6 3d c2 0a 4a 3d e0 03 31 3d
       -0.11173858 0.088964894 0.049326666 0.043216586
0003b0 83 dd 7c 3d bc 56 b5 bd 83 72 c4 3d b0 74 9e 3d
       0.061734688 -0.08854434 0.09592154 0.077371
0003c0 e0 8c c0 3d 4d fe 83 3b 30 09 01 3e 90 89 e5 3d
       0.0940187 0.0040281177 0.12601161 0.112078786
0003d0 d6 cf 68 bc 41 f2 02 3d 0f e6 6d 3b 6a ed 85 3d
       -0.014209708 0.031969313 0.0036300456 0.06539424
0003e0 ee 97 cc bc 13 6a 8e 3d e7 f6 83 3d 66 aa e4 3d
       -0.02497479 0.06953826 0.06443577 0.111653134
0003f0 e0 20 ce bc d1 86 06 3d ac 2d fe 3d 45 84 a8 bd
       -0.02516216 0.032843415 0.12411055 -0.082283534

encoder.conv2.bias f4 [32]
000000 5a 6c bd 3d de 82 ad 3d fa e1 c5 3d 5d 75 ac bd
       0.09249182 0.084722266 0.09662242 -0.08420823
000010 f4 47 b2 bb 35 44 cc bd e1 47 97 3d 8d d5 bc 3d
       -0.0054407064 -0.09973947 0.07386757 0.09220419
000020 42 ae 96 3d 22 50 3c 3d 94 c5 0c bd 7b 3b 7f 3d
       0.07357456 0.045974858 -0.034368113 0.062312584
000030 b8 0a e0 bc db ab 94 3d 5e c6 58 3c fc da 58 bc
       -0.027348861 0.07259341 0.013230888 -0.013235804
000040 00 f1 ac bd a2 3a 94 3c 77 fa e4 3b 19 62 b7 3d
       -0.084444046 0.018094365 0.0069878655 0.089542575
000050 89 ac 3d bd 61 29 e9 bb cd a9 96 bd d7 1a d9 3d
       -0.04630712 -0.0071155285 -0.07356606 0.106008224
000060 68 bb d7 3d 22 38 07 3e 33 45 32 3c ed ce dc 3d
       0.10533792 0.13205007 0.010880756 0.107816555
000070 a3 f2 c3 3d de cf e0 bd 31 c9 63 bc dd c8 8c 38
       0.09567764 -0.109771475 -0.013902948 6.713134e-05

encoder.fc_mu.weight f4 [16, 2048]
000000 a7 2b a6 ba 00 d7 5e 3c ae f0 d5 b9 ea 90 a0 bc
       -0.0012677804 0.013601065 -0.00040805846 -0.01960035
000010 9d e0 98 3c f7 47 5e 3c 34 35 8c 3c 68 69 03 bb
       0.018661791 0.013566962 0.017115213 -0.002005184
000020 da 78 71 bb a0 b3 22 3c 54 df 70 3c aa 57 e8 3a
       -0.0036845715 0.009930521 0.014701683 0.0017726321
000030 48 a8 42 bc 5a af dc bb 96 8a 63 3c a1 c9 9e bc
       -0.011880942 -0.0067347707 0.013888022 -0.019383254
000040 9b 4f 98 bc 71 4f 5b 3b 04 b8 6f bc a0 c9 8b bc
       -0.018592646 0.0033464099 -0.014631275 -0.017063916
000050 b4 e9 06 bb 9d 4d 42 bb 47 75 60 bc 67 a6 5b bb
       -0.0020586075 -0.0029648312 -0.013699836 -0.0033515932
000060 88 e5 6a bc 02 82 52 bb 64 f3 61 3c 49 56 44 3a
       -0.014336951 -0.0032120948 0.013790939 0.0007489664
000070 cb ca 53 3c 31 06 9c bc ab 9e 96 bc f6 f9 03 3c
       0.012926768 -0.019045921 -0.018386206 0.008055201
000080 be 6b cf ba 85 8c 20 bc a0 c0 10 3c d5 56 38 3c
       -0.0015824956 -0.0097991275 0.008834988 0.011251171
000090 21 94 df 3b d0 20 b1 bc d2 68 9e 3c e3 72 a1 bc
       0.0068230783 -0.021622092 0.019337092 -0.019708103
0000a0 04 b4 84 bc a2 0b f8 bb 8d b9 2e 3c 00 c2 b0 3a
       -0.01619912 -0.007569746 0.010664356 0.0013485551
0000b0 44 08 28 bc ce cc e8 3b c6 42 8a 3c 38 bf 06 bb
       -0.010255877 0.0071044927 0.016877543 -0.0020560753
0000c0 e1 01 8c 3c 55 da 59 bc d6 68 ab bb 72 1c 2f 3a
       0.01709074 -0.013296683 -0.0052310033 0.0006679959
0000d0 5d 45 91 3c 5b c6 77 3c 6f 4e 2f bb ea 60 dc 39
       0.01773327 0.015122975 -0.002674963 0.00042033877
0000e0 08 91 7a bc 53 35 7c 3c 98 26 35 bc dc af 02 3b
       -0.015293367 0.015393573 -0.011056565 0.0019941246
0000f0 7f 32 a4 3c 4f 3e 3d bc 95 bb 17 bc f2 76 c4 bb
       0.02004361 -0.0115505 -0.009261032 -0.0059956247
000100 20 0d 93 3c f3 d1 54 bb 12 7f b9 3b d4 0e df 3b
       0.017950594 -0.0032473772 0.0056609 0.0068071876
000110 66 82 04 3b 08 38 30 3c fa 36 cf 39 01 75 c8 3a
       0.0020219325 0.010755546 0.00039523077 0.0015293659
000120 36 08 62 ba b8 77 b4 3a b9 c7 70 bc 19 24 36 bb
       -0.00086224393 0.0013768589 -0.014696055 -0.0027792512
000130 80 b6 33 3c 6e ea 2f 3a a1 24 b8 3a 1e 93 8c 3a
       0.010968804 0.0006710653 0.0014049002 0.0010724997
000140 17 26 a3 b7 19 71 32 bc 87 ea c4 3b 59 4b b8 ba
       -1.9448851e-05 -0.010891222 0.006009403 -0.0014060541
000150 6e 35 a5 bb 2c 2b ba bb eb 36 60 bb 06 cc 10 bb
       -0.0050417697 -0.005681416 -0.003421242 -0.0022094264
000160 1b 9a 9a 3b 67 da 16 bc 1c b3 2a 3b 80 05 ad 3b
       0.004718078 -0.009207345 0.00260467 0.0052801967
000170 8b 1e 1b 3b 86 b9 1a bc 6b e1 42 3c 3e 63 97 bb
       0.0023669328 -0.009443646 0.011894564 -0.004619985
000180 c1 16 36 bb d2 ab 6d ba 3d 3a d7 3b 7a 89 ac 39
       -0.0027784558 -0.0009066436 0.006568222 0.00032908825
000190 35 a3 84 3b 1b 59 aa 3a d7 1d 42 bc 7f 90 ad 3a
       0.004047776 0.0012996526 -0.011847935 0.0013241916
0001a0 eb 91 b9 b9 b3 bb 35 b9 60 a6 45 3b aa 78 b6 3a
       -0.00035394667 -0.00017331429 0.0030158982 0.0013921459
0001b0 74 28 16 3c 3d 4b 3f bc bb ed 63 ba 38 62 8f bb
       0.009164918 -0.011675653 -0.00086947874 -0.0043757223
0001c0 a4 bf aa ba 71 41 a8 3a 15 f5 9a 3a c7 42 21 3c
       -0.0013027084 0.0012836886 0.0011822308 0.009842581
0001d0 3e ac 03 bc 81 ea de bb cd ff 42 b9 79 a9 56 bb
       -0.008036671 -0.0068028574 -0.00018596575 -0.0032754822
0001e0 ba 4c 9d 3a dc c9 7d bb 56 5d 6c ba 89 92 0b 3c
       0.0012001016 -0.0038725054 -0.00090165937 0.008518823
0001f0 7a 41 bc bb 4f e7 45 b7 0c ec 21 bc e5 d5 0b 3b
       -0.00574511 -1.1795971e-05 -0.009882938 0.0021337208
000200 7d 37 b4 bc e6 b4 71 bc fc b7 b6 bb dc cc 11 3c
       -0.021999115 -0.014752602 -0.005576132 0.00889894
000210 b8 2a 71 3c 4c e3 6f bc 00 11 81 bc 16 23 b3 3b
       0.014719658 -0.014641594 -0.015755177 0.005466829
000220 69 e5 1e 3c 03 e9 8c bb c8 ce 52 3c a7 97 9c bc
       0.00969825 -0.004300238 0.012866683 -0.019115282
000230 ac 7a 4b bb 05 1f d8 bb 8e b1 8b bc d4 4a 12 3c
       -0.003104846 -0.0065954947 -0.017052438 0.008928973
000240 ee 96 61 3b 18 29 3e bc 92 79 26 3c 44 ce 94 3b
       0.0034422236 -0.011606477 0.010160821 0.0045411903
000250 8f a0 3d 3a c0 5e 8a bc ca 6f fb 3b 6b a9 31 bb
       0.0007233703 -0.016890883 0.0076732384 -0.0027109038
000260 8f 97 81 3c aa ae a9 bc bb a1 a4 39 ea 30 8f ba
       0.01581934 -0.02071317 0.00031401016 -0.0010924612
000270 87 4a 93 3c c4 20 15 ba cd 55 9d bc 63 b0 85 3c
       0.017979873 -0.00056887814 -0.019205952 0.01631946
000280 ad 15 b8 bc c1 b6 92 bc 0b e9 a3 bc bd 6c 29 bb
       -0.022471273 -0.01790941 -0.020008584 -0.0025852167
000290 9c 56 61 3c 63 52 59 bc 42 39 ff 3b 7f cd 28 ba
       0.013753559 -0.013264271 0.007788808 -0.0006439313
0002a0 46 08 9d bc d4 56 b4 bb 19 9a 9d 3c 4c 76 a5 bc
       -0.019168984 -0.005503515 0.019238519 -0.02019801
0002b0 a8 e8 91 bc 60 7c 30 3c 92 cd 4b bc 16 b5 6c bc
       -0.017811134 0.010771841 -0.0124391485 -0.014447471
0002c0 42 90 14 3c 2c e9 91 3b d6 ce e9 bb b7 f1 52 3c
       0.009067597 0.004452845 -0.0071352525 0.012875012
0002d0 fd 24 bb bc be 61 93 3c fb 7c 5f bc 8f 77 f6 38
       -0.022844786 0.017990943 -0.0136406375 0.000117524636
0002e0 12 f1 a5 bc df eb 87 3c 8e f6 55 3c 2d 4b ee b9
       -0.020256553 0.016591964 0.0130592715 -0.00045450908
0002f0 fd 1a ca 3b 93 30 33 bc 05 7e 4f bc 4d ab fd bb
       0.006167768 -0.010936874 -0.012664323 -0.007741368
000300 21 2a 5e 3b 13 8f 72 3c d8 10 b5 bb 17 61 7a 3c
       0.0033899623 0.014804619 -0.0055256896 0.015281937
000310 71 b8 50 bc ee 9a 51 3c 17 3a 50 3b c0 0b 91 3c
       -0.012739287 0.012793286 0.0031772905 0.017705798
000320 7f 2e b0 bb 1c 49 0c bc 73 e5 ac bc a2 c7 82 bc
       -0.0053766365 -0.0085623525 -0.021105504 -0.015964333
000330 9a 1d 0b bc 46 c0 37 bc db 67 aa 3c 67 e7 6e 3c
       -0.008490944 -0.011215275 0.020801475 0.014581538
000340 fe 58 23 bc 13 68 cf ba 4e c4 9e 3c 03 84 b4 3b
       -0.009969948 -0.0015823863 0.019380715 0.005508901
000350 a7 41 d5 3b c6 9d 75 3c d7 67 9c 3a 9d 34 fd bb
       0.0065080705 0.014991229 0.0011932802 -0.0077272193
000360 2d e0 b9 bc 1a 9a 74 3c bf 7f d4 bb 7e 30 95 3c
       -0.022689903 0.014929319 -0.006484955 0.0182116
000370 49 20 e5 bb 97 f0 81 3c f8 5d 90 3b 84 bd 74 3c
       -0.006992374 0.015861792 0.004405733 0.014937762
000380 83 54 59 bc a7 76 b4 bb 7e 2c 27 bc d7 52 4e ba
       -0.013264778 -0.0055073085 -0.010203479 -0.00078706205
000390 f6 82 16 bb 01 78 5a bb 51 33 8d bc 8f 89 2a bc
       -0.0022966242 -0.0033335688 -0.017236384 -0.010408773
0003a0 6b 91 07 3c a0 19 75 3c 55 82 d7 3b 56 24 e1 3a
       0.008274416 0.014959723 0.006576816 0.0017176967
0003b0 02 77 86 bb f9 7a 5b bb af ef a3 bb 49 a6 98 3c
       -0.0041035423 -0.0033490045 -0.0050029377 0.018633978
0003c0 22 ab 99 3a a3 6f 5b 3c 2d 63 fa bb f0 4e b6 bc
       0.0011723975 0.0133933155 -0.007641217 -0.022254437
0003d0 4a 39 95 3c 99 ed 5e bc 4f b2 57 bc 0b 24 61 3b
       0.018215794 -0.013606452 -0.013165071 0.0034353759
0003e0 c9 b7 f3 3b 3b 0f 96 3b 3c 61 b3 3b 28 89 03 bc
       0.0074376804 0.0045794523 0.0054742377 -0.008028306
0003f0 01 70 b2 bc 06 49 8e 3c 38 d6 7c 3c e4 88 0b 3c
       -0.021781923 0.017368805 0.015431933 0.008516524

encoder.fc_mu.bias f4 [16]
000000 9e 3f 25 3c 06 3d 89 bc 7b cb 0f 3c 45 11 52 3c
       0.010085968 -0.016752731 0.008776541 0.0128215
000010 83 79 04 3c e4 08 01 bc 98 8a 2a ba c7 d5 1e 3c
       0.008085611 -0.007875655 -0.00065056374 0.009694523
000020 55 bb 64 3c 09 35 94 3c 79 bc a8 bb d7 93 62 bb
       0.013960679 0.018091695 -0.005149421 -0.0034572983
000030 06 44 44 bc 18 88 2b ba 7c cc 43 bb be b0 9b bc
       -0.011979109 -0.0006543412 -0.002987652 -0.019005176

encoder.fc_logvar.weight f4 [16, 2048]
000000 3b 7a 23 bc 3c ff 9c bc 61 b2 dd 3b f4 bc c9 bc
       -0.0099778725 -0.019164674 0.006765649 -0.024626233
000010 50 bd 01 bc 00 40 8f 3b 22 c8 6a bc f5 4e 20 ba
       -0.007918671 0.004371643 -0.014329942 -0.0006115281
000020 bf 40 84 bc 5b 79 20 3c 65 ca 14 bc f8 00 af bc
       -0.016144155 0.009794558 -0.009081458 -0.021362767
000030 0a db 4f 3c 49 b0 bc bc b8 bb 8a bc dc 8a 79 bc
       0.0126865 -0.023033278 -0.016935214 -0.015230861
000040 2d 16 05 bc 36 f4 90 bc bb 7c ab bb 65 26 0b bc
       -0.008122963 -0.017694574 -0.005233375 -0.008493041
000050 88 be 85 3b 0d fa 25 bc f9 af f1 bb b7 80 b7 bc
       0.004081551 -0.0101304175 -0.007375714 -0.022400243
000060 1c 1d 32 3b 8e fe 2a bc 62 1b 35 ba a7 25 b2 bc
       0.0027177995 -0.010436667 -0.00069086824 -0.02174647
000070 43 9d c6 3a 2f ae 8f bc a8 4d 87 bc bc 51 d2 3a
       0.0015153069 -0.017539112 -0.016516522 0.0016046087
000080 b3 c4 f8 bb 76 ac d6 bc 15 83 d2 3b 06 7f 9a bc
       -0.0075918077 -0.026205283 0.0064243176 -0.018859398
000090 89 14 13 bc 74 60 9e bb 8f 82 2f bc bb db 1e 3c
       -0.008977064 -0.0048332755 -0.01071228 0.0096959425
0000a0 9f d1 40 ba 19 09 5e bb 55 4e 85 3b 1e b4 26 bc
       -0.0007355455 -0.0033879934 0.004068176 -0.010174779
0000b0 54 6e b2 bc e3 fc 45 3c ed 89 7f ba 85 15 0d bc
       -0.021781124 0.012084219 -0.00097480306 -0.008611088
0000c0 ff 3e 8d bc c2 58 04 bc 84 a4 de 39 57 7c f6 bc
       -0.017241953 -0.008077802 0.00042465713 -0.030088587
0000d0 a5 33 ac bb e8 2c 85 3b a5 b9 a6 bc c9 3a 20 bc
       -0.00525518 0.004064191 -0.020352194 -0.0097796405
0000e0 64 e0 aa bc 52 34 9a 3b 73 cc b0 3b c3 a0 30 3b
       -0.02085895 0.004705944 0.005395466 0.002695129
0000f0 98 a3 89 bc 53 7b 85 bc 68 7a ad bc ac bf 52 3c
       -0.01680164 -0.016294157 -0.021176532 0.012863081
000100 4a 3a 23 bc 5a 44 bf 3b 75 92 f4 ba 56 18 40 bc
       -0.009962628 0.0058370056 -0.001865937 -0.011724552
000110 7a 9f c9 3a b3 09 52 bb c7 7c d2 3b ab c6 5d 3b
       0.0015382611 -0.0032049238 0.006423566 0.003384034
000120 50 b2 cc 3b 50 44 af ba 8d b4 4b 3b 0e 16 ac 3a
       0.0062468424 -0.0013371799 0.0031082958 0.0013129131
000130 b6 ef cb ba 8f 7f 9a 3a 2a 81 34 bc 32 93 23 bb
       -0.001555911 0.0011787283 -0.011017123 -0.0024959561
000140 94 b4 ca 3b dc 5a a7 bb a3 a3 fe b9 e6 88 03 3c
       0.0061860774 -0.005107267 -0.00048568574 0.008028245
000150 ee 4f 3f 3c 53 4b 81 3b fe 1c 28 3a 7d 97 05 bb
       0.011676772 0.003945747 0.00064130116 -0.0020384484
000160 8a b1 80 39 ce a4 ac bb c6 ef 4d 3a 23 03 d9 bb
       0.0002454634 -0.0052686697 0.00078558584 -0.0066226884
000170 32 d9 17 39 43 04 57 bb c5 7a 28 3c 0a 16 b0 3b
       0.00014481394 -0.0032808937 0.010283177 0.005373721
000180 6d d3 86 3a 56 7e 0f bb a5 63 8e ba c2 76 9b ba
       0.0010286398 -0.002189537 -0.0010863437 -0.0011860954
000190 49 37 b6 ba ae e7 dc 3a 3a cc 35 37 17 47 9f ba
       -0.0013901974 0.0016853714 1.0835991e-05 -0.0012151924
0001a0 62 e0 c1 bb b3 a0 1f 3c 1f ae 05 3c 14 32 4f 3a
       -0.005916641 0.0097429035 0.0081591895 0.00079038856
0001b0 28 03 29 3c 09 0b 5d 3a 66 1b 4d bb 88 7a 93 bb
       0.010315694 0.00084321253 -0.0031296848 -0.004500691
0001c0 e3 67 35 3b a3 71 13 b8 2a 25 b3 3a f4 99 93 39
       0.002768033 -3.5153364e-05 0.0013667692 0.0002815273
0001d0 a3 81 10 3c 54 6a 3e 3a 46 76 c0 3b 93 cf 2e bc
       0.00881997 0.0007263769 0.0058734743 -0.010669607
0001e0 8f 92 1a 3c 77 72 0d bc 98 f2 30 b9 88 b6 4a 3c
       0.009434356 -0.008633248 -0.00016875041 0.01237262
0001f0 73 04 93 3a d0 17 16 3c 1d 70 84 38 46 db 48 bc
       0.0011216536 0.009160951 6.315133e-05 -0.01225931
000200 b5 c6 a7 3b a3 4f aa bc 27 a3 db 3b 39 d1 1f bb
       0.0051201233 -0.020789927 0.006702799 -0.002438618
000210 a3 7f 37 bc b3 d2 10 bc 17 fb eb bb 81 cf ce 3a
       -0.011199865 -0.008839297 -0.007201563 0.0015778394
000220 6c 31 7d 3b 80 21 11 bc 16 87 e4 bc 0b 22 db bc
       0.0038634194 -0.008858085 -0.027896445 -0.026749631
000230 60 2f d9 ba 90 84 4d b9 4e 7b 02 3b 66 bd 83 bc
       -0.0016569905 -0.00019599707 0.001990992 -0.016081523
000240 cc 97 91 bc 8a 26 a1 bc 02 2e 51 bc 90 6c 25 bc
       -0.017772578 -0.019671697 -0.012767317 -0.010096684
000250 3d df e4 bc 26 37 a2 bc f3 7b 94 3b e7 dd 4e 3b
       -0.02793848 -0.019801687 0.0045313775 0.003156537
000260 9a 8f be bc 8d dc 1c 3c 1e 23 27 bb 24 23 bd bb
       -0.023261834 0.009574068 -0.002550311 -0.0057720114
000270 71 59 f5 bc 11 cc 2b bc db 9c 01 bc b5 48 83 3a
       -0.029949876 -0.010485665 -0.007910932 0.0010016175
000280 d6 1a 2c 3c 2d fb d4 bc 5e 01 6d bb b0 0c 09 3c
       0.010504445 -0.025998676 -0.0036164145 0.008364841
000290 d3 35 14 bc 1a 85 76 bb 36 27 ac bc 42 a7 02 bc
       -0.009046036 -0.0037615956 -0.021014791 -0.007974448
0002a0 0b 54 9f b9 93 ba 68 bb 23 76 a8 bc ab b1 2d 3c
       -0.0003038946 -0.0035511598 -0.020564144 0.010601441
0002b0 27 91 f9 bc 75 65 3b 3b f0 7f ff 39 ab 7e f3 bc
       -0.030464722 0.0028594409 0.0004873271 -0.029723486
0002c0 d0 15 10 3c 38 e0 57 3c ff df ed 3a e3 f8 23 bc
       0.008794263 0.0131760165 0.0018148421 -0.01000807
0002d0 b7 2a 16 bc 1a 6e ad ba 3d a6 f8 3b d5 b8 0a 3c
       -0.009165457 -0.0013231665 0.0075881765 0.008466919
0002e0 7c 1d 1f bc 58 c3 5e bc ae 34 79 bc 04 5d 61 bb
       -0.0097116195 -0.013596378 -0.015210314 -0.0034387717
0002f0 45 2c 4d 3c 13 a7 79 3b 62 00 0d 3c c9 f0 01 3c
       0.012522762 0.0038093969 0.008606048 0.007930943
000300 a9 b9 b2 bc c6 9f 54 3c 3c 64 26 bc 26 19 33 3b
       -0.021817045 0.012977546 -0.010155734 0.0027328222
000310 0d 47 5b bc 34 cb a8 bc 2f 40 2f bc 71 b6 f2 ba
       -0.013383639 -0.020604707 -0.010696455 -0.0018517507
000320 18 21 9e bc 1d ea 24 bc 95 d8 f1 bc cf b8 dd bc
       -0.01930289 -0.010065583 -0.02952222 -0.027065663
000330 2e bd 8d 3b 7a ae c2 ba 17 70 d4 bc 98 4a ae bc
       0.0043255305 -0.0014853023 -0.025932355 -0.021275803
000340 34 e7 eb bc 17 81 11 bc 5d a6 32 3c f0 92 41 3c
       -0.02879677 -0.008880875 0.010903922 0.011814818
000350 97 d2 23 3c c1 4b a0 bb bc 15 5a 3c df 18 bf 3b
       0.009998939 -0.004891843 0.013310846 0.0058318223
000360 d1 76 bf ba 4c 57 c6 bc 28 4a 6a bc 29 95 b9 bc
       -0.0014607554 -0.024211548 -0.014299907 -0.022654133
000370 da 79 88 bc e5 b5 c3 bc 32 08 36 3b 6a 53 b0 bc
       -0.016659666 -0.023890445 0.002777588 -0.02152415
000380 87 1e cb bb 09 7e 4c 3b 92 91 f9 bc 9d 02 52 bc
       -0.0061987075 0.0031203052 -0.030464921 -0.012818006
000390 c0 b1 81 bc ef 25 b0 bb f1 86 b5 bb 2c 7a c3 3a
       -0.015831828 -0.005375616 -0.005539768 0.0014913729
0003a0 6b 28 51 bc b3 fd 49 bb 20 7d 99 bb df 06 ce bc
       -0.012765984 -0.0030821383 -0.0046841055 -0.02514976
0003b0 35 bf 9a bc 9f cb 36 3b 10 fd 34 bc 71 82 ca bc
       -0.018890003 0.0027892364 -0.011046663 -0.024720402
0003c0 45 47 ad 3b 64 4a 17 bc 0f d6 3f 3c 71 2b bf 3b
       0.005288037 -0.009234045 0.01170875 0.005834036
0003d0 9e 8a 2e 3c 5d b9 a9 bc 14 a2 ca bc 55 33 3e 3c
       0.010653166 -0.02071827 -0.024735488 0.011608918
0003e0 33 63 c5 3b 8b 3b 03 bc 87 3f b3 3b 39 b2 51 bc
       0.0060237884 -0.008009802 0.0054702195 -0.012798839
0003f0 cc 32 68 bc e5 d8 0e bc 6a 1b 5e bb f4 bb ae bc
       -0.014172267 -0.008718704 -0.0033890852 -0.021329857

encoder.fc_logvar.bias f4 [16]
000000 01 75 d1 3b 66 2f 12 bb cf 56 de 3b 9e 04 90 bb
       0.006392122 -0.0022306084 0.0067852507 -0.0043950817
000010 51 ac 61 bb 23 4b 05 3c ab da 05 bb cb 57 94 bc
       -0.0034434984 0.00813559 -0.0020424526 -0.01810827
000020 da 2a c1 bc a7 17 eb bc 00 c3 8b bc 31 88 88 3b
       -0.023580004 -0.028697802 -0.017060757 0.004166626
000030 12 51 d6 ba ed 2f 25 bc bc e3 a9 3b e4 f5 d5 bb
       -0.0016351065 -0.010082227 0.0051846188 -0.0065295566

decoder.fc.weight f4 [2048, 16]
000000 d3 93 94 bd 7a 5e 74 3e 7e 98 06 be a7 7c bf 3d
       -0.07254758 0.23864165 -0.13144109 0.093499474
000010 b6 7e c1 3d d2 88 43 3e b6 90 a4 3d ef 48 7c be
       0.09447996 0.19095162 0.08035414 -0.24637197
000020 62 51 44 be 5b 79 18 bd cd b7 26 be 69 74 6c be
       -0.1917167 -0.03722511 -0.16281052 -0.23091282
000030 ed 9b f7 bb f1 4d 32 be 82 05 9c 3d 15 d9 40 3e
       -0.0075564296 -0.17412545 0.07618238 0.1883281
000040 76 a6 c6 bd 16 66 9a bd 06 bc 3b 3e 79 75 55 3e
       -0.09699719 -0.075390026 0.18333444 0.20845594
000050 79 40 16 3e 00 94 e5 bd 66 7f 39 be d4 1c 65 be
       0.14673032 -0.112098694 -0.18115005 -0.22374278
000060 b6 12 81 bd 8e 9d 47 be 7c 4e 6a 3d 43 88 42 3d
       -0.06302397 -0.19493696 0.057203755 0.04749323
000070 fd 48 5e 3e e3 a8 3f 3e eb 6c 7e bd ef 30 c7 bd
       0.2170753 0.18716769 -0.06211559 -0.0972613
000080 a3 ea c9 3d 00 b3 34 be 61 d7 96 bd 3b 5b cc 3b
       0.098592065 -0.17646408 -0.07365299 0.0062364615
000090 e7 2d 06 3e ad fe a3 bd 62 1f 1f be 90 5d 1e bb
       0.13103448 -0.0800756 -0.15539315 -0.0024164654
0000a0 fc 40 61 bd 1a a6 07 3d 87 a3 57 be 10 ce 40 be
       -0.054993615 0.03311739 -0.21058474 -0.18828607
0000b0 07 ea 29 be d2 52 2b 3d b1 c1 1b bd 51 ce 34 be
       -0.1659318 0.04182703 -0.038026515 -0.17656828
0000c0 ba a0 36 3d d4 15 23 be 3f 69 92 3c 9b 50 8a bd
       0.044586875 -0.15926296 0.01787245 -0.067536555
0000d0 1e ce 20 3d 1b 8e 7d 3e 2b 1d f0 bd fa a7 21 3e
       0.03925907 0.2476124 -0.11724313 0.15786734
0000e0 d5 a7 04 3d ed ac d0 3d 3e c6 39 be 0a 1e 0e 3e
       0.03238662 0.10189233 -0.1814203 0.13878646
0000f0 cc f8 d2 bd 8e 25 42 bd cb 06 52 3e 3a c3 00 be
       -0.103013605 -0.047399096 0.20510404 -0.12574473
000100 3e 4f d5 bd 59 dc ad 3d f4 b2 58 be 94 29 b6 bd
       -0.10415505 0.084892936 -0.21162015 -0.08894649
000110 60 b0 80 bd 34 31 3c 3e 09 c0 50 be 29 ad 16 be
       -0.06283641 0.18378145 -0.20385756 -0.14714493
000120 b2 d9 98 3d 1d 76 32 3d c5 8d 7b bd 25 26 ae 3c
       0.07463397 0.043569673 -0.0614145 0.021258423
000130 21 3a 40 be 25 e5 66 be 0a 05 0c be 88 5a 3e 3e
       -0.18772174 -0.22548349 -0.13673797 0.18589222
000140 70 38 14 3e 88 40 1d 3c 7e e7 50 bd d9 06 4e be
       0.14474654 0.009597905 -0.05100202 -0.201198
000150 33 e1 8e 3c e6 0b 71 3e db 05 f2 3d 44 f1 de 3d
       0.017441368 0.23539695 0.11817523 0.108858615
000160 97 45 59 3d d5 e1 9b bc cc d0 93 bd fb ba b1 3c
       0.05304488 -0.019028584 -0.07217559 0.021695605
000170 33 ae 6f 3e cb eb 3b 3c be a3 1d 3e 69 18 00 be
       0.23406295 0.011469792 0.15394494 -0.12509312
000180 cb 33 5c 3e cf 0d 42 3e 68 8e 7c be 6d 5f 81 3d
       0.21504132 0.1895058 -0.24663699 0.06317029
000190 7b b8 55 be 48 06 5d 3e 42 a7 88 3d 35 2f 9d bd
       -0.20871155 0.21584427 0.06672527 -0.0767502
0001a0 a2 b0 01 be 09 fb 80 bd 9b 61 00 be 20 7f 0e 3e
       -0.12665036 -0.06297881 -0.12537234 0.13915682
0001b0 23 5a 20 3c 80 7a 33 be b6 47 83 3d f9 00 6a 3e
       0.009787115 -0.17527199 0.06410162 0.22851934
0001c0 6a 98 14 3e c1 e2 f9 3d e2 f0 4b bd 60 8a b0 bd
       0.14511266 0.12201453 -0.04979027 -0.08620143
0001d0 0e 6d d5 bd d3 8b 5f be 12 af 3c 3e 08 3f 6a be
       -0.10421191 -0.21830682 0.18426159 -0.22875607
0001e0 a4 14 a2 3d fa 40 cc bb c3 20 6b bd 39 85 8b 3d
       0.07914093 -0.0062333317 -0.05740429 0.068125196
0001f0 31 60 4a be c7 0e 6c 3c fa 43 c8 3d fd b6 99 3d
       -0.19763257 0.01440782 0.097785905 0.07505605
000200 87 17 86 bc 98 c2 c2 3c b2 39 19 3e a6 51 0e 3e
       -0.01636864 0.02377443 0.14963415 0.13898334
000210 97 0f 38 3e f7 c2 45 be 86 b4 b6 3d 77 51 ad 3d
       0.17974697 -0.19312654 0.08921151 0.08462804
000220 6e 65 2b 3e 88 93 ed 3a 79 b1 71 3e 31 3a 05 3e
       0.16737911 0.0018125633 0.23602857 0.1301048
000230 e0 7d 12 3e f5 55 79 3e a9 c3 e0 3c 54 7b ce 3d
       0.1430583 0.24349196 0.027437048 0.10082117
000240 dc fa 45 3d 0a 83 2c be 19 ca bf 3d f6 a7 44 3e
       0.04833494 -0.16846862 0.09364719 0.19204697
000250 90 fd 51 3e 50 4b 74 3e 73 53 09 be 78 9c e5 3d
       0.20506883 0.23856854 -0.1341074 0.11211485
000260 1f 7e 3d bb 01 ae 02 be 44 42 b8 bd 66 4a 2e 3e
       -0.0028914285 -0.1276169 -0.08997014 0.17020568
000270 3e e0 81 3d 25 96 9f bd 91 7d c3 3d 12 5b 6c be
       0.06341599 -0.0779231 0.09545434 -0.23081616
000280 19 fc 71 be e8 46 d6 bc 45 0a 9b 3c 2a 21 03 3e
       -0.23631324 -0.026156858 0.018925795 0.1280562
000290 98 e2 37 be ec 09 6d 3e 3d 35 aa 3d 05 f2 28 3e
       -0.17957532 0.23148316 0.08310936 0.16498573
0002a0 dd af 02 be c1 54 f7 3d 21 cd 03 be f8 f3 92 bd
       -0.12762399 0.120767124 -0.12871219 -0.071754396
0002b0 e5 b7 8e bc 39 36 19 be c9 50 1e be 87 df 53 be
       -0.017421672 -0.1496209 -0.15460505 -0.20690738
0002c0 7e 4b 59 3e 2c ef 9d 3d 71 ec 95 3d 1e 8d 81 3d
       0.21220204 0.07711634 0.07320488 0.06325744
0002d0 a6 66 79 bd 48 ca 80 3e eb 40 74 be 50 22 57 3e
       -0.06088891 0.25154328 -0.23852889 0.21009183
0002e0 3e 9f 24 be e0 87 45 3e 52 8c 6e 3e d9 56 d2 bd
       -0.16076371 0.19290113 0.23295715 -0.10270471
0002f0 64 4b 70 3d b8 ad 1f be c5 d2 fd bd 53 b3 7e 3b
       0.058665648 -0.15593612 -0.12393717 0.003886421
000300 b7 ba 55 be 78 35 d2 3d e3 3d 48 3d fc a1 5a be
       -0.20872007 0.102641046 0.048887145 -0.21350855
000310 df d6 65 3e 88 ab 78 be 41 0b 0c 3e 3e 33 3a be
       0.22445248 -0.24284184 0.13676168 -0.1818361
000320 1b 81 45 3e 3c 11 13 3d 74 47 23 bd 97 81 94 3d
       0.19287531 0.035905108 -0.039863065 0.0725128
000330 e5 f5 72 3e 2c 8a 74 be 9d d4 a9 bd 66 44 f8 3d
       0.23726614 -0.23880833 -0.08292506 0.12122421
000340 a8 9a 63 bd 75 25 5b be 83 6f 97 bd 5c 45 68 3d
       -0.055567414 -0.21401007 -0.07394316 0.05670677
000350 ad 3f 04 be 81 80 9e 3d 8d ee 62 be d8 e5 35 3e
       -0.12914915 0.07739354 -0.22161312 0.1776346
000360 c2 5e 78 3e 96 69 a2 3a ea 88 b9 bc de 44 71 be
       0.24254897 0.0012391086 -0.022648294 -0.23561427
000370 78 9e 67 3e 6f c3 fb bc d0 bf cc 3d 05 34 47 3d
       0.22619045 -0.030732838 0.09997523 0.048633594
000380 2b 81 39 3d 5d 2c 6a be 7e 6a 29 3e 99 a7 65 be
       0.0452892 -0.22868486 0.1654453 -0.22427215
000390 6f a6 19 be aa 1b 2c 3d 32 82 fb 3c 1e d8 8e bd
       -0.15004896 0.04201857 0.03070173 -0.06974815
0003a0 e3 52 2b be 93 10 87 3d c6 6f 59 3e c4 ea 57 be
       -0.16730838 0.06594958 0.21234044 -0.2108565
0003b0 5a 18 bd 3d 5c aa 33 be d6 27 6a be 1e 97 68 bd
       0.0923316 -0.17545456 -0.22866759 -0.05678474
0003c0 60 57 63 bd 6b ff d0 bd fb c9 69 bd b2 d8 27 be
       -0.05550325 -0.10204967 -0.05707739 -0.16391256
0003d0 41 c8 4a be a0 c5 05 be 1d e1 d7 3c 15 d7 e0 3c
       -0.19802953 -0.13063669 0.02635246 0.02744631
0003e0 a9 a5 36 3e 24 fe 3c be de 44 ee bd 64 fc 94 3d
       0.17836632 -0.18456322 -0.11634229 0.07274702
0003f0 da 64 ce bd 94 f8 2e be 09 64 77 3e df a9 1e 3b
       -0.1007783 -0.17087013 0.24159254 0.0024210138

decoder.fc.bias f4 [2048]
000000 55 ac 57 3e 8d 13 30 3e 47 20 40 bd c9 93 44 3e
       0.21061833 0.17194958 -0.046905782 0.19197
000010 ca a8 a4 3d 80 38 cc bd 0a c8 75 be 5c 2f 6d be
       0.080400065 -0.09971714 -0.2400209 -0.23162597
000020 ec b5 2f bd f7 e6 42 3e 94 78 21 bd 20 dd 74 3e
       -0.042898104 0.19033419 -0.039421633 0.23912477
000030 17 d9 7e bd 86 b9 47 3e f2 37 5e be df cf b9 3d
       -0.06221875 0.19504365 -0.21701029 0.090728514
000040 69 df 49 3e 99 87 7c bd 31 3d 0b bc f6 62 95 bb
       0.1971413 -0.061652754 -0.008498476 -0.004558916
000050 16 60 29 be 32 4e 3a be 41 d4 6d be 17 6b 51 bd
       -0.1654056 -0.18193892 -0.232255 -0.05112752
000060 0a b7 af bd 65 e0 20 3d 78 c9 c5 bd fc 64 a4 bd
       -0.08579834 0.0392765 -0.09657568 -0.08027074
000070 fc 9d 00 3e ef e4 a3 3c 8a 9c aa 3c 13 ce 32 3e
       0.12560266 0.020006625 0.020826597 0.17461424
000080 26 16 4c be f6 0e 58 be f6 6f c4 3d 1c 5e 71 3e
       -0.19930324 -0.21099457 0.09591667 0.23571056
000090 5b 15 42 be 6a 1e 1f be fd 77 b1 bc dd ff 39 be
       -0.18953459 -0.15538946 -0.02166366 -0.1816401
0000a0 7b 65 2a be 58 b9 70 bb ae 07 af bd 5f 3d 5f 3e
       -0.16640274 -0.0036731567 -0.08546387 0.21800755
0000b0 77 58 5c be 5f 5f 02 be d6 5b 3f 3e 54 78 e2 bd
       -0.21518122 -0.12731694 0.18687376 -0.11058107
0000c0 dc 26 23 3d 4d 76 62 3e 47 03 3a 3e df 5a 77 3e
       0.03983198 0.2211544 0.18165313 0.24155758
0000d0 3a b9 57 be 06 80 d7 bd 64 c1 2d bd 23 6b d7 3d
       -0.21066752 -0.105224654 -0.04242076 0.105184816
0000e0 1e be 56 be 7a ca 5b 3e f0 3d 3a be 2b 95 50 be
       -0.20970961 0.21463957 -0.1818769 -0.20369403
0000f0 ca a0 b9 3d c6 e0 4c 3e ea 55 c8 3c 57 27 36 be
       0.09063871 0.2000762 0.02445503 -0.17788444
000100 b8 f8 10 bd e7 76 47 3e b3 60 e6 3d d5 1e 89 3b
       -0.035393447 0.19478951 0.11248913 0.0041845837
000110 45 0c ae 3d 7a 8d f5 bb 67 9f 10 be 3f 73 84 3d
       0.08498434 -0.007493672 -0.14123307 0.06467294
000120 56 21 e8 3d fd ee d9 bd 79 f5 4a be 74 3e 36 be
       0.11334483 -0.106412865 -0.19820203 -0.17797261
000130 31 4f 62 3e 5d 1c 94 3d c9 4c bd bd 4c a6 ad bd
       0.22100522 0.07231972 -0.09243161 -0.08478984
000140 9d 74 ed bd 28 bd 80 3e 60 b2 7d 3e 16 73 7e bd
       -0.11594508 0.25144315 0.24775076 -0.062121473
000150 6a 64 24 3c c9 a4 de 3d 45 9c bf bd 70 dd 76 3e
       0.010033706 0.10871274 -0.09355978 0.24107909
000160 d9 de 2a 3d 62 01 27 3e c0 d1 c0 3d 7d ae 35 3e
       0.04171643 0.16309121 0.09415007 0.17742343
000170 cd e1 39 be 97 df ef bb 3e 76 f6 bd 2c a9 6f 3e
       -0.18152542 -0.007320355 -0.12034272 0.23404378
000180 98 13 a5 bd b9 a0 0b be f2 95 25 be bb b7 57 bd
       -0.08060378 -0.1363553 -0.16170481 -0.052665453
000190 a6 fc 58 3d 64 8b b1 bd 2c 00 52 bd 79 18 6a 3e
       0.05297532 -0.08669165 -0.051269695 0.22860898
0001a0 42 d0 56 3c 02 97 15 3d 64 4c 52 be 54 51 cb 3d
       0.013111176 0.036520965 -0.20536953 0.099276215
0001b0 eb ed 2b 3d bc 08 21 bb 41 8e ff 3d f7 46 9a bd
       0.041974943 -0.0024571856 0.12478305 -0.07533067
0001c0 e4 07 81 3e 0d 0f 4d be 4f 41 f9 3d 73 49 0e 3e
       0.25201333 -0.20025273 0.1217066 0.13895206
0001d0 88 2f 85 3c 47 fb 44 3e 55 0f b0 bd 0c 0d be 3d
       0.016258016 0.1923648 -0.08596674 0.09279832
0001e0 e4 b5 d2 bd 1c 9e 36 be c4 35 18 be 78 eb 6a 3e
       -0.10288599 -0.17833751 -0.1486426 0.22941387
0001f0 5f a9 1f be a3 13 a1 3d 2b 64 46 3e 72 4e fa 3d
       -0.15591954 0.078650735 0.19374149 0.122219935
000200 9b ca 3a be 37 6c ae 3d 60 5c 8a 3c d5 05 56 bc
       -0.1824135 0.08516734 0.016889751 -0.013062914
000210 00 2f 69 3e dd 29 32 3e bb d4 a9 3d 2a f9 a9 3d
       0.22771835 0.17398782 0.08292528 0.082994774
000220 81 63 6b bd 68 f3 aa bc 0d 89 35 bd 2a 56 d9 3d
       -0.05746794 -0.020868018 -0.044320155 0.106121376
000230 ca 6f 88 3b 7e 44 db bd 28 77 b1 3c e0 d5 49 be
       0.004163717 -0.10706423 0.021663263 -0.19710493
000240 20 eb 33 be 01 22 73 be e6 fe 17 be 4a a3 b5 bd
       -0.17570162 -0.2374344 -0.1484333 -0.088690355
000250 bd 45 97 3c a6 96 26 3e 59 57 7d 3d f2 eb b7 3d
       0.018465871 0.16268405 0.06185088 0.0898055
000260 f5 0d 5f bd 97 e2 fe bc d0 5f 1a be 93 30 90 3d
       -0.05445667 -0.031113906 -0.15075612 0.07040515
000270 d0 97 76 3e 10 09 38 be a1 98 07 be e7 0d 50 3d
       0.2408135 -0.17972207 -0.13241817 0.05079451
000280 7f ee 13 3e 8b da f2 3d 9f 37 07 3e 07 89 1b be
       0.14446448 0.1185809 0.13204812 -0.1518899
000290 e2 da 80 be c5 b9 4f be 2a 2a c1 bd 2e 7e 2b be
       -0.25166994 -0.20285709 -0.0943187 -0.16747352
0002a0 69 4b 6c be 66 f6 3d 3e 92 e1 38 3e 11 a5 4b 3e
       -0.23075642 0.18551025 0.18054798 0.19887187
0002b0 36 a0 31 3e ca 95 2d 3d 16 cf 63 3d 59 0b 2c be
       0.17346272 0.042379178 0.055617414 -0.16801204
0002c0 5b a6 e3 3d 38 97 2a be 5f 7f 49 be be cb 66 3e
       0.11115714 -0.16659248 -0.19677494 0.22538659
0002d0 47 26 02 bc 1f c8 8e bd 8e 7f 6c 3e 2c 62 67 be
       -0.007943696 -0.06971764 0.23095533 -0.22596043
0002e0 c9 d9 96 3d 2e e2 3d be 7d 8d 2b bc 86 4e cd 3d
       0.07365758 -0.18543312 -0.010470745 0.10024743
0002f0 28 47 1e bd eb f5 19 3e 83 ed 5b 3e 19 c7 6a be
       -0.03864208 0.15035217 0.21477322 -0.22927512
000300 1a 82 52 3d 13 a6 22 be 00 4b 15 3e 7b 31 d1 3d
       0.051393606 -0.15883665 0.14579391 0.10214516
000310 0c 14 09 3e cd 26 a0 3d 90 62 54 be 70 53 ab 3d
       0.13386554 0.07819901 -0.20740724 0.08365524
000320 f5 05 53 3d 4b 13 0a be e9 2b 29 3e 08 2c 03 be
       0.051519353 -0.13483922 0.16520657 -0.12809765
000330 3d 6c a8 b8 2e 3a 8e bc e7 06 e6 3d f0 10 0a 3e
       -8.031025e-05 -0.017361727 0.11231785 0.13483024
000340 82 d3 08 3e 3b a3 2b 3d f9 fb 6c 3e 01 d4 62 be
       0.13361934 0.041903716 0.23142995 -0.22151186
000350 91 af 6c 3e 7c 40 4c be 53 56 5d bd 56 19 13 3e
       0.23113848 -0.19946474 -0.054037403 0.14365134
000360 40 ff 5d bd c1 43 5f be fb 0e d3 3d 3c f7 6d bd
       -0.054198503 -0.2180319 0.10305592 -0.05809711
000370 39 1a 1a bd 78 41 fa bd cb 3a 09 be 0c d1 cd 3d
       -0.037622664 -0.122195184 -0.13401334 0.10049638
000380 58 58 10 3e 3c b0 5a be aa 29 60 be 38 ae 14 3e
       0.140962 -0.2135629 -0.21890894 0.14519584
000390 1f d8 59 3d 86 6e 4a be b5 1d b6 bd d2 6d 36 be
       0.053184625 -0.19768724 -0.08892385 -0.1781533
0003a0 b6 f1 82 3e c6 8e c6 bd 6b a8 61 be 43 bd c1 3d
       0.25575036 -0.096952006 -0.22036903 0.09459927
0003b0 bc 16 83 3d 2d 31 2e bd 5d 04 08 3e 9d 94 44 bd
       0.064008206 -0.042527366 0.13282914 -0.04799329
0003c0 90 7a 56 be 0e 17 9d 3d a4 00 99 3c d0 87 84 3c
       -0.20945191 0.07670413 0.018677063 0.016178042
0003d0 c4 3f cb bd 9f 17 f1 3c ac 7f 40 3e f1 0b 1c be
       -0.09924272 0.029430209 0.18798703 -0.1523893
0003e0 d9 61 a8 3d 34 c9 3a 3e 32 14 f9 3c 9d 74 3a 3e
       0.08221788 0.18240815 0.030405138 0.18208547
0003f0 6c 15 91 bc 63 77 29 be 82 04 ec bd b9 49 7c 3d
       -0.01771041 -0.16549449 -0.11524297 0.061593745

decoder.conv2.weight f4 [32, 16, 4]
000000 04 fa da 3b a7 66 9d 3d 71 f0 57 bd e9 22 ed bd
       0.006682636 0.07685595 -0.052719537 -0.11578924
000010 c7 01 89 bd d5 28 8a bd d1 83 68 bb 21 f9 73 bd
       -0.06689792 -0.06746069 -0.003547896 -0.05956376
000020 40 66 da bd 5d 3d ab 3d 65 c0 20 bc 26 bd c3 3b
       -0.10664034 0.083613135 -0.009811495 0.005973476
000030 ab 65 d6 bd 7e c9 d0 3d e5 b1 db bc fc ef 2f bd
       -0.104686104 0.101946816 -0.026818225 -0.042953476
000040 94 70 8f 3d 29 55 a9 3c 85 46 02 3e 21 cb f6 bc
       0.070038944 0.02067049 0.12722214 -0.030126156
000050 4a 89 13 3d 6e fb 2c bd 10 1c d7 bd 6f 5e c5 3c
       0.0360196 -0.04223197 -0.10503399 0.024092881
000060 71 f1 7e 3d 76 28 53 3d df 44 67 bd 31 6d ec 3a
       0.062241975 0.05155226 -0.056462165 0.0018037913
000070 61 a4 20 bc 02 65 c8 3d cf 88 bb 3d df 61 e8 3d
       -0.009804816 0.09784891 0.091569535 0.113467924
000080 2d af fc 3d 0d 7c a3 3c cd e3 79 3c c7 12 0d bd
       0.123381 0.019956613 0.015252066 -0.034441736
000090 01 6f 01 be d5 6b 9d bd f9 37 e7 bd d7 e2 1b bc
       -0.12640001 -0.07686583 -0.11289973 -0.009514532
0000a0 4c 0e fb bd 06 29 d4 3d 17 f7 6c 3d f1 a7 a6 bc
       -0.12258586 0.10359387 0.05785283 -0.020343753
0000b0 a8 02 bd bd 4d 5a 9b 3d 50 8e db bc fe 9f a2 bd
       -0.09229022 0.07585583 -0.026801258 -0.07940672
0000c0 1f d4 9b bd 3b 11 4b 3c 3a b4 a3 3d 39 ba 73 bd
       -0.07608818 0.012394245 0.0799336 -0.059503768
0000d0 80 cf d3 bc 44 07 5e 3d 2c 83 e5 3d 1e 48 6e 3d
       -0.02585578 0.054206148 0.1120666 0.058174245
0000e0 52 99 f7 bd 25 72 90 bd 5b 83 dd 3d 9e bb 0c bd
       -0.120897904 -0.07053021 0.1081607 -0.034358613
0000f0 f6 65 ed bd aa d7 e6 bd 1f 8e c4 3c ae b7 e8 3c
       -0.11591713 -0.112716034 0.02399355 0.028407898
000100 6e 29 97 bc 67 f6 ca bd 45 dc 7e bd 44 fd 5f 3d
       -0.018452372 -0.09910279 -0.062221784 0.054684892
000110 74 79 2e 3c 28 8d a9 bd 27 ed 43 3d 84 8a ab 3d
       0.010649074 -0.082788765 0.047833588 0.08376029
000120 d0 f3 5e 3d 9f 36 45 3d 86 24 9a bc a9 64 08 bd
       0.054431736 0.048147794 -0.018816244 -0.033299122
000130 f3 8f c8 bd c0 61 a4 bd 87 68 87 bd 2c aa 7f bb
       -0.09793081 -0.08026457 -0.06611734 -0.0039011342
000140 48 1b 3b bd da bb 73 bd 73 f5 03 3c 93 fa 82 3c
       -0.045680314 -0.05950532 0.008054125 0.015988624
000150 f1 01 1e bd 4b c1 a1 3c b7 72 ec bd eb aa ce bd
       -0.03857607 0.01974549 -0.115453176 -0.10091194
000160 39 ac f3 bd 92 42 b9 3d 7d f7 7f 3d 56 75 b7 bc
       -0.11898083 0.090459004 0.062491883 -0.022394817
000170 d2 eb 48 bd 29 3a 5d bd 5c b3 97 bd d7 17 db bd
       -0.04905302 -0.054010544 -0.07407257 -0.106979065
000180 75 5f fd bd 9e b9 e4 bd eb dc 51 3d 29 5c b9 bc
       -0.123717226 -0.11168216 0.051236074 -0.022626953
000190 94 74 76 3d 66 41 cc 3d 6e 36 06 be 7d e7 1b bd
       0.06016977 0.09973411 -0.13106701 -0.03806256
0001a0 d8 fa af bd 0c 31 b3 bd 63 2f e0 bd 59 52 52 bd
       -0.085927665 -0.08749589 -0.10946538 -0.051348064
0001b0 71 95 ad 3d 30 f4 9c bc fe 85 c7 bc 86 b6 e2 bd
       0.08475769 -0.019159406 -0.024355885 -0.1106997
0001c0 f2 26 e2 bc 2b b6 ba 3d 55 05 3d bd 2f 3e 2c 3d
       -0.027606461 0.09116777 -0.046147663 0.04205149
0001d0 6e 59 bf 3c 7a 95 f7 bc 97 02 95 bd b2 15 21 bd
       0.023358073 -0.030222643 -0.072758846 -0.03932733
0001e0 19 8f d4 3d 88 dd 38 3c 68 09 a5 bd cc fa 79 3d
       0.10378856 0.011283286 -0.08058435 0.061030194
0001f0 47 2f 6d bd 59 ed 82 bd 9b 59 ea 3d c8 76 bc 3a
       -0.057906415 -0.06392927 0.11442872 0.0014378661
000200 bb a0 7c 3d 43 fc 86 bd e8 a9 e5 bd d8 38 95 bd
       0.061676722 -0.06591084 -0.11214048 -0.07286233
000210 38 7e 90 3c f8 73 9b 3d 0d b0 7e bd f5 3b 83 3c
       0.01763831 0.07590479 -0.062179614 0.0160198
000220 3f e5 cb bb a0 f6 c8 bd dd 1b 77 3d 98 23 91 3d
       -0.0062223966 -0.09812665 0.060329307 0.07086867
000230 95 dc 47 3d 39 79 22 3d 13 53 b0 3d 14 46 1f 3c
       0.048794348 0.03966639 0.08609595 0.009721298
000240 55 a2 ca bd b0 17 94 bd 2e 01 d4 3b 84 9c 03 bd
       -0.09894244 -0.072310805 0.006469867 -0.032131687
000250 91 21 f6 bd b9 13 ec 3c 4c 94 83 bc 67 da 4b bc
       -0.12018121 0.028817998 -0.016061924 -0.012442208
000260 1e 65 83 3d df e4 62 bd 29 eb c9 bd 62 6c f9 bc
       0.06415771 -0.05539405 -0.09859306 -0.030447189
000270 b9 ab 00 bc c3 be 83 bd 7e 69 86 bd 5c f6 68 3d
       -0.007853442 -0.06432869 -0.0656309 0.05687557
000280 72 d3 74 bd 34 bd b7 bb 50 06 83 3c 01 9a 92 bd
       -0.059771962 -0.0056072716 0.015994221 -0.0715828
000290 0f 75 e9 bc b9 97 dc 3c d6 eb db bd 87 bc 58 bd
       -0.0284982 0.026927816 -0.107383415 -0.05291417
0002a0 84 16 64 3b b3 92 b5 3d 24 3c e8 3c 26 ac b1 3c
       0.003480346 0.08865871 0.02834899 0.021688532
0002b0 68 c3 f8 bc 3f 4c 9d bc 67 df a4 bd 81 95 fe bd
       -0.030366614 -0.019201396 -0.08050423 -0.12430859
0002c0 fd 27 02 3e 9d 06 32 3d 5b 99 4d 3d 34 af 88 bd
       0.12710567 0.04346334 0.05019508 -0.06674042
0002d0 92 de f4 3c a3 da 3b bd 75 e4 c6 3d 7e f8 b3 bd
       0.029891286 -0.045862805 0.097115435 -0.087876305
0002e0 45 4f c1 bd c2 6f f9 bb 73 13 91 3d 06 02 fd 3c
       -0.094389476 -0.0076121995 0.07083788 0.030884754
0002f0 d8 46 83 bc a7 a1 83 3d fc 4e 42 3c 6c e7 36 3c
       -0.016024992 0.06427317 0.011859652 0.011163574
000300 1e e3 9a 3d e5 0e df bd 57 52 9c bd 6e 9a 6f bd
       0.075628504 -0.10891513 -0.076328926 -0.058496885
000310 af 55 e3 3d 20 65 aa 3d 7e d1 f0 3b 89 c7 0e bb
       0.11100327 0.08320069 0.007349192 -0.0021786413
000320 a9 92 a1 bd 46 2d ad 3c 83 d8 84 3c b1 d4 ca 3d
       -0.07889301 0.021139752 0.016216522 0.09903849
000330 36 11 c7 bd c1 fe 53 3d e5 aa 02 be 31 b3 e4 bd
       -0.097200796 0.051756624 -0.12760504 -0.111669905
000340 e6 76 33 bc c9 07 66 bd 51 35 fc bc 54 b6 49 bd
       -0.010953641 -0.05615977 -0.030787142 -0.049246147
000350 cf d8 80 3d fd 3f cf bd 4e ac ac 3d ee 84 d5 bd
       0.06291353 -0.10119627 0.08431302 -0.10425745
000360 57 ae 8a bd ab 46 b9 3d 7e a0 01 bd 13 de 7f bc
       -0.06771534 0.09046682 -0.031647198 -0.015616911
000370 e8 57 bd bd 62 97 dc 3d 41 9f 98 bd 2b 7b 8b bd
       -0.092452824 0.107710615 -0.0745225 -0.06810602
000380 38 01 63 bd 6f 6d b8 3d 23 33 b4 bd dd 8f c4 3c
       -0.055421084 0.09005248 -0.08798816 0.02399438
000390 ec 14 3b bd 42 0f d6 3d 39 9b 53 3d be b9 89 3d
       -0.04567425 0.10452129 0.051661704 0.06724881
0003a0 18 54 06 3d ef 45 12 bd a6 5e bd bc 98 38 b1 3a
       0.03279504 -0.035711225 -0.023116421 0.0013520895
0003b0 1f d7 e4 bc 5e 2c ca 3c ba bf bc bc 81 77 76 bd
       -0.027934609 0.024679359 -0.023040641 -0.06017256
0003c0 5e de f7 3c 31 82 bf bd 18 d0 d9 bd cf 7f e9 3d
       0.0302574 -0.09351004 -0.10635394 0.11401331
0003d0 95 79 43 bc 36 a7 af 3d 17 2e e6 bd c9 b9 29 bd
       -0.011930843 0.08576815 -0.1123926 -0.041436944
0003e0 40 81 5e 3d 12 1f bc 3d b8 13 a7 bc dc 28 a5 bd
       0.05432248 0.09185614 -0.020395145 -0.08064434
0003f0 56 cc e8 3d b5 c7 26 3c f6 93 ab 3d b3 69 4a 3c
       0.11367099 0.01017945 0.08377831 0.012354302

decoder.conv2.bias f4 [16]
000000 9b d2 b6 3c fa e7 04 be da ca 53 3d d2 d3 ca bc
       0.022317221 -0.12979117 0.051707126 -0.024759207
000010 12 54 09 bd 34 64 c4 3c a2 63 52 bd 86 e9 ac 3d
       -0.03352744 0.023973562 -0.05136455 0.084429786
000020 6c 03 a5 bc 98 84 e9 bd 5f 68 b9 3d 14 79 49 bd
       -0.020143233 -0.114022434 0.0905311 -0.049187735
000030 58 10 2f bd 90 57 19 3d aa bc 7b 3c 4a 0f 06 be
       -0.042740196 0.03743702 0.015364805 -0.1309177

decoder.conv1.weight f4 [16, 1, 4]
000000 06 20 e4 be 43 28 27 3e 59 85 96 3d 4f 5f b7 be
       -0.44555682 0.16323952 0.07349653 -0.35814902
000010 83 e8 f7 be 71 21 f2 3e e0 28 3f 3e f9 6f bc bd
       -0.4841958 0.4729114 0.18667936 -0.092010446
000020 19 4d ec 3e 58 67 e8 bd 5c 21 e9 3e 3c db c9 be
       0.4615257 -0.11347836 0.45533264 -0.39425075
000030 51 92 7d be 22 2c cf be 02 dd fa 3e 23 c7 df be
       -0.24762847 -0.40463358 0.4899674 -0.43706617
000040 91 b5 d9 be 1d 9a 14 3e 67 10 b2 3d 3f 9f 98 be
       -0.42521337 0.14511915 0.08694535 -0.29808995
000050 1c fb c7 be a2 7e 48 3d 2b c1 1c 3d c8 4c cf be
       -0.3905877 0.04894889 0.038270157 -0.40488267
000060 2f b8 af 3d 93 c6 ae bc d2 fd 55 be 0e 39 65 3e
       0.08580052 -0.021334922 -0.20897606 0.22385046
000070 3b e6 bc be a5 6b 94 3e 33 01 33 be 9c 99 89 be
       -0.36894402 0.28988376 -0.17480926 -0.26875007
000080 62 98 3e 3c 2d 4e 23 be b9 16 99 3e 3a 3e ae be
       0.011633011 -0.1594779 0.2990015 -0.3403185
000090 9b af 49 3d d1 4a 14 3c 71 3d 9d be 37 3e 94 3d
       0.049239736 0.009051041 -0.3071094 0.07238429
0000a0 f4 bb 1b 3d d7 e3 b5 3e 6a 3b a6 3d 1a 76 ea 3d
       0.038021043 0.3552539 0.08116801 0.11448307
0000b0 9d e2 71 bb 74 9f ad be e9 6f a6 be b5 9b 4c be
       -0.0036908754 -0.33910716 -0.32507256 -0.19981273
0000c0 30 99 b3 be 5e 5e 86 be 87 11 31 3e 62 23 00 be
       -0.3507781 -0.2624387 0.17291842 -0.12513497
0000d0 b1 e8 da 3e 56 7f ed 3e ab cb 63 be a9 33 89 3d
       0.42755654 0.46386212 -0.22245662 0.066993065
0000e0 13 97 a3 be aa 54 c6 be 08 33 9a be f7 89 a1 3e
       -0.31951198 -0.3873647 -0.3011706 0.3155057
0000f0 0c 66 3a 3e 3a f7 77 3e 40 52 99 3e 3b 9f fb bc
       0.1820299 0.24215403 0.29945564 -0.030715575
