variational_autoencoder/torch_vae_model_1500.pth (torch, 423435 bytes, 13 tensors)

encoder.conv1.weight f4 [16, 1, 4]
0	0x0fce7c95	2.0361156e-29
1	0x89e5ff59	-5.5369872e-33
2	0xb24693f6	-1.1558759e-08
3	0xa73f998f	-2.658982e-15
4	0x3ed5989b	0.4171799
5	0xbcda5461	-0.026651563
6	0xbe27bfcb	-0.16381757
7	0xbea76a30	-0.32698202
8	0x3e22e322	0.15906957
9	0xbef76505	-0.4831926
10	0xbe9ad2a7	-0.3023884
11	0x3bcc8fbc	0.0062427204
12	0xbd2a86e9	-0.041632567
13	0x3d377727	0.044791367
14	0x3e3b490e	0.18289587
15	0xbea9f562	-0.33195025
16	0xbecb0f2e	-0.3966002
17	0x3ec40eb9	0.38292482
18	0x3db13b98	0.08653945
19	0xbd23d2b1	-0.039995853
20	0x3e112dcc	0.14177626
21	0xbe11658d	-0.14198895
22	0x3ef288f0	0.473701
23	0x3cb06cd9	0.021536278
24	0xbdca9b11	-0.09892858
25	0xbeb0e6f6	-0.3455121
26	0xbe79936b	-0.24372642
27	0x3ede6f4b	0.43444285
28	0xbe7b1034	-0.245179
29	0xb82148e5	-3.845328e-05
30	0x3eaa29fa	0.3323515
31	0xbedfcfeb	-0.43713316
32	0xbe24088d	-0.16018887
33	0x3f054316	0.5205549
34	0x3e9b9e3a	0.30394155
35	0xbeb484ad	-0.35257474
36	0xbe419a56	-0.1890653
37	0xbed52523	-0.41629896
38	0x3eeb6312	0.45974022
39	0x3ece7889	0.40326336
40	0x3d5bc493	0.053654265
41	0xbec46107	-0.38355276
42	0xbc697e6d	-0.014251334
43	0x3e1357fe	0.14389035
44	0xbf2b1895	-0.66834384
45	0xbf34c3b9	-0.7061115
46	0xbf25acad	-0.6471661
47	0xbf3c7ddc	-0.73629546
48	0x3e482ee3	0.19549136
49	0xbe9e29fc	-0.30891407
50	0x3cac29ef	0.02101609
51	0xbeeddb67	-0.46456453
52	0x3ea0f248	0.31434846
53	0x3ecc6faf	0.39928958
54	0xbed1baa3	-0.40962705
55	0x3ebc9981	0.36835864
56	0xbe95a094	-0.29224074
57	0xbe6e36e6	-0.2326313
58	0xbc0a6932	-0.008447932
59	0x3e8ecdcf	0.27891394
60	0xbe870ca8	-0.26376843
61	0xbed47dc3	-0.415022
62	0xbe4e8b1b	-0.20170252
63	0x3ed98f5f	0.42492196

encoder.conv1.bias f4 [16]
0	0xb9740f2a	-0.00023275302
1	0x3eade028	0.3396008
2	0x3e4567a4	0.19277817
3	0xbde70729	-0.112806626
4	0xbe698187	-0.22803317
5	0xbe433598	-0.19063413
6	0x3e82213f	0.2541599
7	0x3eb16958	0.34650683
8	0xbeb2f6c8	-0.34953904
9	0x3c8b9427	0.017038418
10	0x3d0f5561	0.034993533
11	0x3e00954c	0.12556952
12	0x3e8b5777	0.27215168
13	0xbd513405	-0.051075
14	0x3e80030e	0.2500233
15	0x3e811fa6	0.25219458

encoder.conv2.weight f4 [32, 16, 4]
0	0x891ea8df	-1.9097961e-33
1	0x04a4b94f	3.8726394e-36
2	0x03533360	6.2066303e-37
3	0x0af946d8	2.4004476e-32
4	0xbdbb7843	-0.091537975
5	0xbd2e8a8a	-0.04261259
6	0x3d6d8f0a	0.05799774
7	0x3de20f8c	0.110381216
8	0x3da1c149	0.07898194
9	0x3df0ccac	0.11757788
10	0xbcfa4c3e	-0.030553933
11	0xbcff781d	-0.031185204
12	0xbdc44e09	-0.095851965
13	0xbdd97e1c	-0.106197566
14	0x3db9397c	0.090441674
15	0x3dc08b62	0.09401585
16	0xbdce9c51	-0.10088409
17	0x3e0efc41	0.13963415
18	0x3dbd0cd7	0.09230965
19	0xbc2fa9c8	-0.010721631
20	0x3e09209c	0.13391346
21	0x3e451bd1	0.19248892
22	0xbcfef5c2	-0.031123046
23	0x3e1843b1	0.14869572
24	0xbb928b54	-0.0044721756
25	0xbdef52b6	-0.11685698
26	0xbdaf907c	-0.0857248
27	0xbb1330ce	-0.002245951
28	0xbdbad828	-0.0912326
29	0x3d838d6d	0.06423459
30	0x3db842c5	0.0899711
31	0xbda681c2	-0.08130218
32	0xbe52c6ad	-0.20583601
33	0x3da2ac99	0.07943077
34	0xbe05d75b	-0.13070433
35	0xbe269af6	-0.1627005
36	0x3e14c55b	0.1452841
37	0x3d2b730b	0.04185776
38	0xbd8b16d9	-0.06791467
39	0xbdf67aaa	-0.12035115
40	0x3df05bb2	0.117362395
41	0xbd2eb360	-0.042651534
42	0xbd1fb78d	-0.038993407
43	0xbd8d6d85	-0.06905655
44	0xbe0557c6	-0.13021764
45	0xbd4af58d	-0.04955058
46	0xbe02e6da	-0.12783375
47	0xbe070ba7	-0.13188039
48	0xbdd342db	-0.10315486
49	0x3d1babbf	0.038005587
50	0xbddfe9ce	-0.109332666
51	0x3d6c6c73	0.057720613
52	0x3c73b817	0.014875433
53	0x3e233f2e	0.1594207
54	0x3d9e235e	0.077215895
55	0x3db89d11	0.09014333
56	0xbcb09134	-0.021553613
57	0x3cafd88c	0.021465562
58	0x3d6a0fc1	0.05714393
59	0x3db686a1	0.08912397
60	0x3c2c59d4	0.010519464
61	0xbe033f64	-0.1281715
62	0xbd979da3	-0.07403114
63	0x3dff02b5	0.12451688
64	0x857c5e92	-1.1866353e-35
65	0x8690f49d	-5.4526207e-35
66	0x0577bb8d	1.1648332e-35
67	0x849e5a1e	-3.722838e-36
68	0x3d4e049a	0.050297357
69	0xbdb3a9e3	-0.08772638
70	0xbd842357	-0.06452053
71	0xbcbf08c2	-0.023319606
72	0x3e351a4e	0.17685816
73	0x3d96affa	0.073577836
74	0x3c082912	0.008310573
75	0x3d4ff25a	0.050768234
76	0x813501e6	-3.3245812e-38
77	0x8831a153	-5.3453636e-34
78	0x046790f9	2.7220488e-36
79	0x8d9b4c0c	-9.57092e-31
80	0x3ae9d7c2	0.001784079
81	0xbd85cd49	-0.06533296
82	0xbe4a9877	-0.19784723
83	0x3c2156c2	0.009847345
84	0xbdb17326	-0.08664541
85	0xbd89ab16	-0.06722085
86	0xbc27427b	-0.010208721
87	0x3de6e63c	0.112743825
88	0x3e094fb4	0.1340931
89	0x3dd7ea39	0.10542721
90	0xbd361714	-0.044455603
91	0x3c7cf314	0.015438814
92	0x3e226e32	0.15862349
93	0xbd84a9f0	-0.064777255
94	0xbd78e097	-0.06076106
95	0x3ca5a681	0.020220997
96	0x3d879e2c	0.06621966
97	0x3c88f82a	0.016719896
98	0x3dd8ad60	0.10579944
99	0xbab12498	-0.0013514934
100	0xbdcb3d98	-0.099238575
101	0x3d92e1cf	0.07171976
102	0x3de1af0d	0.110197164
103	0x3d6dc68b	0.058050673
104	0x3d5a10ad	0.05323856
105	0xbc6ecb98	-0.014574908
106	0x3d9682d4	0.07349172
107	0x3d2dfd42	0.042477854
108	0x3e0ab1c9	0.13544382
109	0x3dfa7339	0.12229008
110	0x3dcae777	0.0990743
111	0x3dccf989	0.100085326
112	0x3c529cb1	0.012854741
113	0x3d2800e3	0.04101647
114	0xbc3d6ccb	-0.011561583
115	0xbcba77e8	-0.022762254
116	0x3c9f4c91	0.01944569
117	0xbe17226c	-0.14759225
118	0x3d82ca61	0.06386257
119	0x3dfee6de	0.12446378
120	0x3e24edf3	0.16106395
121	0x3e43767e	0.1908817
122	0x3da76c00	0.08174896
123	0xbcbcd786	-0.023051988
124	0x3d734ed4	0.05940135
125	0x3df965a5	0.1217759
126	0x3d686f05	0.0567465
127	0x3c5e9a2a	0.01358656
128	0x8340f035	-5.6699473e-37
129	0x83272527	-4.911954e-37
130	0x06a5f744	6.2429426e-35
131	0x8960aa32	-2.7043045e-33
132	0xbca9971b	-0.020701936
133	0x3e0e92ab	0.13923137
134	0xbe0c8a09	-0.13724531
135	0x3ce8d2fe	0.028420921
136	0x3d02034c	0.031741425
137	0x39b49c9b	0.00034448956
138	0x3c3af947	0.011411971
139	0x3dd1f5b1	0.1025194
140	0x071e3f32	1.190517e-34
141	0xbdb20373	-0.08692064
142	0x8b2755a1	-3.222745e-32
143	0x3dd189f5	0.10231391
144	0xbe8f7293	-0.280171
145	0xbe028898	-0.12747419
146	0xbcd94f65	-0.026527116
147	0x3bf4777d	0.007460533
148	0x3db456d8	0.08805627
149	0xbe01ee8f	-0.12688659
150	0x3cb59582	0.022166017
151	0xbd4f7c6f	-0.05065578
152	0xbd806b23	-0.06270435
153	0xbd20cfaf	-0.039260563
154	0xbbda4126	-0.0066605983
155	0xbdfc9a26	-0.12334089
156	0x3d9c534a	0.07633074
157	0x3890d75b	6.906568e-05
158	0xbdbbc7ca	-0.09168966
159	0x3dec76e2	0.115461126
160	0xbde6e089	-0.112732954
161	0x3daa44a4	0.083138734
162	0xbdfbfc02	-0.12303926
163	0x3dd288df	0.10280012
164	0x3de5d4ae	0.11222206
165	0xbd2aca39	-0.04169676
166	0x3de97b6c	0.11400494
167	0xbe3f4da2	-0.18681958
168	0xbd1b61a5	-0.037934918
169	0x3dbc82d2	0.092046395
170	0x3d551cc9	0.052029405
171	0x3d0460c6	0.032318853
172	0xbd63e90d	-0.055642176
173	0xbd8edf97	-0.0697624
174	0xbe0949e0	-0.13407087
175	0xbe5d8e44	-0.21636301
176	0x3bfdff49	0.0077513796
177	0x3ddcacbe	0.107751355
178	0xbd8100d1	-0.06298984
179	0x3c950add	0.018193657
180	0x3bd66d17	0.0065437662
181	0xbd977434	-0.07395211
182	0xbc37c87f	-0.011217236
183	0x3cca9109	0.024727361
184	0x3c951d73	0.018202519
185	0x3dc2854c	0.094980806
186	0x3d009b96	0.03139838
187	0xbd813198	-0.063082874
188	0x3d753522	0.059865125
189	0x3da09fb1	0.07842959
190	0x3dc42984	0.09578231
191	0xbd19571b	-0.037436586
192	0x8141fa0d	-3.5627904e-38
193	0x86128205	-2.755507e-35
194	0x844c438d	-2.4011103e-36
195	0x84a9e6d1	-3.994368e-36
196	0xbd4474ef	-0.04796308
197	0xbbd0f50e	-0.006376869
198	0x3d1c7fec	0.038207933
199	0x3d57875b	0.05261932
200	0x3dbd91a1	0.09256292
201	0xbde91071	-0.11380089
202	0xbdc2e823	-0.09516933
203	0xbcada8b1	-0.021198602
204	0x3d8a2c8a	0.067467764
205	0x3d8044d9	0.06263132
206	0x3d0c88dc	0.034310207
207	0x3d4fb68d	0.050711203
208	0xbe05167f	-0.12996863
209	0x3d58ecfe	0.05296039
210	0xbd4eeb15	-0.05051716
211	0xbd4b785f	-0.04967534
212	0xbd780cf9	-0.060559247
213	0xbe14a7a6	-0.14517078
214	0x3cff9f05	0.031203756
215	0xbdf0eff2	-0.11764516
216	0xbd5ce636	-0.053930484
217	0xbd6e0d8d	-0.05811839
218	0xbd468c27	-0.048473503
219	0x3dcf7e15	0.1013147
220	0xbd8a7f9c	-0.06762621
221	0x3de79621	0.11307932
222	0xbd90fab9	-0.070790716
223	0xbde640cb	-0.11242827
224	0xbc073efe	-0.008254765
225	0x3e29294d	0.16519661
226	0x3d0630bc	0.03276132
227	0x3e3fd4b3	0.18733482
228	0x3da017ac	0.07817015
229	0xbccc4941	-0.024937274
230	0xbd9bdd56	-0.07610576
231	0xbdd51312	-0.10404028
232	0xbddee1ee	-0.108829364
233	0x3dcea3d4	0.100898415
234	0x3e01f409	0.12690748
235	0xbdf1f34e	-0.11813985
236	0x3d7abb72	0.061213918
237	0x3d2ceba8	0.042216927
238	0x3dec5763	0.11540105
239	0x3d5a9a19	0.053369615
240	0xbd024ee2	-0.03181351
241	0xbc7f244c	-0.015572619
242	0x3d8ac05d	0.06774972
243	0x3d0f9cf8	0.035061806
244	0x3ad0f946	0.001594343
245	0xbac0c1f1	-0.0014706237
246	0xbcf2d8e0	-0.02964443
247	0x3d80a908	0.0628224
248	0x3dc3da67	0.09563141
249	0x3ba3ef84	0.0050029177
250	0xbc94ee56	-0.018180054
251	0xbc470703	-0.012147668
252	0x3ddd3eab	0.108029686
253	0x3dbd349a	0.092385486
254	0x3d5c6eb1	0.0538165
255	0x3c268147	0.010162658

encoder.conv2.bias f4 [32]
0	0xbd80f491	-0.06296647
1	0xbd4cfa44	-0.05004336
2	0xbddb403d	-0.10705612
3	0x3dcb0522	0.099130884
4	0x3da31a69	0.07964022
5	0xbd8ff8b3	-0.070298575
6	0x3d55511c	0.052079305
7	0x3b63a773	0.0034737259
8	0x3dd1a9c6	0.1023746
9	0x3c0256cf	0.007955267
10	0xbd06e065	-0.032928843
11	0x3daaaf30	0.083341956
12	0x3d32095f	0.04346597
13	0xb2666a3d	-1.3411918e-08
14	0x3d29006d	0.04126017
15	0xac3a66c8	-2.6489245e-12
16	0x3dd9f938	0.10643238
17	0xbc14de31	-0.009086178
18	0xbd3ddd3f	-0.046353575
19	0xbdc34fa4	-0.095366746
20	0x3d18002f	0.03710955
21	0xbdeaf157	-0.11471813
22	0x3d996a76	0.07491009
23	0x3d932d22	0.07186343
24	0xbcf0bdb5	-0.029387334
25	0xbda47b18	-0.08031291
26	0xbd8f24ee	-0.06989466
27	0xbd817fd8	-0.063232124
28	0xbdbad41d	-0.09122489
29	0xbd97b2b9	-0.074071355
30	0x3d933ce3	0.071893476
31	0xbd920d9f	-0.07131504

encoder.fc_mu.weight f4 [16, 2048]
0	0x3c66175e	0.014043657
1	0x3c8de40a	0.017320652
2	0x3c8aad6f	0.016928403
3	0x3d154fb4	0.036452964
4	0x3c6f5902	0.014608623
5	0x3b766b20	0.0037600473
6	0x3cabde60	0.02098006
7	0x3b49b9ee	0.0030780989
8	0x3c8823d2	0.016618643
9	0xbcac1468	-0.021005824
10	0x3a5bf6f9	0.0008390989
11	0x3b99defe	0.004695772
12	0xbbb96397	-0.005657624
13	0xbcd177a9	-0.025569754
14	0x3b06bbfa	0.002055882
15	0xbaeec1f8	-0.0018215766
16	0xbd07fbfe	-0.033199303
17	0xbc7a3dac	-0.015273493
18	0xbb86d81c	-0.0041151177
19	0xbc1b1eb0	-0.009467766
20	0xbd0d123a	-0.03444121
21	0xbb8c65d3	-0.0042845993
22	0xbc001954	-0.007818539
23	0xbce13ec9	-0.027495759
24	0xbc44c66c	-0.012010198
25	0xbbfe0453	-0.0077519803
26	0x3c6b87cf	0.014375641
27	0x3a3d4bb6	0.00072210596
28	0xbc2892cb	-0.010288904
29	0x3c84fbbc	0.016233318
30	0x3c0bd2e4	0.008534167
31	0xbc6e6e33	-0.014552641
32	0xbc354946	-0.011064833
33	0x3ac750eb	0.001520661
34	0xbc95af1d	-0.018271977
35	0xbca21ae0	-0.019788206
36	0xbcaae181	-0.020859482
37	0x3c5a5898	0.013326786
38	0xbc09588b	-0.008382927
39	0x3bd127d4	0.0063829217
40	0x3a9c6ea1	0.0011934825
41	0xbbfbba0c	-0.0076820906
42	0x3ca678ed	0.020321334
43	0xbc7b3bf4	-0.015334118
44	0x3ccd59ae	0.025067177
45	0x3c1ea0e1	0.009681911
46	0xbc72d445	-0.014821117
47	0x3c354b30	0.011065289
48	0x3c8e8d82	0.01740146
49	0x3bdb161c	0.0066859853
50	0x3c177193	0.009243387
51	0xbc5ef6d1	-0.01360865
52	0x3c8293dc	0.015939645
53	0xbc106088	-0.008812077
54	0xbc6590dc	-0.014011588
55	0xbc21ffb3	-0.009887624
56	0x3bb1549a	0.0054116966
57	0x3a2d6ff5	0.0006616109
58	0xbc863662	-0.016383354
59	0xbcabab93	-0.020955836
60	0xbcad0605	-0.021121034
61	0xbc6b841e	-0.014374761
62	0x3bc27197	0.005933951
63	0xbc8d78c2	-0.017269496
64	0x3d4d1abd	0.050074328
65	0xbde6542b	-0.112465225
66	0xbdad3b37	-0.0845856
67	0xbdca10cc	-0.09866485
68	0xbcde5fdd	-0.02714532
69	0xbc667243	-0.014065328
70	0xbcc8a0db	-0.024490764
71	0xbc938dce	-0.018011954
72	0x3d4ce432	0.05002231
73	0xbbf4d1d9	-0.007471305
74	0x3c1069c6	0.008814281
75	0x3ce7235a	0.0282151
76	0x3cc3c5d0	0.023898035
77	0xbcb33ace	-0.021878626
78	0x3c384de3	0.011249038
79	0x3cdc8960	0.026920974
80	0x3c232c20	0.009959251
81	0x3cc0c568	0.02353163
82	0x3ca64f40	0.020301461
83	0x3cfb2d68	0.0306613
84	0x3d2698d5	0.040673096
85	0x3dbf309d	0.09335444
86	0x3d5a4559	0.05328879
87	0x3ced2b7c	0.028951399
88	0x3ce40f9d	0.027839476
89	0x3d4d6c35	0.050152022
90	0x3d1530a7	0.03642335
91	0x3cdb7727	0.026790215
92	0x3b9489b8	0.004533019
93	0x3d0bb9ed	0.03411286
94	0x3d99a1f8	0.07501596
95	0xbb69374f	-0.0035585945
96	0xbac5c9f9	-0.00150901
97	0xbc47643d	-0.012169895
98	0x3cc28f06	0.02374984
99	0x3c88d0d7	0.016701145
100	0xbbc664bf	-0.0060544903
101	0xba83dace	-0.0010059716
102	0x3a6806be	0.00088511023
103	0xbbdfba16	-0.006827603
104	0xbb31aa50	-0.002710957
105	0xbb232c7f	-0.0024898348
106	0xbb1b2a25	-0.0023676243
107	0xbc8424dd	-0.016130859
108	0xbc0c05de	-0.008546321
109	0x3c8080a1	0.015686335
110	0xbbc5afba	-0.006032911
111	0x3bb02e01	0.005376578
112	0xbc290deb	-0.01031826
113	0xbab1f576	-0.0013577181
114	0x3a2a830a	0.00065045117
115	0x3bc94961	0.0061427807
116	0xbb5f7a90	-0.0034100153
117	0xba16d0ac	-0.00057531404
118	0x3a3277ff	0.0006808042
119	0x3a43596f	0.00074519863
120	0x3ab89b93	0.0014084451
121	0x3b39b5c7	0.0028337108
122	0x3b622924	0.0034509385
123	0x3b3952f2	0.00282782
124	0x3af68ea7	0.0018810824
125	0xba2eb176	-0.0006664017
126	0xbb9e3107	-0.004827622
127	0x3a2f9544	0.00066979625
128	0xbd2fddc8	-0.042936116
129	0xbd2150c0	-0.03938365
130	0xbcff6cb6	-0.031179767
131	0xbcf5dc21	-0.030012192
132	0x3c1824de	0.009286134
133	0xbc85141d	-0.016244942
134	0xbd1cf4d0	-0.03831941
135	0xbd110875	-0.035408456
136	0xbcfa5b5c	-0.030561142
137	0x3c1edbcc	0.009695958
138	0xbd5de14b	-0.054169934
139	0x3d42548d	0.047443915
140	0x3c060e36	0.008182099
141	0x3d5b3ad9	0.05352292
142	0xbd8920b5	-0.066956915
143	0x3da0aa21	0.078449495
144	0x3d7942c2	0.06085468
145	0x3cb441ee	0.022004094
146	0x3cb0aa23	0.021565503
147	0x3c6ac027	0.014328039
148	0x3d425dec	0.047452852
149	0x3c75ae24	0.014995132
150	0xbcd714bd	-0.026255006
151	0x3c3999f8	0.011328213
152	0xbcc1276e	-0.023578372
153	0xbb83f46c	-0.00402694
154	0xbc26fa72	-0.010191547
155	0x3b9b30a7	0.0047360244
156	0x3bbe5bb7	0.005809273
157	0xbbf4be48	-0.0074689724
158	0x39d769b3	0.00041086748
159	0xbc2457c6	-0.010030692
160	0x3d00c483	0.03143741
161	0x3da96338	0.082708776
162	0x3c5f1a58	0.013617121
163	0x3db7b801	0.08970643
164	0xbc008a65	-0.007845496
165	0x3c5ae677	0.013360611
166	0xbc925914	-0.017864741
167	0x3b69c7c8	0.0035672057
168	0xbc255636	-0.010091355
169	0xbd1d561b	-0.038412195
170	0x3c157f23	0.00912455
171	0xbc8c3373	-0.017114377
172	0xbc14db76	-0.009085527
173	0x3bb4b090	0.005514212
174	0x3b0657e5	0.0020499167
175	0x3c954185	0.018219719
176	0x3d1eb83a	0.03874991
177	0x3cfa0346	0.030519139
178	0x3d001ceb	0.03127758
179	0x3d38c1dc	0.045106754
180	0x3c84969f	0.016185103
181	0x3c2e7116	0.010647079
182	0x3c269b58	0.010168873
183	0x3d094186	0.033509754
184	0xbb2c10bc	-0.0026255092
185	0xbbb4b49b	-0.005514694
186	0xbca0d235	-0.019631485
187	0x3c33f70d	0.010984194
188	0x3cb813d5	0.022470394
189	0x3c171e80	0.00922358
190	0x3cea9f70	0.028640479
191	0x3cd4fac4	0.02599848
192	0xbc8c41c9	-0.017121213
193	0x3bd63e1f	0.006538167
194	0xbc1761fc	-0.00923967
195	0xbd1b3b84	-0.037898555
196	0xbcaded57	-0.021231337
197	0xbc54794b	-0.012968372
198	0x3b3feb4f	0.0029284542
199	0x39b08924	0.00033671514
200	0x3bd52eb7	0.006505813
201	0xbc053451	-0.008130149
202	0x3c5735fc	0.0131354295
203	0x3be5a895	0.007008622
204	0x3c821919	0.015881108
205	0xbc3f58d2	-0.011678891
206	0xbb25b390	-0.002528403
207	0x3b74c904	0.003735126
208	0x3cac2abb	0.02101647
209	0x3cc72efa	0.024314392
210	0x3c07e193	0.008293527
211	0x3c9d416a	0.01919623
212	0xbc594fe8	-0.01326368
213	0x3c698b6d	0.014254433
214	0x3bf970c3	0.007612319
215	0x3bc744cf	0.0060812007
216	0x3b828c43	0.0039840057
217	0xbc77f5de	-0.015134303
218	0xbc74e66c	-0.014947515
219	0x3c6e88eb	0.014559011
220	0xbb60ca34	-0.003430021
221	0xbbbf054b	-0.0058294884
222	0xba6bdaf8	-0.00089971675
223	0xbacb9fa4	-0.0015535248
224	0x3c990763	0.01868028
225	0x3a68079e	0.00088512327
226	0x3b9dc5d7	0.004814844
227	0xbc6c3369	-0.014416554
228	0xbcbb03df	-0.022828994
229	0x3c91769b	0.01775675
230	0xbc9ad8ae	-0.018902149
231	0xbca8d1f0	-0.020607919
232	0x3c536c54	0.012904245
233	0xbc856dad	-0.016287649
234	0x3bd40663	0.006470488
235	0xbcbe9c77	-0.023267968
236	0x3c873d75	0.016508797
237	0xbc5a4059	-0.013321006
238	0x3bd14235	0.0063860663
239	0xba9dcb4b	-0.0012038735
240	0xbb9f923b	-0.004869727
241	0x3c0b3322	0.008496078
242	0xbc5c74df	-0.013455599
243	0xbbcffbca	-0.0063471543
244	0x3bb360a6	0.005474168
245	0xbcccf523	-0.025019234
246	0xbb27105f	-0.0025491936
247	0xbc46d4e1	-0.012135715
248	0x3938986c	0.00017604389
249	0x3c904205	0.017609606
250	0x3b81c7a3	0.003960566
251	0x3c3aac85	0.011393671
252	0x3c4a85cf	0.012361004
253	0xbccac4bb	-0.024752012
254	0xbbf79c01	-0.007556439
255	0x3c8c186b	0.017101487

encoder.fc_mu.bias f4 [16]
0	0xbcbaa047	-0.022781504
1	0xbb8b1087	-0.0042439136
2	0x3c64b46a	0.01395903
3	0x3b60de26	0.0034312098
4	0xbcb796cd	-0.022410775
5	0xbc0970a7	-0.008388675
6	0xbbeda74f	-0.0072526108
7	0xbc60e9ef	-0.013727649
8	0x3c3e1fbc	0.011604246
9	0xbc086e92	-0.008327143
10	0xbd16c9dc	-0.0368136
11	0x3b9bfb29	0.0047601652
12	0xbb865d15	-0.0041004517
13	0x3c18258d	0.009286297
14	0xbc906d2a	-0.017630178
15	0x3c813095	0.015770236

encoder.fc_logvar.weight f4 [16, 2048]
0	0xbbef69cd	-0.0073063136
1	0x3c05c0de	0.008163659
2	0xbc440993	-0.011965173
3	0x3c087dc3	0.008330765
4	0x38d80d30	0.00010302139
5	0xbcec5655	-0.02884976
6	0x3b82162e	0.003969929
7	0xbcd502bc	-0.02600228
8	0xbabd42bc	-0.0014439444
9	0xbc58e7f3	-0.013238895
10	0x3bf3e6fc	0.007443307
11	0xbbc6a2c1	-0.0060618822
12	0x39f870b4	0.00047386216
13	0xbcea9ae3	-0.028638309
14	0xba7135dc	-0.0009201446
15	0xb9f86f53	-0.0004738519
16	0xbc337cf0	-0.01095508
17	0xba824db9	-0.0009941376
18	0xbb5db3b5	-0.0033829038
19	0xbcb48394	-0.022035398
20	0xbc510343	-0.012757125
21	0x3bef508f	0.0073033045
22	0xbcad5a92	-0.021161351
23	0xbc7c70e8	-0.015407778
24	0xbb838749	-0.00401393
25	0x3c2eb753	0.010663825
26	0xbca1b4a0	-0.019739449
27	0xbcb855fb	-0.022501936
28	0xbc3bd4f6	-0.011464348
29	0x3b839182	0.0040151486
30	0xbbab9aff	-0.005236983
31	0xbc901679	-0.01758884
32	0xbc39fb99	-0.011351489
33	0x3b5d9e2c	0.0033816202
34	0x3c575a05	0.013144021
35	0xbc642d2e	-0.013926787
36	0xbc99a869	-0.018757062
37	0xbc93455a	-0.017977405
38	0x3c5b1f0b	0.0133741
39	0xbba84d61	-0.0051361774
40	0xbc942054	-0.018081822
41	0x3b8db277	0.004324253
42	0xbb873fde	-0.0041274866
43	0xbbe57795	-0.0070027807
44	0xbc61a237	-0.013771585
45	0xbce00573	-0.027346348
46	0xbca02c06	-0.019552242
47	0xba889ece	-0.0010423304
48	0xbc98b1b2	-0.01863942
49	0xbca5d55d	-0.020243341
50	0x3b757c8d	0.0037458271
51	0xbb6c44c0	-0.003605172
52	0xbc9d0b9e	-0.019170579
53	0xbca444ef	-0.020052401
54	0x3b0ef356	0.002181252
55	0x3b8b175f	0.0042447294
56	0x3c475312	0.012165802
57	0x3c0051f0	0.007832035
58	0x3ae4b58b	0.0017449124
59	0xbc54437d	-0.012955544
60	0x3b5a09cb	0.0033269997
61	0xbc4e3f32	-0.012588309
62	0x3c0ee87f	0.008722424
63	0x3ce506b2	0.027957294
64	0x3ced6cd4	0.028982557
65	0xbcd195b2	-0.025584076
66	0x3d0e5f3b	0.034758788
67	0xbd755d5a	-0.05990348
68	0xbc614c29	-0.013751068
69	0xbd330b01	-0.043711666
70	0xbc2276f3	-0.009916055
71	0xbc9b76d0	-0.018977553
72	0xbb348902	-0.0027547483
73	0xbd466830	-0.048439205
74	0xbd2fb7ac	-0.042899773
75	0x3b2f019c	0.002670384
76	0xbb02e02a	-0.0019970038
77	0xbc85b7bd	-0.016322965
78	0xbd40a3fd	-0.04703139
79	0xbd1671e0	-0.036729693
80	0x3c411189	0.011783966
81	0xbaac2eac	-0.0013136468
82	0x3c3ffe32	0.01171832
83	0xbd3feb6f	-0.046855386
84	0xbc048d30	-0.008090302
85	0x3d782b9b	0.06058846
86	0x3d8f05db	0.06983539
87	0x3d76a27c	0.06021355
88	0x3bb28b70	0.005448751
89	0x3ce1d15f	0.027565656
90	0x3dc08bfe	0.094017014
91	0x3d9daa69	0.07698519
92	0x3d876f38	0.0661301
93	0x3ce92140	0.028458238
94	0x3daa3ceb	0.083124004
95	0x3de3bbfb	0.11119839
96	0x3dc3fdb6	0.09569876
97	0x3da101bc	0.07861659
98	0x3d5ad711	0.05342776
99	0x3dba170e	0.090864286
100	0x3dd96a8b	0.106160246
101	0x3d985eff	0.07439994
102	0x3d9ab10a	0.07553299
103	0x3d4211d6	0.04738029
104	0x3d876749	0.06611497
105	0x3d982745	0.07429365
106	0x3d5be313	0.05368335
107	0x3d76f508	0.060292274
108	0x3d372adb	0.044718605
109	0x3d527a21	0.051386002
110	0x3d78b60b	0.060720485
111	0x3d1ea780	0.03873396
112	0x3d221641	0.039572004
113	0x3ccfc3ef	0.025361983
114	0x3cd162d2	0.025559817
115	0x3cdf44b0	0.027254432
116	0x3cc25779	0.02372335
117	0x3ca70d60	0.02039212
118	0x3c73ca17	0.014879725
119	0x3c5e411e	0.01356533
120	0x3c2df142	0.010616602
121	0x3c199c7c	0.009375688
122	0x3c14bc38	0.009078078
123	0x3c016710	0.007898107
124	0x3bcd7812	0.006270417
125	0x3b9e8503	0.0048376336
126	0x3b172c23	0.002306708
127	0x3aef6570	0.0018264484
128	0x3d849f4e	0.064756975
129	0xbc19aaad	-0.009379071
130	0xbd365f7c	-0.044524655
131	0xbb9a7f46	-0.004714879
132	0xbcc594a7	-0.024118735
133	0xbcd6b965	-0.02621145
134	0xbcadbdf6	-0.021208744
135	0xbd0ffd82	-0.035153873
136	0x3ce33921	0.027737202
137	0x3c6e2e09	0.014537343
138	0x3da9e7be	0.082961544
139	0x3c9d4743	0.01919902
140	0x3c4b4b05	0.012408023
141	0x3ce8a676	0.028399687
142	0xbc1ff469	-0.009762862
143	0x3d346522	0.04404176
144	0x3c38606d	0.011253458
145	0xbbaaf006	-0.0052166013
146	0xbc424207	-0.011856562
147	0xbc410dce	-0.011783076
148	0xbcb7f1f4	-0.02245424
149	0x3d4affd3	0.04956038
150	0xbc03a5d4	-0.008035142
151	0xbc428a11	-0.011873738
152	0xbcaa1dbb	-0.02076613
153	0x3c6b4fce	0.014362289
154	0xbcf460fb	-0.0298314
155	0xbcc46986	-0.023976099
156	0xbc662309	-0.014046439
157	0xbc4f18dc	-0.012640204
158	0xbc277f66	-0.010223245
159	0xbca9d170	-0.02072975
160	0xbc0d0af2	-0.008608567
161	0x3cffa8ec	0.031208478
162	0x3a9fbb80	0.0012186617
163	0x3c29c390	0.010361567
164	0xbc4ca257	-0.012489877
165	0xbc2c4878	-0.010515325
166	0x3cb38e98	0.02191858
167	0x3c9d806c	0.019226275
168	0x3c939d5f	0.018019376
169	0xbc92bf7f	-0.017913578
170	0x3c340273	0.010986912
171	0xbcb7bdd4	-0.022429384
172	0x3c6fc205	0.01463366
173	0x3c86742d	0.016412819
174	0xbcc4315b	-0.023949316
175	0xbb71f1b8	-0.0036917757
176	0x3ba8cec9	0.005151604
177	0xbc4e86f4	-0.0126054175
178	0x3c0f0215	0.008728524
179	0xbb914ec5	-0.004434439
180	0x3ac5f5fb	0.0015103215
181	0x3c6f72bb	0.014614756
182	0xbc4619df	-0.012091129
183	0xbc8b0522	-0.016970221
184	0xbc8a31dc	-0.016869478
185	0xbccdf11d	-0.025139386
186	0xbcbcfdef	-0.023070304
187	0xbc30ddbf	-0.010795056
188	0xbc155d2b	-0.009116451
189	0xbc983683	-0.01858068
190	0xbc88e7c9	-0.016712086
191	0x3cd636b6	0.026149135
192	0x3bb6881d	0.005570425
193	0xbd028a71	-0.03187031
194	0x3b77bb94	0.0037801014
195	0xbcff482e	-0.031162348
196	0xbaea1915	-0.0017860258
197	0xbc8a33af	-0.016870348
198	0xbcbb88e1	-0.022892417
199	0x3c3bf56c	0.011472087
200	0xbc8a8d13	-0.016912973
201	0xbc98e1e6	-0.018662404
202	0xbc97a007	-0.018508924
203	0x3b2ead0d	0.002665344
204	0xbce104dc	-0.027468137
205	0xbc853447	-0.01626028
206	0xbccbd1d9	-0.024880337
207	0xbcc2f1ef	-0.023797004
208	0xbbff30fc	-0.007787822
209	0xba950485	-0.0011369145
210	0xbcf97900	-0.030453205
211	0xbc9f1af0	-0.019422024
212	0xbce2adc8	-0.027670756
213	0xbc88b4b7	-0.016687734
214	0xba2925dc	-0.000645248
215	0xbce77db7	-0.028258188
216	0xbcbecdf3	-0.023291564
217	0xbc9e8752	-0.019351635
218	0xbbb21c6b	-0.0054355166
219	0x3aba1362	0.001419645
220	0xbc118e16	-0.008883974
221	0xbccd9be9	-0.025098758
222	0x3ba4f6f4	0.005034322
223	0xbc337675	-0.010953535
224	0xbba0d806	-0.0049085645
225	0x3b1bf221	0.0023795443
226	0x3bad7293	0.0052931993
227	0xbcb4718a	-0.022026796
228	0xbcb5a25b	-0.022172144
229	0xbb296ac3	-0.0025850988
230	0xbc9e26f6	-0.019305687
231	0x3acf20e8	0.0015802654
232	0xbbf7d2e6	-0.007562983
233	0xbae901bc	-0.0017777006
234	0x3c480142	0.012207331
235	0x3beaecb0	0.0071693286
236	0xbbe57bae	-0.007003269
237	0xbc5edeb2	-0.013602899
238	0xbccb81e1	-0.024842205
239	0xbc81f6ec	-0.015864812
240	0xbacdb873	-0.0015695229
241	0xbc19b3b8	-0.009381227
242	0xbca59859	-0.020214247
243	0xbcd5d1a1	-0.026100935
244	0xbaba2c4c	-0.0014203875
245	0xbce19e8e	-0.027541425
246	0x3b8882e6	0.004165995
247	0xbcc92fc5	-0.024558911
248	0xbc3edd01	-0.011649371
249	0x3c3ad886	0.011404162
250	0xbccfc25d	-0.025361234
251	0xbcf9f066	-0.030510139
252	0x3bdc2cef	0.0067192237
253	0xbcd52a33	-0.026021099
254	0xbb388d85	-0.0028160524
255	0xbc8da0e3	-0.01728863

encoder.fc_logvar.bias f4 [16]
0	0xbca84ed6	-0.020545404
1	0xbc3b4880	-0.01143086
2	0x3c2a0019	0.010376
3	0xbbd8187a	-0.0065947147
4	0xbcc7a4e4	-0.024370618
5	0xbc2df090	-0.010616437
6	0x3bd76729	0.006573577
7	0xbc7e3436	-0.015515378
8	0xbc22f534	-0.009946156
9	0x3b34938a	0.002755376
10	0xbd1a6de7	-0.037702467
11	0xba850647	-0.0010148966
12	0xbbc6b4b8	-0.006064024
13	0xbc8602c2	-0.016358737
14	0x3bb4d88b	0.005518978
15	0xbcf39fa7	-0.029739214

decoder.fc.weight f4 [2048, 16]
0	0xbe1e7688	-0.15474904
1	0x3d822137	0.063539915
2	0xbe80d9b4	-0.25166094
3	0x3d384b54	0.044993713
4	0xbe2071dc	-0.15668434
5	0xbe2636a4	-0.16231781
6	0xbda12a63	-0.07869413
7	0x3cc0a00e	0.02351382
8	0xbde684de	-0.11255811
9	0x3d992acf	0.07478868
10	0xbe84ed26	-0.2596218
11	0x3e225b56	0.15855154
12	0x3e06e9ee	0.13175175
13	0x3d719690	0.05898148
14	0x3dfbe51e	0.1229956
15	0x3dc44088	0.09582621
16	0xbe1557c3	-0.1458426
17	0x3debf4e4	0.115213186
18	0xbdfadb0f	-0.12248813
19	0x3ecbf9dd	0.39839068
20	0x3e027a07	0.12741862
21	0xbdb6d4bd	-0.08927295
22	0xbe646f0d	-0.22307988
23	0xbe34c9c3	-0.17655091
24	0xbd875ea8	-0.06609851
25	0x3d866369	0.0656193
26	0x3d1fc121	0.03900254
27	0x3e423928	0.18967116
28	0x3d7b025b	0.061281543
29	0xbdf68e05	-0.12038807
30	0xbe51425a	-0.20435467
31	0xbdc8a122	-0.09796359
32	0xbde785c6	-0.11304812
33	0xbdeff9c8	-0.11717564
34	0xbdaa099c	-0.08302614
35	0x3f0caade	0.5494822
36	0x3cb2aa7c	0.021809809
37	0xbdb2894c	-0.087175936
38	0x3ce4047c	0.02783417
39	0xbc24682c	-0.010034602
40	0xbdffbe98	-0.12487525
41	0xbd472c13	-0.048626017
42	0x3d9f0c46	0.07766013
43	0x3ba8f416	0.0051560504
44	0x3d59ad0d	0.05314355
45	0xbe0a1c08	-0.13487256
46	0xbe6aaab0	-0.22916675
47	0x3d03c87b	0.032173615
48	0x3c4f2b2c	0.01264457
49	0xbcc72a7c	-0.02431225
50	0xbda5286d	-0.08064351
51	0x3f499897	0.7874846
52	0xbd9716b6	-0.07377379
53	0x3e6320af	0.22180437
54	0x3e04abd5	0.12956174
55	0xbe5b8e8d	-0.21441098
56	0xbda38693	-0.07984652
57	0x3dcd0343	0.10010388
58	0xbc01f21d	-0.007931259
59	0x3d5f3983	0.054498207
60	0xbc1d9db2	-0.009620117
61	0xbdb9db1a	-0.090749934
62	0x3dc1c6d0	0.094617486
63	0xbd943216	-0.07236116
64	0xbd9556b3	-0.07291927
65	0xbddbc12c	-0.10730204
66	0x3c0a7e71	0.008452998
67	0x3f047225	0.5173667
68	0x3e007ee7	0.1254841
69	0xbdae4803	-0.08509829
70	0xbd9c983b	-0.07646223
71	0x3cf053ee	0.029336896
72	0x3cd13bb9	0.025541173
73	0xbde207fa	-0.11036678
74	0x3da0157e	0.07816599
75	0xbd956980	-0.07295513
76	0xbca7dec9	-0.020491974
77	0xbbb7cfd3	-0.0056094914
78	0xbe09bee2	-0.13451722
79	0xbc842a57	-0.01613347
80	0x3dc04b81	0.09389401
81	0x3d800d43	0.062525295
82	0xbdd1847d	-0.10230348
83	0x3f108cd9	0.56464916
84	0x3d711284	0.05885555
85	0x3dbe2c28	0.09285766
86	0x3dfcc193	0.12341609
87	0xbda03b91	-0.078238614
88	0xbe1d8c9b	-0.15385668
89	0xbdded680	-0.108807564
90	0x3e2c696e	0.16837093
91	0x3e21f622	0.15816548
92	0xbc89d32d	-0.01682433
93	0x3d8080cc	0.06274566
94	0x3e48ee84	0.19622236
95	0x3da59b85	0.080863036
96	0xbe502dde	-0.20329997
97	0xbd293303	-0.041308414
98	0x3dcc5293	0.09976687
99	0x3f195fe6	0.59911954
100	0x3d451ee4	0.048125163
101	0x3d91c625	0.07117871
102	0x3e2ceb85	0.16886719
103	0xbc928fef	-0.017890899
104	0x3e3101a7	0.17285787
105	0x3dbe083f	0.092789166
106	0x3d1fdfe1	0.039031867
107	0xbd44fab0	-0.048090637
108	0xbd06bffe	-0.03289794
109	0xbd7d2349	-0.06180123
110	0x3d233ff1	0.0398559
111	0x3e0267b1	0.12734868
112	0xbde52a70	-0.11189735
113	0x3d26b067	0.040695574
114	0xbe1b38a7	-0.1515833
115	0x3f05e96b	0.5230929
116	0xbe5ef3b3	-0.21772651
117	0xbe10f523	-0.14156012
118	0x3d9f21fb	0.07770153
119	0x3da63c6a	0.08116992
120	0xbd2aea76	-0.041727506
121	0x3e19704b	0.14984243
122	0x3e50b82e	0.20382759
123	0x3dca26c6	0.09870677
124	0x3d5c6067	0.053802874
125	0x3e06d7df	0.13168286
126	0xbd1e7866	-0.03868904
127	0xbb02ec90	-0.0019977428
128	0xbd509c8d	-0.05093055
129	0x3d096ed8	0.033552974
130	0x3d36a146	0.044587396
131	0x3eac7d23	0.33689222
132	0xbce404e0	-0.027834356
133	0xbc6b51ac	-0.014362734
134	0x3c5b1367	0.013371325
135	0x3da7d843	0.081955455
136	0x3dd7ea9c	0.10542795
137	0xbe423055	-0.1896375
138	0x3d7f1d28	0.062283665
139	0xbe63658e	-0.22206709
140	0xbdbc4d16	-0.091943905
141	0x3bb563e1	0.005535588
142	0x3d25aef5	0.040450055
143	0x3d91121f	0.070835344
144	0xbe197697	-0.14986645
145	0x3d64b9a7	0.055841114
146	0x3dff23c2	0.12457992
147	0x3ea23c5d	0.3168668
148	0xbe09960d	-0.13436146
149	0xbd89ac82	-0.067223564
150	0x3e71916d	0.23590632
151	0xbd9b050e	-0.075693235
152	0x3e4f7946	0.20261106
153	0x3dec9c5f	0.11553263
154	0x3e928074	0.28613627
155	0xbde477a2	-0.11155631
156	0xbdbafe6d	-0.09130559
157	0x3e2d31b4	0.16913491
158	0xbca4ec1d	-0.020132119
159	0x3d204a06	0.039133094
160	0xbdb617d3	-0.08891263
161	0xbdc43608	-0.09580618
162	0xbe118e82	-0.14214519
163	0x3ec59364	0.38589013
164	0xbe0422ed	-0.12903948
165	0xbe7c2c06	-0.24626169
166	0x3e3ec18d	0.18628521
167	0x3c11a78a	0.008890042
168	0xbdaddba2	-0.08489157
169	0x3deb3e4a	0.1148649
170	0x3e0819a8	0.13291037
171	0x3e33e2f7	0.17567049
172	0x3d855eac	0.06512198
173	0xbe519378	-0.20466411
174	0x3d47c3c1	0.04877067
175	0x3d61b48c	0.055103824
176	0xbe1e8d9b	-0.15483706
177	0x3d4c5faa	0.04989592
178	0x3c5a7a51	0.013334827
179	0x3e524a66	0.20536193
180	0xbe0e00a1	-0.13867427
181	0x3d840c3b	0.06447645
182	0x3e6f9af7	0.23398958
183	0x3d1f1f18	0.038848013
184	0xbdca7b1e	-0.09886764
185	0xbcb7773c	-0.022395723
186	0x3e26a882	0.16275218
187	0xbc2f0df5	-0.01068448
188	0x3df36deb	0.118861996
189	0x3e375297	0.179026
190	0x3e84f879	0.2597082
191	0xbd8146c1	-0.06312323
192	0xbdb9d925	-0.0907462
193	0xbe4f6cc1	-0.2025633
194	0xbda966da	-0.082715705
195	0x3d9faa99	0.07796211
196	0xbd531e76	-0.05154272
197	0xbd20dc7a	-0.039272763
198	0x3d20dbea	0.039272226
199	0x3d27561c	0.040853605
200	0x3da08e59	0.07839651
201	0xbc43f863	-0.0119610755
202	0x3e83d7dd	0.25750628
203	0x3e25260e	0.16127798
204	0x3ddba081	0.10723973
205	0xbc8387ec	-0.016056024
206	0x3e805c38	0.25070357
207	0x3e0d6892	0.13809422
208	0xbdb9bdc3	-0.09069397
209	0xbdddbe18	-0.10827273
210	0xbea20044	-0.31640828
211	0x3e40c92e	0.18826744
212	0x3e16c857	0.14724861
213	0xbdbfcd60	-0.09365344
214	0xbd909e4a	-0.07061441
215	0xbd96c9ef	-0.073627345
216	0x3d9c8d96	0.07644193
217	0xbd0e5acd	-0.034754563
218	0x3e75d884	0.24008375
219	0x3dfc4192	0.12317194
220	0xbd820321	-0.06348253
221	0xbe3cc04a	-0.18432727
222	0xbd87b895	-0.06627003
223	0x3daa0975	0.08302585
224	0xbdd6c903	-0.10487559
225	0x3db31a24	0.0874522
226	0x3da696fb	0.08134266
227	0x3eacf57b	0.33781037
228	0xbddafd95	-0.10692898
229	0xbdb3f98b	-0.08787831
230	0xbc644e89	-0.01393474
231	0x3e3d9eb7	0.18517576
232	0x3da3c380	0.07996273
233	0xbd81cdb0	-0.0633806
234	0x3e589e96	0.21154246
235	0x3de1087a	0.10987945
236	0x3d1a42af	0.03766125
237	0x3dcd46d3	0.10023274
238	0x3dcfe48d	0.101510145
239	0xbe14fb10	-0.14548898
240	0xbd82a1e6	-0.06378536
241	0xbe317f46	-0.17333707
242	0xbe5c872f	-0.21535943
243	0x3e6e04ec	0.23244065
244	0xbda4cd3f	-0.0804696
245	0x3d7ea350	0.062167466
246	0xbde68903	-0.11256602
247	0x3d55133d	0.0520203
248	0xbe60d20b	-0.21955125
249	0xbd99aab4	-0.07503262
250	0x3ed60b43	0.41805467
251	0xbda40ceb	-0.080102764
252	0xbe02ed52	-0.12785843
253	0x3da765c3	0.081737064
254	0x3df111f5	0.11771003
255	0x3dee7802	0.116439834

decoder.fc.bias f4 [2048]
0	0xbd00d627	-0.03145423
1	0x3e7f49f1	0.2493055
2	0x3cfd8b2a	0.030950148
3	0x3d32b754	0.043631867
4	0x3d3f2675	0.046667535
5	0x3e9115ec	0.28337038
6	0xbdaacd15	-0.083398975
7	0xbdca64bc	-0.09882495
8	0x3e4ad6d5	0.19808514
9	0xbd06812c	-0.03283803
10	0x3ced2b78	0.028951392
11	0x3d9710e6	0.0737627
12	0xbd9f2b41	-0.07771922
13	0x3d8399cc	0.06425819
14	0xbd23cffc	-0.03999327
15	0xbd3f07e8	-0.0466384
16	0xbe3a862c	-0.18215245
17	0xbe72e7f3	-0.23721294
18	0xbdfb31cd	-0.12265358
19	0xbe127230	-0.14301372
20	0xbe6a3938	-0.2287339
21	0xbd983421	-0.07431818
22	0xbe849fc0	-0.2590313
23	0xbed21051	-0.41028073
24	0xbd7bd271	-0.06147999
25	0xbe31dac4	-0.17368609
26	0xbe2995cf	-0.16561054
27	0xbeace0e7	-0.33765337
28	0xbead3627	-0.33830377
29	0xbea5c4f7	-0.32376835
30	0xbdf79bab	-0.12090238
31	0xbe4c19a1	-0.19931652
32	0xbd4b58d5	-0.049645264
33	0xbe8d9dea	-0.2765954
34	0xbe8670c4	-0.26257908
35	0xbcdb2412	-0.026750598
36	0xbe368d77	-0.17827402
37	0xbeb31cf0	-0.34983015
38	0xbe66491e	-0.2248883
39	0xbed43393	-0.41445598
40	0xbe93114f	-0.28724143
41	0xbeb50b3b	-0.3536013
42	0xbe82302b	-0.25427374
43	0xbf08a11d	-0.5337084
44	0xbe618780	-0.22024345
45	0xbed40b98	-0.41415095
46	0xbef15161	-0.471324
47	0xbf1134c4	-0.5672114
48	0xbeb5af76	-0.3548543
49	0xbec2aa81	-0.3802071
50	0xbec1abb0	-0.378263
51	0xbe7fee72	-0.24993303
52	0xbf14b4f1	-0.58088595
53	0xbe5bf5d4	-0.21480495
54	0xbf2258c7	-0.63416713
55	0xbe88fa85	-0.2675363
56	0xbf2484cb	-0.64265126
57	0xbf3f7966	-0.74794614
58	0xbe93b947	-0.28852293
59	0xbf1b9e89	-0.6078878
60	0xbe91fffd	-0.28515616
61	0xbf4a0b6c	-0.7892368
62	0xbef10155	-0.4707133
63	0xbf478162	-0.779318
64	0x3baf2419	0.0053448793
65	0x3e5a6848	0.21328843
66	0xbe4cce8f	-0.20000671
67	0x3e51d6ff	0.20492171
68	0xbe1f8027	-0.1557623
69	0x3e120f11	0.1426356
70	0xbe6e8706	-0.23293695
71	0x3de1e12a	0.11029275
72	0xbea3015c	-0.31836975
73	0x3c05125f	0.008122056
74	0x3df13921	0.117784746
75	0x3e1757b7	0.14779554
76	0xbc074540	-0.008256257
77	0xbda13cf1	-0.07872952
78	0x3d86226c	0.06549534
79	0xbc5dda52	-0.013540821
80	0x3e22f680	0.15914345
81	0x3e5e3212	0.21698788
82	0x3e18d152	0.149236
83	0x3d863db3	0.06554737
84	0xbe59e48d	-0.21278591
85	0x3dfc7240	0.12326479
86	0x3e3f3009	0.18670668
87	0x3d65bac5	0.05608632
88	0x3e6418e1	0.22275116
89	0xbd8839d4	-0.06651655
90	0xbbd7b75f	-0.006583139
91	0xbcdd7fd1	-0.027038487
92	0x3e8798ac	0.26483667
93	0x3e54ae4c	0.20769614
94	0xbd9dfff9	-0.077148385
95	0x3e81857b	0.2529715
96	0xbd1decaf	-0.038555797
97	0x3e356055	0.17712529
98	0x3e4f0e1c	0.20220226
99	0x3e1cfff2	0.1533201
100	0xbd90b10a	-0.070650175
101	0x3e0e92a3	0.13923125
102	0x3e8e57bf	0.2780132
103	0x3e6ef8c7	0.23337089
104	0xbb96557b	-0.004587827
105	0x3e2c5735	0.16830142
106	0xbdb7f72f	-0.089826934
107	0x3e4a7c9e	0.197741
108	0x3e6e37cc	0.23263472
109	0xbda1619d	-0.078799464
110	0xbd29c9aa	-0.041452087
111	0x3d3f86ee	0.04675954
112	0xbd675699	-0.05647907
113	0xbe099fef	-0.13439916
114	0x3e377f85	0.17919739
115	0xbd39389c	-0.045220003
116	0x3e40575b	0.18783323
117	0x3e35e718	0.17763937
118	0xbcabe1c8	-0.020981684
119	0x3e3903c2	0.1806784
120	0xbc6be6c0	-0.014398277
121	0x3dfe009e	0.124024615
122	0xbcf0a275	-0.02937434
123	0x3eb25a0a	0.3483432
124	0xbd98e5da	-0.07465716
125	0x3ed73cb0	0.42038488
126	0xbdb430f0	-0.087983966
127	0x3e4e3f22	0.20141271
128	0x3dea247d	0.11432741
129	0x3da6e910	0.08149922
130	0x3b008c79	0.0019614978
131	0x3b4a0bae	0.0030829716
132	0x3cf47d51	0.029844912
133	0xbe3d6986	-0.18497285
134	0x3d8b2b90	0.06795418
135	0xbe304702	-0.17214587
136	0x3dac4a6a	0.08412631
137	0x3a403387	0.0007331897
138	0x3d7801aa	0.060548462
139	0x3da1e032	0.0790409
140	0xbe84e14d	-0.2595314
141	0x3d0cdfeb	0.034393232
142	0xbe59b454	-0.21260196
143	0xbc7da772	-0.015481817
144	0x3e03f18a	0.12885109
145	0xbdf0d6b5	-0.11759702
146	0xbb4aab90	-0.0030925013
147	0xbe389638	-0.18026054
148	0xbe394a52	-0.18094757
149	0xbe634e33	-0.221978
150	0x3d7d4ff9	0.061843846
151	0xbe5b13cc	-0.2139427
152	0xbe04b788	-0.12960637
153	0x3cb5db79	0.02219938
154	0xbe077e8f	-0.13231872
155	0xbd8c66a1	-0.068555124
156	0x3e38dc11	0.18052699
157	0x3df94258	0.12170857
158	0x3dfe0b53	0.12404504
159	0xbc5582fa	-0.0130317155
160	0xbd28cef3	-0.041212987
161	0xbe3a6b09	-0.18204893
162	0x3e28d14b	0.16486089
163	0x3d96ae72	0.073574916
164	0xbe12a7d9	-0.14321841
165	0x3e5f343a	0.21797267
166	0x3dc4928e	0.095982656
167	0xbd7d1665	-0.061788935
168	0x3e3ce69f	0.1844735
169	0xbe695056	-0.22784552
170	0x3e6ecf11	0.23321177
171	0xbe22c6d0	-0.15896153
172	0x3bb80096	0.005615304
173	0xbe20d48a	-0.15706077
174	0xbd80e34e	-0.06293355
175	0x3dbec874	0.09315577
176	0x3cd4ae8c	0.025962137
177	0xbd1b0d2c	-0.03785436
178	0x3d531465	0.05153312
179	0xbe0e000a	-0.13867202
180	0xbdd0ade1	-0.10189415
181	0x3dc6e076	0.09710781
182	0x3c2de2c0	0.010613143
183	0xbd4a8cd4	-0.04945071
184	0xbe7b6590	-0.24550462
185	0xbdbe95a1	-0.09305883
186	0xbd0e4d05	-0.03474142
187	0xbe89ee39	-0.26939562
188	0xbe7d7b53	-0.24754076
189	0xbe92727a	-0.28602964
190	0xbe664ae2	-0.22489503
191	0xbeba6686	-0.36406344
192	0xbd8e197d	-0.06938455
193	0xbd616c8c	-0.05503516
194	0xbe1c8814	-0.15286285
195	0x3d90775d	0.07054017
196	0xbdb9d595	-0.09073941
197	0xbcee08de	-0.029056963
198	0x3e0c34ac	0.13691968
199	0x3daa2a87	0.08308893
200	0x3dd3b20d	0.10336695
201	0x3dd2caa4	0.10292557
202	0xbddc4026	-0.10754423
203	0xbdfd0641	-0.123547085
204	0xbe062e31	-0.13103558
205	0x3e36eacf	0.1786301
206	0x3daa0044	0.08300832
207	0xbd030d5d	-0.031995166
208	0xbdd2c817	-0.1029207
209	0x3de5239d	0.11188433
210	0xbcdbf683	-0.026850944
211	0x3e264c95	0.16240151
212	0x3baf5e03	0.0053517832
213	0xbde88d53	-0.113550805
214	0x3def8758	0.11695737
215	0xbe24b7d8	-0.16085756
216	0x3e503db2	0.20336035
217	0xbd3aea4a	-0.04563359
218	0xbdffe330	-0.124945045
219	0x3dcd58c4	0.10026696
220	0x3d001feb	0.03128044
221	0xbdae1a49	-0.08501107
222	0x3e41f5dd	0.18941446
223	0x3e05bf6a	0.130613
224	0xbdef2deb	-0.1167868
225	0x3dc22dad	0.09481368
226	0x3e5e341a	0.21699563
227	0xbe1b99c2	-0.15195373
228	0xbdaeb5f4	-0.085307986
229	0xbe2b40ce	-0.1672394
230	0x3dae4d65	0.085108556
231	0xbcd1af17	-0.025596185
232	0x3cc2d4ad	0.023783052
233	0xbc8489e0	-0.016179025
234	0x3e63f4b6	0.22261319
235	0x3a8e376f	0.0010850261
236	0xbe08e2a9	-0.13367714
237	0x3e622c1f	0.22087143
238	0x3e2acd81	0.16679956
239	0xbe04fe79	-0.12987699
240	0x3e8829b6	0.26594323
241	0x3e669772	0.2251871
242	0x3e8721e5	0.26393047
243	0x3e3b5762	0.18295053
244	0x3e14024a	0.14453998
245	0x3ebc042f	0.36721942
246	0x3ea8d299	0.32973173
247	0xbe62eb95	-0.2216018
248	0x3eb92ebb	0.36168465
249	0x3d1930f3	0.037400197
250	0x3e6ae062	0.22937158
251	0x3e738b29	0.23783554
252	0xbdff266e	-0.12458502
253	0x3b931504	0.0044885892
254	0x3e0b7f2b	0.1362273
255	0xbef2938a	-0.47378188

decoder.conv2.weight f4 [32, 16, 4]
0	0x3dae7f06	0.085203215
1	0x3d8b7238	0.06808895
2	0xbc0734a7	-0.008252299
3	0x3cdff60b	0.027339002
4	0xbdedc2ad	-0.11609397
5	0xbe277776	-0.16354164
6	0xbd450851	-0.048103634
7	0xbe4789f9	-0.19486226
8	0x3e8dab2d	0.2766966
9	0x3e42cfb4	0.19024545
10	0x3ebf71c1	0.37391475
11	0x3e0e81b6	0.13916668
12	0x39c8bcd8	0.00038287672
13	0xbcdd69f3	-0.02702806
14	0xbd07657b	-0.033055764
15	0xb9645614	-0.00021775841
16	0xbc80d261	-0.015725316
17	0x3b98d73c	0.00466433
18	0xbd837bfa	-0.06420131
19	0x3c698084	0.014251832
20	0xbe19e70f	-0.15029548
21	0xbdc82698	-0.09772986
22	0xbe8d1898	-0.27557826
23	0xbe201f60	-0.15636969
24	0xbd69c2e3	-0.057070624
25	0xbd883da4	-0.06652382
26	0xbdddf8e1	-0.108384855
27	0xbe281d37	-0.16417395
28	0x3d3cb07c	0.046066746
29	0xbd2ef527	-0.042714264
30	0xbd175872	-0.036949582
31	0xbd9a9cf2	-0.07549466
32	0x3d5d90d4	0.054093197
33	0x3df7cf0f	0.1210004
34	0x3e0e1abc	0.13877386
35	0x3e165061	0.146791
36	0x3e1a2bab	0.1505572
37	0x3ebbb7a7	0.36663553
38	0x3e4e81d0	0.20166707
39	0x3eebdd20	0.46067142
40	0xbd96ec05	-0.07369236
41	0xbbd4eba1	-0.0064978157
42	0xbe53bec3	-0.20678239
43	0x3dbd6557	0.09247845
44	0x3e97eb8c	0.29671896
45	0x3e93a656	0.28837842
46	0x3e9fcbfb	0.31210312
47	0x3eb3311e	0.3499841
48	0xbd86e7f4	-0.0658721
49	0xbdbf9135	-0.09353868
50	0xbdecd0c3	-0.11563256
51	0xbe0ad5b4	-0.13558084
52	0xbe3a12fc	-0.18171304
53	0xbe1e5484	-0.15461928
54	0xbe63402f	-0.22192453
55	0xbe6f2dae	-0.23357269
56	0x3d3bebba	0.045879103
57	0x3d9bc63b	0.07606169
58	0x3cd85f35	0.026412586
59	0x3d62d07b	0.055374604
60	0xbe3d4519	-0.1848339
61	0xbe3a6a6a	-0.18204656
62	0xbe9472b4	-0.28993762
63	0xbe8a8d3a	-0.27060872
64	0xbc168ca7	-0.009188808
65	0xb9e8c679	-0.00044398362
66	0xbd7a1586	-0.061055683
67	0xbcf8f2a2	-0.030389134
68	0x3d99ea64	0.075154096
69	0x3d1d0750	0.038337052
70	0x3e67f88a	0.22653404
71	0xba809644	-0.0009810408
72	0x3d0751eb	0.033037107
73	0xbc2bef36	-0.010494044
74	0xbcaba009	-0.020950334
75	0xbd829056	-0.06375186
76	0x3d3d8350	0.046267807
77	0xbd05c657	-0.032659855
78	0x3d5d4bad	0.05402725
79	0x3d6cc87f	0.057808395
80	0xbbac5a9b	-0.0052598245
81	0xbc073396	-0.008252045
82	0x3d70a3e1	0.058750037
83	0x3d5ba92e	0.05362814
84	0x3b44689d	0.002996958
85	0x3d8ebd0e	0.06969653
86	0x3cb7015d	0.022339517
87	0x3daacf3d	0.08340309
88	0x3d7899cb	0.060693543
89	0x3db24036	0.087036535
90	0x3d675bee	0.056484155
91	0x3d57fd10	0.052731574
92	0x3da25471	0.07926262
93	0x3b448be4	0.0029990608
94	0xbd4699fb	-0.04848669
95	0x3da7a430	0.08185613
96	0x3c2bea99	0.010492944
97	0xbd2ca4de	-0.042149417
98	0x3d5d7a25	0.054071564
99	0x3c8eb986	0.017422449
100	0xbd9abdd5	-0.07555739
101	0x3d222f07	0.03959563
102	0xbdb165d4	-0.08662
103	0xbde6685d	-0.112503745
104	0x3bef2180	0.0072976947
105	0x3d66e4cd	0.056370545
106	0x3d84112c	0.06448588
107	0xbc875abf	-0.016522763
108	0xbdc62d1a	-0.09676571
109	0xbda1a882	-0.078934684
110	0xbdad52e3	-0.08463075
111	0xbdefe5b8	-0.11713737
112	0xbd42facd	-0.047602464
113	0xba52b06d	-0.0008037154
114	0xbc57eba7	-0.0131787425
115	0x3c438031	0.011932419
116	0x3d93bd6b	0.07213863
117	0x3ddb1937	0.10698169
118	0x3cc2a3e3	0.023759788
119	0x3d3fd9c0	0.046838522
120	0xbbb81502	-0.0056177387
121	0xbc176778	-0.0092409775
122	0x3c3245c6	0.010880893
123	0x3d640599	0.0556694
124	0x3cfd7307	0.030938638
125	0x3e0d4c64	0.13798672
126	0x3ca80185	0.020508537
127	0x3e013197	0.12616573
128	0x3d28abab	0.04117934
129	0x3d7c40d0	0.061585248
130	0x3ca21b1e	0.019788321
131	0x3ca04baa	0.01956733
132	0x390a7909	0.00013205795
133	0x3cf0dbc0	0.02940166
134	0x3c3d8d03	0.011569264
135	0xbdf4d8c1	-0.11955405
136	0xbdbda93b	-0.09260794
137	0xbd33a9b1	-0.043863002
138	0xbde8250e	-0.113351926
139	0xbc8c12ad	-0.017098749
140	0x3d5de95f	0.05417764
141	0xbccbdfeb	-0.024887046
142	0xbc4d208b	-0.012519966
143	0x3d6b00b6	0.057373725
144	0xbcc525da	-0.0240659
145	0xbaf3b9ff	-0.001859486
146	0xbd34179a	-0.04396782
147	0x3c84ed09	0.016226308
148	0xbd7a60ae	-0.061127357
149	0xbd49534d	-0.049151707
150	0xbdbec6ad	-0.09315238
151	0xbcfbd29d	-0.030740077
152	0x3c46f4e5	0.012143348
153	0xbcfcc1aa	-0.030854065
154	0xbd822d30	-0.06356275
155	0xbd893bd2	-0.06700863
156	0x3c821b87	0.015882267
157	0xbdd24f5e	-0.10269044
158	0xbd1dd494	-0.03853281
159	0x3b85b05d	0.004079862
160	0xbbccf4ed	-0.0062547834
161	0xbc16c08c	-0.00920118
162	0x3d258ad4	0.0404156
163	0x3d6fbd78	0.0585303
164	0xbc0a2ce0	-0.008433551
165	0xbe115521	-0.1419263
166	0xbd2b7ff3	-0.04187007
167	0xbe2aa880	-0.1666584
168	0xbd4377ad	-0.047721554
169	0x3d6782d5	0.056521256
170	0xbd1fb0bf	-0.038986918
171	0x3c7cfd9f	0.015441327
172	0xbdcd4386	-0.10022645
173	0xbddb97c9	-0.1072231
174	0xbd433e2e	-0.04766672
175	0xbd925e98	-0.071469486
176	0xbd825db9	-0.063655324
177	0xbc815f77	-0.015792591
178	0x3c4b1f7b	0.012397642
179	0xbd25b963	-0.04046
180	0xbbdcb98f	-0.0067359875
181	0x3d759e24	0.059965268
182	0xbdabc791	-0.08387674
183	0xbd211b95	-0.039332945
184	0x3af4a46f	0.0018664728
185	0xbd46766c	-0.04845278
186	0xbd5f52e1	-0.0545224
187	0xbd5ba9cc	-0.053628728
188	0xbdaf2be9	-0.08553297
189	0xbc23718a	-0.0099758
190	0xbd294b5c	-0.041331634
191	0xba1a37ba	-0.00058829377
192	0xbbe0bb70	-0.006858282
193	0xbd9757c3	-0.07389786
194	0x3cc35bac	0.023847423
195	0x3d1d449d	0.038395513
196	0x3dbebd00	0.09313393
197	0x3cc23640	0.023707509
198	0xbc48c814	-0.012254734
199	0xbc409a12	-0.011755483
200	0xbda06dec	-0.07833466
201	0xbd04d2a9	-0.032427464
202	0xbd25eb36	-0.040507518
203	0xbd7d0ab0	-0.06177777
204	0x3ce6e787	0.028186573
205	0x3b81f8f0	0.0039664432
206	0x3cda1a4a	0.026623864
207	0x3d849a85	0.06474785
208	0xbc844a9e	-0.016148861
209	0x3b855524	0.0040689874
210	0xbd7aabc1	-0.061198954
211	0xbd88b03b	-0.06674238
212	0x3d352596	0.044225298
213	0x3dc8e4c4	0.098092586
214	0xbd416f4e	-0.04722529
215	0x3d603ccb	0.054745477
216	0xbcbc6220	-0.022996008
217	0x3d1e5862	0.038658507
218	0x3c2c6f13	0.010524529
219	0x3d79ca73	0.060984086
220	0xbcb340b1	-0.021881433
221	0x3d14160d	0.03615384
222	0x3bfadc44	0.0076556522
223	0x3d1292eb	0.035784643
224	0x3c968bd7	0.018377228
225	0x3c77a296	0.015114447
226	0xbcb47f9c	-0.022033505
227	0xbc8853a6	-0.01664145
228	0xbd0cf79e	-0.034415834
229	0xbe0ebc19	-0.13938941
230	0xbd4864c2	-0.048924215
231	0xbdabefce	-0.083953485
232	0x3d70b1c5	0.058763284
233	0xbc885e52	-0.016646538
234	0xbca3b8d5	-0.019985596
235	0xbccc0d52	-0.024908695
236	0xbd6f0604	-0.058355346
237	0xbca9d94c	-0.020733498
238	0xbd918de3	-0.07107141
239	0xbd1f3494	-0.0388685
240	0xbd0a1917	-0.033715334
241	0x3d181725	0.037131447
242	0xbc129a99	-0.008947992
243	0xbdae7339	-0.08518071
244	0x39e0bbd0	0.0004286454
245	0xbc87e0db	-0.016586712
246	0x3b033028	0.0020017717
247	0x3e12e745	0.14346035
248	0xbc975940	-0.018475175
249	0xbc6c775c	-0.014432754
250	0xbc76bc41	-0.015059532
251	0xbd199707	-0.037497547
252	0x3c13f7db	0.009031261
253	0x3da90806	0.082534835
254	0x3cab801e	0.020935114
255	0x3d881ab4	0.06645718

decoder.conv2.bias f4 [16]
0	0x3d51f7b5	0.051261622
1	0x3d6a7e45	0.057249326
2	0xbdc81a22	-0.097706094
3	0x3c525cf8	0.012839548
4	0xbde12cb7	-0.10994857
5	0x3e456349	0.19276156
6	0xbd7aa05c	-0.061188087
7	0xbdc3a403	-0.09552767
8	0x3d81152f	0.063028686
9	0xbd8747be	-0.066054806
10	0xbdaeba81	-0.085316665
11	0x3c865e58	0.016402408
12	0x3da56ba3	0.08077171
13	0x3ded2c26	0.11580686
14	0xbe3e5aa5	-0.18589266
15	0x3e614e31	0.22002484

decoder.conv1.weight f4 [16, 1, 4]
0	0x3ecdfd16	0.40232152
1	0x3e695837	0.22787558
2	0x3ed8d4df	0.42349908
3	0xbe88c3d0	-0.26711893
4	0x3debf9d5	0.11522261
5	0xbe0cde97	-0.13756786
6	0xbe1ce1e2	-0.15320542
7	0xbdb36523	-0.08759525
8	0x3e2edb62	0.17075875
9	0x3f106087	0.5639729
10	0x3eea855c	0.4580487
11	0xbe29d661	-0.16585685
12	0x3ea5e30f	0.32399794
13	0xbca467b4	-0.02006898
14	0x3daa6de2	0.0832174
15	0xbe4e154b	-0.2012531
16	0xbe76b331	-0.24091794
17	0x3eb65fb0	0.3561988
18	0xbeaf838b	-0.34280047
19	0xbe89d902	-0.26923376
20	0xbec10535	-0.37699285
21	0xbd93a91a	-0.07209988
22	0xbf09f7cc	-0.53893733
23	0xbf031e14	-0.5121777
24	0xbca3529d	-0.019936854
25	0xbe7e256e	-0.24818966
26	0xbd38df41	-0.045134787
27	0x3de0bd57	0.10973614
28	0x3dacc060	0.0843513
29	0xbed6f04c	-0.41980207
30	0x3e35ea68	0.177652
31	0xbe16d4b5	-0.14729579
32	0x34edaa60	4.4268654e-07
33	0x3eec1190	0.4610715
34	0x3d7b0b44	0.06129004
35	0xbe3e7960	-0.18600988
36	0x3d0c7aa0	0.03429663
37	0x3f04a3d9	0.5181251
38	0x3e5e8752	0.21731308
39	0x3dbad0c9	0.09121854
40	0xbdb8add9	-0.09017534
41	0xbe434c62	-0.19072106
42	0xbe7b8320	-0.24561739
43	0x3e7a014f	0.24414562
44	0x3e59c545	0.21266659
45	0x3dbfa64d	0.09357891
46	0x3e95055f	0.2910566
47	0x3e76d308	0.2410394
48	0x3edb4284	0.42824185
49	0x3e3cfe94	0.18456489
50	0xbe9d65d6	-0.30741757
51	0xbef1d518	-0.4723289
52	0xbed06623	-0.40702924
53	0xbe4a9b5f	-0.19785832
54	0xbe6ac647	-0.229272
55	0xbea4c69f	-0.32182786
56	0xbe1d2553	-0.1534627
57	0xbe58bf7d	-0.21166797
58	0x3ebd391e	0.3695764
59	0x3efcf126	0.49402732
60	0xbd3e7e8b	-0.0465074
61	0xbefad489	-0.48990276
62	0xbeee1530	-0.4650054
63	0xbda404b4	-0.080087095
