wavae_notebooks/test_model.onnx (onnx, 170721 bytes, 5 tensors)

fc.weight f4 [2048, 16]
0.0038655477 -0.08700979 0.08794129 0.08050429 0.041095555 -0.031180268 -0.083308615 -0.03392252
0.14411625 -0.043709826 0.18288082 0.18785311 0.20056112 -0.043418463 0.20042104 0.018946787
-0.010514233 0.14389695 -0.20120388 -0.028423999 -0.23903817 0.08873673 -0.12540181 -0.15513213
-0.12997027 -0.0552098 -0.042996105 -0.21922502 -0.16920067 0.20659587 0.13565913 0.16057962
0.1297593 0.015782805 0.18388602 -0.006277006 0.12627918 -0.095336795 -0.21610212 -0.03638025
-0.02077399 0.07816154 -0.027189802 -0.19051798 0.18419984 0.0972122 -0.068162315 0.22641355
0.08549923 0.16819862 0.123106465 0.043859933 -0.026359413 -0.055759177 -0.06406126 0.20004326
0.061768726 0.11681681 -0.17997786 0.15145482 -0.1666761 -0.19179969 0.02803156 -0.13539428
0.044827007 0.2000685 -0.08219473 0.17207609 0.021336764 0.18802187 -0.032953676 0.0416986
0.054613616 0.15412371 0.15123606 -0.079980746 -0.2260827 0.13152102 0.2149375 -0.032799136
0.046915602 0.19284487 0.0334575 -0.14081833 -0.093368284 -0.09629446 -0.22117032 -0.17563686
0.20902401 -0.016647235 -0.18988371 -0.05199615 0.15250644 0.09086216 0.22807513 0.037307233
-0.21937253 -0.07480433 -0.072737426 -0.120516665 -0.06726297 -0.19977975 0.02370521 0.015814552
0.055531967 -0.007668592 -0.045025695 0.058159348 0.16487157 -0.060950078 -0.13902983 -0.16206037
0.21392615 0.014697389 0.07458272 -0.124101 -0.03197097 -0.13704008 0.16930248 -0.16546232
-0.006038414 -0.003158494 -0.20681614 0.06960634 0.040874224 -0.2078507 -0.006446842 0.056614567
0.12434313 0.053500824 0.010376432 -0.0329962 -0.12780346 0.10474863 -0.041932996 0.18643054
-0.16113117 -0.039581396 -0.16120085 -0.029309316 -0.033746656 0.093522415 -0.092887685 0.024394216
0.094707645 -0.20826489 -0.2173199 0.039611056 -0.1063696 -0.051694863 0.12066414 -0.20634332
0.03991803 -0.0669222 0.08038096 0.13721257 -0.060698222 0.14345644 -0.03424323 0.105975695
0.12481055 0.18636082 0.19396965 -0.07179645 -0.075269215 0.06839407 0.07576314 -0.13002078
-0.09966095 0.19980673 -0.12574083 -0.02075579 -0.14466177 -0.09278065 0.054162797 0.23525581
-0.18851107 0.1847195 0.18828794 0.05649849 -0.13759854 0.08145386 0.19784936 0.050694462
0.17744166 0.052592494 0.09393316 -0.058580864 -0.0682934 -0.13818534 -0.080052145 -0.10574512
-0.11528961 0.117814265 0.009639574 -0.21094435 -0.15217136 0.105380125 0.25411582 -0.041698307
-0.1068659 -0.17547493 -0.017341714 0.008566669 0.14115438 -0.018995123 -0.0068603987 0.004216164
-0.020197164 -0.22966899 -0.034412462 -0.19138 0.15987615 -0.06708646 -0.20453133 0.015027124
0.17713627 -0.044024732 0.112773545 0.14391242 -0.16724962 0.046648063 0.07391627 0.01761564
0.17301728 -0.093267724 -0.11237235 -0.110972464 0.13951874 0.114582166 0.19109434 -0.0833084
-0.17631887 0.10519485 0.07738285 0.23679611 -0.121740796 0.035322748 0.20012802 0.003985545
-0.11873986 0.17970333 0.035431396 0.15510283 0.10517447 -0.050657067 -0.10042369 -0.091087535
-0.050982647 0.184525 0.20239264 0.04839191 0.1990178 0.15145914 -0.18321903 0.06525784
00000000: 2155 7d3b 3032 b2bd 901a b43d 6fdf a43d
00000010: d053 283d c36d ffbc b59d aabd 57f2 0abd
00000020: 3693 133e 1309 33bd 1c45 3b3e 915c 403e
00000030: e55f 4d3e 8fd7 31bd 2c3b 4d3e 4b36 9b3c
00000040: e443 2cbc b959 133e 6408 4ebe 72d9 e8bc
00000050: 6cc6 74be 9abb b53d 5569 00be f5da 1ebe
00000060: ed16 05be ac23 62bd af1c 30bd 867c 60be
00000070: f142 2dbe de8d 533e 3aea 0a3e fc6e 243e
00000080: 9fdf 043e f14a 813c 9e4c 3c3e 58af cdbb
00000090: 544f 013e f03f c3bd e049 5dbe 7503 15bd
000000a0: 372e aabc 2813 a03d 26bd debc 2517 43be
000000b0: e29e 3c3e 3117 c73d af98 8bbd f4d8 673e
000000c0: 381a af3d 423c 2c3e 3e1f fc3d 79a6 333d
000000d0: b2ef d7bc bc63 64bd 8d32 83bd 24d8 4c3e
000000e0: 3401 7d3d a73d ef3d 1e4c 38be f916 1b3e
000000f0: 24ad 2abe 2367 44be 71a2 e53c cca4 0abe
00000100: 869c 373d c2de 4c3e b655 a8bd b734 303e
00000110: 70ca ae3c ce88 403e 6ffa 06bd 27cc 2a3d
00000120: 87b2 5f3d 9bd2 1d3e a0dd 1a3e f2cc a3bd
00000130: 3982 67be 72ad 063e 9318 5c3e 6358 06bd
00000140: 932a 403d 2079 453e bb0a 093d ae32 10be
00000150: df37 bfbd 0836 c5bd 797a 62be 26da 33be
00000160: 640a 563e c85f 88bc e070 42be eaf9 54bd
00000170: a62a 1c3e f115 ba3d 878c 693e 78cf 183d
00000180: 31a3 60be 0333 99bd 5cf7 94bd 71d1 f6bd
00000190: 2bc1 89bd 1093 4cbe 6e31 c23c 858d 813c
000001a0: 7d75 633d d048 fbbb dd6c 38bd 7f38 6e3d
000001b0: 18d4 283e caa6 79bd d65d 0ebe 27f3 25be
000001c0: 750f 5b3e 51cd 703c d3be 983d aa28 febd
000001d0: fef3 02bd 3c54 0cbe a15d 2d3e f46e 29be
000001e0: e3dd c5bb bcfe 4ebb 9cc7 53be c58d 8e3d
000001f0: bb6b 273d d0d6 54be 0840 d3bb ade4 673d
00000200: 9ca7 fe3d ae23 5b3d e901 2a3c 0627 07bd
00000210: e9de 02be 7386 d63d efc1 2bbd a6e7 3e3e
00000220: 92ff 24be 1a20 22bd d611 25be 171a f0bc
00000230: ef39 0abd ae88 bf3d e63b bebd 61d6 c73c
00000240: 15f6 c13d 6443 55be 1c89 5ebe 343f 223d
00000250: 4ed8 d9bd febd 53bd c31e f73d aa4b 53be
00000260: 1781 233d 820e 89bd c69e a43d 7481 0c3e
00000270: b39e 78bd 3fe6 123e a142 0cbd c909 d93d
00000280: ac9c ff3d 5fd5 3e3e fb9f 463e 040a 93bd
00000290: bf26 9abd 3112 8c3d b529 9b3d 2b24 05be
000002a0: 0a1b ccbd 239a 4c3e 34c2 00be 0c08 aabc
000002b0: 3722 14be c803 bebd cfd9 5d3d e6e6 703e
000002c0: 0c09 41be 1c27 3d3e 8ece 403e f66a 673d
000002d0: a2e6 0cbe 48d1 a63d 0699 4a3e ffa4 4f3d
000002e0: 44b3 353e 3a6b 573d 0760 c03d 7df2 6fbd
000002f0: 69dd 8bbd 7580 0dbe 61f2 a3bd e690 d8bd
00000300: f61c ecbd 9b48 f13d 4eef 1d3c cc01 58be
00000310: cfd2 1bbe 89d1 d73d 781b 823e d8cb 2abd
00000320: 82dc dabd b3af 33be 3610 8ebc 375b 0c3c
00000330: c68a 103e a99b 9bbc 32cd e0bb bf27 8a3b
00000340: 8674 a5bc 592e 6bbe 15f4 0cbd 1ef9 43be
00000350: 93b6 233e a064 89bd a970 51be 5434 763c
00000360: 3663 353e 4753 34bd d1f5 e63d c75d 133e
00000370: 7c43 2bbe 0a12 3f3d 6a61 973d ad4e 903c
00000380: 712b 313e 2603 bfbd 7a23 e6bd 8845 e3bd
00000390: 00de 0e3e 0eaa ea3d 3cae 433e 989d aabd
000003a0: ef8c 34be 6670 d73d e67a 9e3d ae7a 723e
000003b0: 3d53 f9bd 96ae 103d 5cee 4c3e 2d99 823b
000003c0: e22d f3bd 2604 383e 8320 113d 47d3 1e3e
000003d0: b665 d73d c97d 4fbd f0aa cdbd 1a8c babd
000003e0: 2ed3 50bd 1ff4 3c3e 0440 4f3e 9836 463d
000003f0: 52cb 4b3e 1b18 1b3e c59d 3bbe e7a5 853d

fc.bias f4 [2048]
-0.13563785 0.07107893 -0.019272497 0.04071665 -0.21894138 0.052602164 0.024402665 -0.18550351
-0.035718713 -0.097757 0.11956721 0.032722306 0.09516203 -0.08362699 -0.23396611 -0.22652395
-0.010946686 -0.034674644 0.2166949 -0.13892847 -0.109537505 -0.079770185 -0.12223983 -0.062575914
-0.21592619 -0.21747194 0.030088328 -0.09392339 0.08770701 0.14638579 -0.01159303 -0.040793207
0.08064009 0.057712976 -0.13693915 -0.11091278 -0.1472058 -0.01430669 0.08519229 -0.021322992
0.09002528 -0.15099226 -0.15855588 0.17897461 0.205344 -0.0006000262 0.09278936 -0.080950424
0.13596252 -0.21506329 0.029071933 -0.14387868 -0.043765597 -0.18347745 0.009183043 -0.2664242
-0.1519668 0.25117242 0.013624191 0.19668321 0.12111019 -0.03409558 -0.010114891 0.1573534
0.1580723 -0.1673477 -0.13198677 0.08558534 0.09568359 0.0014431756 0.16859762 -0.15963311
-0.071215436 0.040268872 -0.1738789 -0.051256504 0.0177083 0.032037582 -0.13701236 -0.08230691
0.11191704 -0.07984822 -0.16424847 -0.2154388 -0.13138859 0.18248971 0.13854742 -0.15308358
-0.22947307 0.016139831 -0.14477375 -0.104028694 -0.11427074 0.15644109 -0.09319269 -0.032735493
0.006061984 -0.14549977 0.039937675 0.018589014 -0.07906787 -0.1659907 0.23257348 -0.16197291
0.057373393 -0.13280885 -0.038706504 -0.09448684 -0.12952955 0.09282047 0.07395016 0.012261413
0.14405124 0.094804995 0.035563253 0.08727063 -0.15995058 -0.08253697 0.05004035 -0.17629324
0.0025806506 0.0020129767 0.0047193663 -0.12217209 0.23752661 0.037765674 0.165801 -0.1490294
-0.07093913 0.3576275 0.17932467 -0.07768633 0.058498215 0.21067043 0.21616842 0.26716235
-0.077795304 0.15230854 0.21935704 0.059058532 0.026422508 0.11469981 0.13464887 0.2537576
0.25588304 0.17700298 0.30100554 -0.12579843 -0.0050927647 -0.027705569 0.14629418 -0.055405714
0.04154249 0.061552554 0.04766033 0.25830615 0.26037106 -0.0633454 0.03356156 -0.018705066
0.33434466 0.26646927 0.20604904 0.29997498 -0.030259918 0.2962684 0.10394656 0.08053345
0.11361992 0.14703268 0.004691128 0.055453878 -0.044667672 0.09060851 0.23510297 0.3328494
0.054951034 0.2669852 0.23491372 0.09825423 0.23052719 -0.048315737 -0.028552752 -0.06523711
0.23046075 -0.09687604 0.2363776 0.317954 0.29887414 0.038621034 0.24610806 0.11048406
-0.14430939 0.11048356 0.07004595 0.0026470362 -0.031655353 0.10699914 0.21515 -0.069553845
0.16290738 0.08632687 0.15094838 0.14404398 0.20676737 0.043375645 0.18232194 0.1492374
0.04339218 0.056868736 -0.047246166 0.18702593 -0.021861259 -0.09689941 0.15937722 0.040680137
-0.05389172 0.18721661 0.10057801 0.038292523 -0.2412458 -0.04815834 -0.03014786 -0.048790567
0.12341452 0.25453323 -0.024812426 0.12556103 0.21275148 0.044934977 0.10217959 0.060785104
0.18024206 0.21955341 0.03850328 -0.24388191 0.09008514 0.22681457 -0.1973024 -0.10252884
0.00081071054 -0.088233724 0.03850562 0.0807379 -0.1628637 0.110194124 0.1616156 0.20554876
-0.17383777 0.072895214 0.13817556 -0.0979194 0.14645562 0.1700904 0.0095487945 0.05357875
00000000: a6e4 0abe d491 913d 5be1 9dbc 81c6 263d
00000010: 2b32 60be 5e75 573d 19e8 c73c a2f4 3dbe
00000020: c94d 12bd d234 c8bd a7df f43d d307 063d
00000030: 4fe4 c23d a144 abbd d094 6fbe e5f5 67be
00000040: bb59 33bc 0007 0ebd 45e5 5d3e 4443 0ebe
00000050: 3355 e0bd 8d5e a3bd e058 fabd cd27 80bd
00000060: c11b 5dbe f7b0 5ebe cc7b f63c e85a c0bd
00000070: bc9f b33d 28e6 153e b1f0 3dbc c716 27bd
00000080: a226 a53d 7164 6c3d c739 0cbe 3d26 e3bd
00000090: 1ebd 16be 9b66 6abc 4c79 ae3d 8ead aebc
000000a0: 2d5f b83d b79d 1abe 795c 22be 1f45 373e
000000b0: b345 523e 144b 1dba 5908 be3d 56c9 a5bd
000000c0: c239 0b3e 8d39 5cbe 4328 ee3c ef54 13be
000000d0: 8e43 33bd 83e1 3bbe 7974 163c c168 88be
000000e0: 2f9d 1bbe ac99 803e 0038 5f3c 5367 493e
000000f0: 9f08 f83d cfa7 0bbd eeb8 25bc 4021 213e
00000100: b4dd 213e 325d 2bbe 8a27 07be 5e47 af3d
00000110: c2f5 c33d f028 bd3a dba4 2c3e dd76 23be
00000120: 66d9 91bd f9f0 243d 4f0d 32be 57f2 51bd
00000130: ff10 913c d739 033d f84c 0cbe 8690 a8bd
00000140: c334 e53d 7787 a3bd c030 28be fd9b 5cbe
00000150: bb8a 06be 95de 3a3e 60df 0d3e f1c1 1cbe
00000160: fdfa 6abe ae37 843c 923f 14be ff0c d5bd
00000170: c706 eabd 1832 203e cfdb bebd a715 06bd
00000180: 9ca3 c63b e4fd 14be b095 233d fd47 983c
00000190: 56ee a1bd 77f9 29be be27 6e3e 3adc 25be
000001a0: 5d00 6b3d 0bff 07be b68a 1ebd 5182 c1bd
000001b0: 65a3 04be a918 be3d 2e73 973d 18e4 483c
000001c0: 2b82 133e 1f29 c23d c6aa 113d f2ba b23d
000001d0: 16ca 23be 2509 a9bd 1cf7 4c3d 3786 34be
000001e0: 2220 293b 25ec 033b eaa4 9a3b 5c35 fabd
000001f0: 2d3a 733e 2eb0 1a3d bdc7 293e 2a9b 18be
00000200: 8948 91bd f41a b73e e3a0 373e 031a 9fbd
00000210: d39b 6f3d fdb9 573e 415b 5d3e 81c9 883e
00000220: 2553 9fbd c5f6 1b3e 229f 603e 5ce7 713d
00000230: 0474 d83c bce7 ea3d 65e1 093e 84ec 813e
00000240: 1a03 833e 4540 353e 661d 9a3e 4ed1 00be
00000250: 35e1 a6bb caf6 e2bc 24ce 153e 1af1 62bd
00000260: 7528 2a3d 881e 7c3d 7a37 433d b440 843e
00000270: 5b4f 853e 3cbb 81bd d977 093d 5e3b 99bc
00000280: 392f ab3e a96e 883e 85fe 523e 5296 993e
00000290: a6e3 f7bc 7eb0 973e efe1 d43d b9ee a43d
000002a0: 90b1 e83d bc8f 163e 09b8 993b 9b23 633d
000002b0: 73f5 36bd f490 b93d d5be 703e 3d6b aa3e
000002c0: 5614 613d 49b2 883e 398d 703e 8439 c93d
000002d0: 520f 6c3e b9e6 45bd 76e7 e9bc 099b 85bd
000002e0: e7fd 6b3e f266 c6bd f80c 723e deca a23e
000002f0: 0806 993e 1731 1e3d c003 7c3e 7845 e23d
00000300: d7c5 13be 3445 e23d 4074 8f3d e679 2d3b
00000310: 0ba9 01bd 5d22 db3d 4850 5c3e 3f72 8ebd
00000320: 31d1 263e 24cc b03d 3692 1a3e 4480 133e
00000330: d3ba 533e a9aa 313d 9ab2 3a3e b0d1 183e
00000340: 00bc 313d 31ef 683d 3285 41bd ba83 3f3e
00000350: 6216 b3bc 3373 c6bd c833 233e 37a0 263d
00000360: 90bd 5cbd b6b5 3f3e d8fb cd3d 9fd8 1c3d
00000370: 2409 77be ae41 45bd a5f8 f6bc 9ed8 47bd
00000380: c0c0 fc3d 2e52 823e 6e43 cbbc 1293 003e
00000390: 86db 593e bd0d 383d 8843 d13d cdf9 783d
000003a0: 6091 383e 9cd2 603e 9eb5 1d3d 2ebc 79be
000003b0: 8f7e b83d 1442 683e a409 4abe a4fa d1bd
000003c0: dd85 543a e2b3 b4bd 12b8 1d3d ea59 a53d
000003d0: bec5 26be 75ad e13d 8f7e 253e 607b 523e
000003e0: 8702 32be 164a 953d e57d 0d3e f789 c8bd
000003f0: 76f8 153e 2e2c 2e3e 8c72 1c3c 6475 5b3d

conv2.weight f4 [32, 16, 4]
-0.05164064 -0.03541905 0.02448934 -0.008462038 0.06492484 -0.009000656 -0.01102395 0.0013690831
0.022021823 0.00048952043 0.02526073 0.026471304 -0.013260509 -0.00091296894 -6.439701e-06 0.00032710552
-0.038357787 -0.042054392 0.06678055 -0.014690664 0.054362766 -0.012596924 -0.068188526 0.03861566
0.012712779 -0.037882403 -0.005302774 0.059774037 0.081289 -0.0049961363 0.02507588 -0.03640545
-0.03735954 -0.046035368 0.029340185 0.002680662 0.016825726 0.06585904 -0.0014483162 -0.011434465
0.0045583127 -0.046099305 0.0373553 -0.033605415 -0.023468409 -0.027393932 0.0013138035 -0.0022032415
0.003864944 -0.05146666 -0.009339612 -0.015007276 0.0689052 -0.006253628 0.012020481 -0.03190109
-0.022453096 0.0638086 -0.023221685 0.01217574 0.0406473 -0.03393323 -0.035701286 0.03899753
-0.053905062 0.034390096 -0.05682994 -0.025717242 0.062057182 0.05869855 -0.004834198 -0.027004592
0.015030095 0.016489172 0.0064205737 -0.040280867 -0.03356318 -0.03311942 -0.030646496 0.03536686
0.035142772 0.028316176 -0.00381047 0.08591299 -0.00801784 -0.07050054 0.089346744 -0.079445384
-0.13739893 -0.04798868 0.01114753 -0.061892435 0.036710232 0.024086671 0.0051392675 0.07994098
-0.056256104 0.04840103 -0.015431512 -0.0031845977 0.04178537 -0.04052516 0.0426714 0.024664737
-0.044104975 0.06962653 -0.057735786 0.020394005 -0.10329804 0.060875468 0.0054525146 -0.025983106
0.0032861584 -0.019823391 -0.01702724 -0.0074430206 -0.05293873 0.049075607 -0.06846586 -0.012879069
-0.04886648 -0.089952864 0.026748316 0.0020054744 -0.0391817 -0.04020943 -0.0141183445 -0.069304146
0.078285925 0.057982255 0.035024934 0.07499244 -0.056829892 -0.047077775 -0.036494486 -0.051981542
-0.044967677 -0.08871678 -0.017809257 -0.08500741 0.015768958 0.029404249 0.07272241 0.06034294
0.009261465 -0.023825599 -0.01544748 0.029387746 -0.018906688 -0.10796813 -0.016594082 -0.06563084
0.051991764 0.04000253 0.05458789 0.036588114 -0.045437127 -0.117144674 -0.06841792 0.02914583
0.08825902 -0.024147814 -0.011882085 0.020882612 -0.06305399 -0.013065765 -0.04543225 0.0026985565
0.051833205 0.0058595175 0.084243804 0.026041863 0.05691246 0.115071215 0.035391532 0.067837834
-0.01889793 0.013901903 0.050327532 0.00011764119 -0.080673136 -0.039042763 -0.091460824 -0.024234645
0.0010604967 0.07509588 0.06723055 -0.0031339694 0.023329342 -0.013005349 -0.024172781 0.048355643
0.03357482 0.023461351 0.016148632 -0.005967817 0.015832542 0.028336173 0.008967872 0.07489411
-0.007887974 0.05187406 0.010224731 -0.039921444 0.0064617037 0.043422405 0.049629774 -0.045807663
-0.063106224 -0.048448358 -0.066081636 -0.048542827 -0.06010872 0.043368693 0.041122902 0.004470615
0.06339214 0.012933399 0.027890341 0.04864005 -0.030771945 -0.02609851 0.040760085 0.025125919
0.030276993 0.007743813 -0.011751055 0.007151432 -0.06368749 -0.05030505 -0.012688146 -0.021252202
0.050910994 -0.0042907097 0.001657113 -0.01201019 0.1128278 0.12822407 0.05236877 -0.04354738
0.017373124 -0.012523488 -0.0379145 0.028212704 0.03316197 -0.04322155 -0.06159986 0.0021704873
-0.013838265 -0.0382629 0.060060143 0.026739342 0.018015305 0.04922921 0.041653078 0.0625406
00000000: 2385 53bd 9113 11bd de9d c83c 5ca4 0abc
00000010: 51f7 843d 7d77 13bc cc9d 34bc ce72 b33a
00000020: 1c67 b43c 2953 003a 97ef ce3c 59da d83c
00000030: 9b42 59bc 4f54 6fba 9c14 d8b6 5c7f ab39
00000040: 0e1d 1dbd 3a41 2cbd 3ec4 883d 1cb1 70bc
00000050: 7eab 5e3d 5463 4ebc 6da6 8bbd 742b 1e3d
00000060: 4349 503c 942a 1bbd e4c2 adbb 9fd5 743d
00000070: d97a a63d a1b6 a3bb ef6b cd3c e21d 15bd
00000080: 5106 19bd 958f 3cbd d45a f03c 0cae 2f3b
00000090: 1bd6 893c 1be1 863d 6dd5 bdba 9f57 3bbc
000000a0: e65d 953b a0d2 3cbd df01 193d d5a5 09bd
000000b0: d240 c0bc 3d69 e0bc ee33 ac3a 4264 10bb
000000c0: 004b 7d3b b4ce 52bd 2c05 19bc 14e1 75bc
000000d0: 2b1e 8d3d 3ceb ccbb 8df1 443c b8aa 02bd
000000e0: 8eef b7bc 15ae 823d 673b bebc c17c 473c
000000f0: c97d 263d 92fd 0abd 833b 12bd e0bb 1f3d
00000100: 8ecb 5cbd a1dc 0c3d 83c6 68bd f7ac d2bc
00000110: ac2f 7e3d e46d 703d 3168 9ebb bc38 ddbc
00000120: ca40 763c 4d14 873c ad63 d23b 8dfd 24bd
00000130: 8c79 09bd 3ba8 07bd 5c0e fbbc d7dc 103d
00000140: def1 0f3d 53f7 e73c 14b9 79bb 26f3 af3d
00000150: 425d 03bc 9662 90bd 6dfb b63d 43b4 a2bd
00000160: 4eb2 0cbe c78f 44bd 21a4 363c ec82 7dbd
00000170: 785d 163d 6951 c53c 4d67 a83b 19b8 a33d
00000180: cd6c 66bd 2940 463d 74d4 7cbc afb4 50bb
00000190: 2327 2b3d b6fd 25bd 35c8 2e3d b40d ca3c
000001a0: 6ba7 34bd 5b98 8e3d 5c7c 6cbd 5411 a73c
000001b0: ec8d d3bd 8e58 793d 02ab b23b 86da d4bc
000001c0: 975c 573b aa64 a2bc b67c 8bbc 95e4 f3bb
000001d0: 48d6 58bd 8103 493d d437 8cbd bb02 53bc
000001e0: 3828 48bd 3539 b8bd 491f db3c 476e 033b
000001f0: fe7c 20bd a5b2 24bd a150 67bc 55ef 8dbd
00000200: 5f54 a03d cd7e 6d3d 4e76 0f3d a395 993d
00000210: 76c6 68bd a0d4 40bd 3e7b 15bd 99ea 54bd
00000220: 0730 38bd 25b1 b5bd b8e4 91bc 5d18 aebd
00000230: e72d 813c 2ee1 f03c 7def 943d 292a 773d
00000240: 66bd 173c e72d c3bc 6d17 7dbc 92be f03c
00000250: 33e2 9abc 651e ddbd 50f0 87bc 7669 86bd
00000260: 51f5 543d b1d9 233d 8d97 5f3d 6bdd 153d
00000270: 481c 3abd 8ce9 efbd b21e 8cbd 3cc3 ee3c
00000280: 25c1 b43d a3d1 c5bc 14ad 42bc 0312 ab3c
00000290: 7322 81bd ca11 56bc 2b17 3abd 44da 303b
000002a0: 0e4f 543d 3201 c03b 0488 ac3d bf55 d53c
000002b0: 0a1d 693d 75aa eb3d b6f6 103d 90ee 8a3d
000002c0: d5cf 9abc cfc4 633c 3e24 4e3d 22b6 f638
000002d0: f537 a5bd 4eeb 1fbd d04f bbbd bc87 c6bc
000002e0: 5d00 8b3a decb 993d 2cb0 893d 4863 4dbb
000002f0: 2d1d bf3c 6314 55bc ff05 c6bc 9110 463d
00000300: c085 093d 0532 c03c 234a 843c ad8d c3bb
00000310: 3fb3 813c 4321 e83c fbed 123c 1562 993d
00000320: 903c 01bc e579 543d a185 273c ab84 23bd
00000330: b3bc d33b b1db 313d 9748 4b3d d1a0 3bbd
00000340: d63d 81bd c971 46bd cf55 87bd d8d4 46bd
00000350: 9034 76bd 5fa3 313d 7d70 283d 3d7e 923b
00000360: bdd3 813d 9be6 533c 497a e43c ca3a 473d
00000370: 7215 fcbc 8bcc d5bc 0cf4 263d dfd4 cd3c
00000380: 7507 f83c d0bf fd3b 7f87 40bc 8f56 ea3b
00000390: 966e 82bd ab0c 4ebd f1e1 4fbc 1919 aebc
000003a0: 0c88 503d 1599 8cbb 7c33 d93a 63c6 44bc
000003b0: 4312 e73d 2c4d 033e a380 563d bd5e 32bd
000003c0: 1552 8e3c 512f 4dbc 3c4c 1bbd 541e e73c
000003d0: d9d4 073d 1409 31bd 2350 7cbd bc3e 0e3b
000003e0: e4b9 62bc 8fb9 1cbd a001 763d 770c db3c
000003f0: d594 933c 91a4 493d 6b9c 2a3d 4915 803d

conv2.bias f4 [16]
0.14964564 -0.11420369 -0.074807666 0.10884008 -0.19447486 -0.11473634 0.19026169 -0.14967738
0.12358804 -0.0888569 0.09387886 0.17544366 0.11417244 0.0062635997 0.1582671 0.10166779
00000000: b53c 193e a0e3 e9bd c334 99bd 8ce7 de3d
00000010: 6b24 47be e3fa eabd f6d3 423e 0745 19be
00000020: ba1b fd3d 9bfa b5bd 8f43 c03d 81a7 333e
00000030: 3dd3 e93d e23e cd3b c510 223e 3437 d03d

conv1.weight f4 [16, 1, 4]
-0.3667213 -0.41621402 0.46531138 0.42595556 0.20934674 0.29183415 -0.42434037 0.24218626
0.4761165 0.44641468 -0.047997113 0.41739509 -0.24605715 0.35352394 -0.0005355952 -0.056219965
-0.3903263 0.4480607 0.3264523 -0.09565928 0.32952848 0.21754305 0.4446692 0.26349732
-0.32827985 -0.46358943 0.08364043 0.022499798 0.25547898 0.27632734 -0.05673752 0.3437553
0.2859052 0.4233919 -0.13842371 -0.29887664 -0.45849317 0.20314838 -0.39898768 0.1695665
-0.12179118 -0.046796713 -0.41541383 0.017945306 0.3383338 0.22302125 -0.11173687 -0.3090722
-0.23776802 0.2577107 0.2324916 -0.33711472 -0.15971257 -0.11860291 -0.3116119 0.23762877
0.39459196 0.35946664 0.22415164 -0.01336718 0.26594594 0.40955025 -0.33498007 -0.051769193
00000000: e5c2 bbbe 011a d5be 4b3d ee3e d916 da3e
00000010: fe5e 563e 496b 953e 2443 d9be adff 773e
00000020: 8bc5 f33e 7790 e43e 9f98 44bd cfb4 d53e
00000030: 68f6 7bbe 1701 b53e 2f67 0cba e846 66bd
00000040: d9d8 c7be 3668 e53e c224 a73e 03e9 c3bd
00000050: f5b7 a83e 9bc3 5e3e aeab e33e 1fe9 863e
00000060: 4c14 a8be 985b edbe ac4b ab3d 7f51 b83c
00000070: 24ce 823e c77a 8d3e 9a65 68bd b200 b03e
00000080: 2b62 923e d3c6 d83e f2be 0dbe 5c06 99be
00000090: 9ebf eabe 2106 503e 1d48 ccbe d7a2 2d3e
000000a0: a76d f9bd e9ad 3fbd 1fb1 d4be 0902 933c
000000b0: 163a ad3e af5f 643e 4dd6 e4bd b63e 9ebe
000000c0: 7679 73be a8f2 833e 4712 6e3e 4d9a acbe
000000d0: b18b 23be 15e6 f2bd 988b 9fbe f554 733e
000000e0: f507 ca3e 030c b83e 0288 653e 0402 5bbc
000000f0: 112a 883e 92b0 d13e 8282 abbe ef0b 54bd
