wavae_notebooks/wave_vae_waveedit.pth (torch, 423583 bytes, 13 tensors)

encoder.conv1.weight f4 [16, 1, 4]
000000 bf fe dd 3e ef 96 a9 3e 0d 04 f3 be 5b 20 88 be
       0.43358418 0.33122966 -0.47464028 -0.26587185
000010 ff aa 0d bd af 34 0d bd 73 a8 0e bd 4c 12 12 bd
       -0.034586903 -0.03447407 -0.034828614 -0.03566198
000020 21 77 9f bf a0 6e 84 bd 96 a2 0d 3d 22 d0 3b be
       -1.245823 -0.064664125 0.034578882 -0.18341115
000030 d2 04 ff bd 0e 41 9f bc 9d eb 87 3c fe 9e a4 be
       -0.12452091 -0.0194402 0.016591841 -0.3215255
000040 3b ab 59 bb 64 94 59 bb ee f7 56 bb 4b 2b 54 bb
       -0.0033213634 -0.003320002 -0.0032801586 -0.0032374437
000050 a4 1a 02 bd 44 1a 02 bd 03 1b 02 bd 63 19 02 bd
       -0.031763688 -0.03176333 -0.03176404 -0.031762492
000060 17 09 dc 3d a6 14 43 bd 6d 66 9a bf bd 0f ed 3d
       0.10743921 -0.047627114 -1.2062508 0.115752675
000070 f3 82 81 3b 1d 63 5f be 4b 13 80 be f1 fa c2 bc
       0.003952378 -0.21815152 -0.2501472 -0.023801299
000080 6c ab bb 3e 97 a4 99 be 80 c4 ab bd 14 bd 07 3e
       0.36654222 -0.30008385 -0.08387089 0.13255721
000090 e3 6b bc be 70 20 cd be af 32 7d 3e c8 51 01 3f
       -0.3680106 -0.4006381 0.24726366 0.50515413
0000a0 ff 61 88 bc 66 59 b4 3e d6 43 ca 3e 95 df 0b 3d
       -0.01664829 0.35224456 0.3950488 0.03414877
0000b0 47 5e dd 3c 6e 75 ba 3d 9c e3 93 3d 15 f9 da bf
       0.027022494 0.09104429 0.072211474 -1.7107264
0000c0 9c 34 23 be ae d3 0d 3e 94 7a 8c 3e d8 a8 52 be
       -0.15938038 0.1385028 0.2743727 -0.20572221
0000d0 90 ab 20 3e 29 4b d9 3e e4 40 c0 be 4e 0e 99 be
       0.15690446 0.42440155 -0.37549508 -0.29893726
0000e0 10 31 29 3e 96 56 4e be bc b5 be 3e 05 f1 18 3f
       0.16522622 -0.20150217 0.37248027 0.59742767
0000f0 93 87 27 3e 54 b2 8c 3c cb f5 14 3e 61 14 b2 be
       0.16360311 0.017174877 0.14546888 -0.34781173

encoder.conv1.bias f4 [16]
000000 e1 13 dc 3c be 2b 12 bd 65 70 ab 3d 1b 37 24 3d
       0.026864948 -0.035686247 0.08371047 0.040091615
000010 42 b8 15 bc 30 25 02 bd 35 c3 bf 3b 50 b4 3b 3e
       -0.009138169 -0.031773746 0.005852128 0.18330503
000020 36 66 9c be 6c c5 b4 bb 19 80 95 be da 96 01 bd
       -0.3054673 -0.0055166986 -0.29199293 -0.031638004
000030 a6 c1 f1 bd 64 9b 27 bc 96 13 60 bf 39 a7 57 bc
       -0.11804514 -0.010229919 -0.87529886 -0.013162428

encoder.conv2.weight f4 [32, 16, 4]
000000 6c ef 0b bf 52 f3 a7 be fd 8d 88 3e 60 4c d8 3e
       -0.54662204 -0.32802826 0.26670828 0.4224577
000010 e7 15 1e bc a3 ad 92 bc 4a 7b 8a bc c6 ed 9a bc
       -0.009648777 -0.017905062 -0.016904492 -0.018912207
000020 38 af ad be 04 bb 10 3e 13 3d 5a 3d b1 eb 99 be
       -0.33922744 0.14133841 0.0532809 -0.3006263
000030 1e f9 4c be 68 4f 95 3e 55 59 4a 3e 92 30 f5 be
       -0.20016906 0.29162145 0.1976064 -0.4788862
000040 73 e8 07 80 e0 cb 0b 00 f6 06 01 00 ae 06 00 80
       -7.26236e-40 1.083327e-39 9.4333e-41 -2.396e-42
000050 c8 6a 72 0c 59 33 7a 0c 8e 3e 43 0c 5c 0c 32 8c
       1.8675135e-31 1.9274751e-31 1.5041078e-31 -1.371634e-31
000060 29 73 f6 be 98 84 e9 bd c2 72 a0 be 9f 71 ba bf
       -0.48134735 -0.114022434 -0.31337553 -1.4565924
000070 7c 76 eb 3b c2 bc f6 3d cf ab 15 3e 55 20 28 bc
       0.0071857553 0.120477214 0.14616321 -0.010261615
000080 f9 3e 09 00 bb e3 12 00 1d 27 10 00 a8 20 95 3d
       8.4911e-40 1.734733e-39 1.483399e-39 0.07281619
000090 77 cf 81 be 4c 08 96 be 37 8c 86 be 6a 7e 3d bf
       -0.25353596 -0.29303205 -0.2627885 -0.7402102
0000a0 26 cb c6 be 36 f3 b7 bf 64 48 86 be c1 92 6d 3d
       -0.38826865 -1.4371097 -0.26227105 0.058001284
0000b0 c8 48 fa 3d 2f d3 0b 3f 3c 8e ef be 1a 6d 78 bf
       0.12220913 0.54619116 -0.46788204 -0.97041476
0000c0 bf 43 40 3f e8 16 ec bf 22 76 90 3d f3 76 82 bd
       0.7510337 -1.844449 0.07053782 -0.06370344
0000d0 8f 01 09 c0 2e c4 37 3d be 79 20 bf cb 51 5c bf
       -2.1407201 0.044864826 -0.62685764 -0.86062306
0000e0 7d d4 12 00 a7 b7 02 00 00 14 0b 80 e0 a6 07 00
       1.729265e-39 2.49553e-40 -1.017365e-39 7.02712e-40
0000f0 a1 0e 85 bf ff b4 3d 3e 74 e6 29 be 28 7e b8 3e
       -1.0395089 0.18526076 -0.16591817 0.3603375
000100 07 15 99 be 33 e1 a5 be 24 31 04 3e 57 cf 1f 3e
       -0.29898855 -0.32398376 0.1290937 0.15606438
000110 0f 59 a6 bc 35 b5 b3 bc 98 ea bd bc 3d 11 cd bc
       -0.020306138 -0.021936992 -0.023183152 -0.025032634
000120 cb 78 8c 3e f6 bd cd 3c 10 e7 24 bc d8 36 6c 3e
       0.27435908 0.025114994 -0.010064855 0.23067796
000130 d6 a1 02 3d d8 71 3b be d0 f7 d5 bc 1c 9a 29 3e
       0.03189262 -0.18305147 -0.026119143 0.16562694
000140 5c 90 10 80 c1 01 15 80 3d 4d 13 80 7c 40 12 80
       -1.521154e-39 -1.929175e-39 -1.772582e-39 -1.676172e-39
000150 12 56 8b 8b 0e 1b e5 8a 7b 4a 0d 8b ef 5f 29 8b
       -5.3670357e-32 -2.2062075e-32 -2.7211645e-32 -3.2620388e-32
000160 75 c2 b3 3e c5 aa 35 be 85 27 bd bd f5 53 8b bd
       0.35109296 -0.17740925 -0.092360534 -0.06803123
000170 4f 8f 2d 3e 7f ce 24 3e 78 2a af 3d 86 9c 31 3e
       0.16949199 0.16094397 0.08553022 0.17344865
000180 f3 f0 80 bd 11 43 09 00 5a 5b 30 be 91 d1 09 00
       -0.062959574 8.50578e-40 -0.17222348 9.01698e-40
000190 22 15 15 3e e4 44 0a 3e 05 a6 be bc 25 0f bd be
       0.14558843 0.13502842 -0.023272524 -0.36925617
0001a0 83 37 a7 bf dc f6 f0 be f9 37 75 bf 25 7f 05 bf
       -1.3063816 -0.4706334 -0.9578853 -0.5214713
0001b0 4b 96 ad bf 5f 85 91 3d 02 d6 45 3e ad 57 06 bf
       -1.3561491 0.07105517 0.19319919 -0.5247753
0001c0 f3 0a f1 bf 26 53 2d bf bc a4 6a bf 4b ad 55 3f
       -1.8831466 -0.67705 -0.91657615 0.8346755
0001d0 7d 23 14 3e 25 b0 d7 3d 01 24 56 be 8c 09 c5 be
       0.14466663 0.10531644 -0.20912172 -0.38483846
0001e0 f0 35 0d 80 e4 49 15 bc 7f 7d 0a 80 5f 12 00 80
       -1.21321e-39 -0.009111855 -9.63374e-40 -6.59e-42
0001f0 8a d0 22 be 30 87 ce 3e 10 98 91 be 3f 21 04 bd
       -0.15899864 0.40337515 -0.28436327 -0.03225827
000200 4a 6e 22 bd df a0 a6 bd 96 3c 4c 3c bb f2 3c 3d
       -0.03965596 -0.081361525 0.012465617 0.046129923
000210 61 4b 73 3c 93 50 4f 3c 38 1f 3a 3c 7f 73 5e 3c
       0.014849515 0.012653488 0.011359982 0.013577341
000220 2a 71 33 be d2 8a d5 3d d7 47 f6 3d 54 f6 c8 bd
       -0.17523637 0.104268685 0.12025421 -0.09812608
000230 eb b9 96 3c 5d c1 4d 3b 31 62 38 3e 72 ac 9d 3c
       0.0183992 0.003139577 0.18006207 0.019247267
000240 eb 11 00 00 78 67 09 00 53 0e 10 00 73 aa 04 00
       6.428e-42 8.63637e-40 1.474506e-39 4.28488e-40
000250 a9 df 2c 3b 63 b7 1f b9 a2 f0 a3 b3 c3 b8 da b2
       0.002637843 -0.00015231739 -7.63405e-08 -2.546256e-08
000260 be 6d 69 bc c6 90 0b bd fc 94 4b bd 34 ec 89 bc
       -0.014247356 -0.034073614 -0.04970263 -0.016836263
000270 6d fa a2 3d 40 68 8c 3e 11 ea 8a 3e 61 bc c2 3d
       0.07957921 0.27423286 0.27131703 0.09508587
000280 51 cd a9 bd 3b 1b 4e be 0a 14 58 3d 30 b2 a5 3d
       -0.08291114 -0.20127575 0.052753486 0.08090627
000290 23 45 b9 bc 3d ea 93 bd 23 4f 61 bd d2 ef 8d 3c
       -0.022615975 -0.07222412 -0.05500711 0.01732627
0002a0 45 19 c6 bc 93 06 d9 bd ba da 89 bd a4 24 ae 3b
       -0.024181971 -0.10596957 -0.06731172 0.0053144265
0002b0 50 ca 14 3e c2 0c ed 3c 59 1e 43 bd 90 20 5b bd
       0.14530301 0.028936747 -0.047636364 -0.05349785
0002c0 f8 5a 37 3d ab e6 9c 3d 3d 4b fb bc 6a c7 73 bd
       0.04476449 0.07661184 -0.030675525 -0.059516348
0002d0 18 b1 88 3c fb d3 f8 3c 15 b0 73 3d 41 f2 41 3d
       0.016686007 0.030374518 0.059494097 0.047350172
0002e0 c8 c2 f3 3d 2a 27 90 3d 1a 20 81 3d 33 e7 16 3d
       0.11902386 0.0703872 0.06304951 0.036841583
0002f0 47 4f 7a bd 33 42 ee bc 1a eb d5 3c 76 46 df 3c
       -0.06111076 -0.0290843 0.026113082 0.027255278
000300 2b 5d 07 80 45 25 02 80 db f4 06 00 8a 81 04 80
       -6.76271e-40 -1.97041e-40 6.3885e-40 -4.13812e-40
000310 b8 80 03 00 a6 7e 00 80 8c 30 06 80 f7 89 00 80
       3.21682e-40 -4.5433e-41 -5.68428e-40 -4.9492e-41
000320 fd 23 00 00 bf 82 03 80 dd d3 00 00 f3 46 0a 00
       1.291e-41 -3.2241e-40 7.6002e-41 9.43807e-40
000330 46 32 09 00 1d 13 08 80 f9 fb 04 00 08 95 08 00
       8.44554e-40 -7.4154e-40 4.57733e-40 7.88146e-40
000340 48 ff 12 80 9a 24 05 80 03 97 07 80 1e ed 08 80
       -1.744617e-39 -4.72308e-40 -6.97021e-40 -8.19746e-40
000350 fd 3e 04 00 ac 8c 0b 00 6a 68 00 80 69 a6 06 00
       3.89938e-40 1.060654e-39 -3.7457e-41 6.1071e-40
000360 db 93 06 00 a4 15 04 80 c8 43 06 80 f1 1c 0c 00
       6.04054e-40 -3.75105e-40 -5.75328e-40 1.112408e-39
000370 41 07 00 00 42 29 01 00 39 17 00 80 d4 0f 08 00
       2.602e-42 1.06636e-40 -8.331e-42 7.40362e-40
000380 82 b5 07 80 58 d3 11 00 7d 1f 09 00 ba 3d 0e 80
       -7.07961e-40 1.637019e-39 8.37815e-40 -1.30784e-39
000390 bc 81 06 80 43 02 08 00 5c f1 02 00 0d 8c 07 00
       -5.97553e-40 7.35495e-40 2.70254e-40 6.93089e-40
0003a0 07 0a 30 9d 0c aa d1 9f 42 2f 37 a0 0c 01 82 9f
       -2.329859e-21 -8.879626e-20 -1.5516339e-19 -5.5058873e-20
0003b0 b0 e7 05 80 c7 ad 03 00 5f 70 09 80 90 63 02 80
       -5.42291e-40 3.37846e-40 -8.6683e-40 -2.19387e-40
0003c0 dd 03 09 00 6a 47 08 00 d6 b4 05 00 bd 2d 08 80
       8.27905e-40 7.60303e-40 5.24049e-40 -7.51092e-40
0003d0 b6 f9 02 80 e0 8a 00 80 e0 f5 07 80 ae 57 04 00
       -2.7325e-40 -4.9819e-41 -7.31052e-40 3.98796e-40
0003e0 ac ac 06 00 a1 63 03 80 d6 95 09 80 20 10 08 00
       6.12956e-40 -3.11247e-40 -8.8027e-40 7.40469e-40
0003f0 17 1d 07 80 9e b0 06 00 8a a8 08 80 cc 15 02 80
       -6.53284e-40 6.14371e-40 -7.95144e-40 -1.9149e-40

encoder.conv2.bias f4 [32]
000000 36 a9 f7 b8 90 0e 52 bd a1 e5 8e 3d 24 bf 81 b6
       -0.00011809396 -0.05128342 0.06977392 -3.8667513e-06
000010 37 ba a5 bc 06 0a 32 bc 86 c3 7f ab 6d d3 7e bc
       -0.020230396 -0.010866648 -9.086554e-13 -0.0155533375
000020 d3 64 85 bc b3 9e 1e bd d6 21 2f bd 10 64 a4 bd
       -0.016283428 -0.038725566 -0.042756878 -0.08026898
000030 65 a8 94 bc 6a eb 9b 3c be f9 e4 3c e4 28 c1 bc
       -0.018146703 0.019033153 0.027951118 -0.023579068
000040 12 d5 0d 3d 93 b6 63 bd 62 9b 68 be 6f 52 10 3d
       0.034627028 -0.05559404 -0.22715524 0.035234865
000050 1c 86 5f a5 b1 52 fd bc 23 b5 3b bd 2b 0a 4f be
       -1.9387605e-16 -0.03092322 -0.045827042 -0.20218723
000060 4d 29 56 a9 91 62 d2 bd 0e f2 8d bd 2f 7c 5b bd
       -4.7553368e-14 -0.10272706 -0.06930934 -0.053585228
000070 c8 05 46 be 55 1f 92 bc 95 03 de bc 56 54 d0 bb
       -0.19338143 -0.017837206 -0.027101317 -0.00635771

encoder.fc_mu.weight f4 [16, 2048]
000000 69 2d 06 3d 07 59 4c bd 93 8d da bc 40 1a 1d 3e
       0.03275815 -0.04988959 -0.026678836 0.15342045
000010 95 1f 19 3e 5e 14 ef 3d 14 bb 9b 3d bb 9b b0 3d
       0.14953454 0.116738066 0.07604042 0.08623453
000020 ca 74 ca 3d 95 4d c3 3d 0f d7 6b 3d 59 c5 77 3e
       0.09885557 0.09536282 0.057578143 0.24196376
000030 27 a1 6f bd 6f 53 6c 3e 73 8c cb 3c 6f c6 9c 3e
       -0.058503296 0.23078702 0.024847245 0.30620143
000040 3f 96 8f 3e e6 07 2d 3e af a3 da 3d 39 c9 0c 3d
       0.28044316 0.16897544 0.106757514 0.03437159
000050 1e 12 07 bd 9a 3e 4e be 52 76 44 3e 29 48 b8 bc
       -0.032976262 -0.20141068 0.1918576 -0.022495346
000060 7f 13 82 3e f1 5c a4 3c a5 bc 82 3d f8 d0 2e bc
       0.254055 0.02006385 0.06383637 -0.010669939
000070 69 e9 a6 3a b8 15 52 3e b5 33 05 be c5 3a 4e 3d
       0.0012734357 0.20516098 -0.13008006 0.050349016
000080 12 cb b0 bd 93 40 8a bd b1 ba 5f be e5 e8 26 bd
       -0.086324826 -0.06750598 -0.21848561 -0.04074945
000090 af 67 af be 2a c4 db bd 30 1f 7c 3d 8c 7b 09 be
       -0.34258792 -0.10730775 0.06155318 -0.13426036
0000a0 bc 40 e6 bd bf 66 cf 3d ac 4d bc bc 13 6c b7 3c
       -0.11242816 0.10127019 -0.022986256 0.022390401
0000b0 a0 e4 2b be bc 72 30 be c1 7f 23 be 69 af 2d be
       -0.16786432 -0.17231268 -0.15966703 -0.16961445
0000c0 1b ae 78 bd 75 56 18 be 55 13 96 bc 6d 34 e0 bd
       -0.060712915 -0.1487673 -0.018319765 -0.109474994
0000d0 81 7e 78 be 98 cf a8 3b fd eb 2e be d6 ee ea 3d
       -0.24267007 0.0051517 -0.1708221 0.114713356
0000e0 99 5a 03 3e 7b f4 96 bd 7f 0e 02 bd 2a 88 df bd
       0.12827529 -0.0737085 -0.031752106 -0.10914643
0000f0 9f b5 49 3d 13 d4 ad 3c a4 87 96 bc 6e a8 a2 3d
       0.049245473 0.021219289 -0.018375225 0.07942282
000100 9d fb 2f 3e e7 ff 10 be e7 c9 9c be b2 02 2f be
       0.17185827 -0.14160119 -0.3062279 -0.17090872
000110 40 ff 13 be b8 c0 63 be 40 68 49 be 75 3f 5b be
       -0.14452839 -0.22241485 -0.19668674 -0.21410926
000120 04 b5 46 be 8b 8a 4f be d8 ad 9b be ae 0e 36 be
       -0.1940499 -0.20267694 -0.3040607 -0.17779037
000130 1c fd 69 bd 64 02 d1 bd cc ab b9 bd c1 8e 1d be
       -0.05712615 -0.10205534 -0.09065971 -0.15386488
000140 39 da bb be 9a e7 23 bd 0a d6 4f bd 7f be 81 bd
       -0.36689928 -0.040015794 -0.050741233 -0.06335162
000150 74 5a 07 be 97 cb 3e 3c 4e 8c 53 be 2e 67 80 3c
       -0.13218099 0.011645219 -0.2065899 0.0156742
000160 d6 f0 37 bd 9c 9a 52 3a 88 b1 a2 3d 92 14 30 be
       -0.044907413 0.0008033903 0.07944018 -0.17195347
000170 f1 95 4d 3b aa a4 65 3d 98 dc 8b 3e 72 8b 28 bd
       0.003136989 0.05606524 0.27316737 -0.04114861
000180 8e d1 de bc 4d e4 1e 3e 65 70 01 be 4b 53 0b 3b
       -0.027199533 0.15516777 -0.12640531 0.0021259363
000190 ce d3 1a 3c 29 f0 1e bd 3c a0 e8 b9 f6 59 8e 3d
       0.009449912 -0.038803253 -0.00044369872 0.069507524
0001a0 57 38 31 3e ba fe 87 bd a6 0d e6 3d 5f d4 6e 3e
       0.17306648 -0.06640382 0.11233072 0.233232
0001b0 87 3d 3f 3e 6f c2 5b 3d 8c 43 76 3d cf ec 1a 3e
       0.18675815 0.053652223 0.06012301 0.15129398
0001c0 c9 30 79 3e e6 a0 b8 3e ec b8 1f 3e 6c 54 2a 3e
       0.24335016 0.36060256 0.15597886 0.16633767
0001d0 fc 60 67 3e 73 da 70 3e d3 30 4e 3e 53 12 47 3e
       0.2259559 0.23520832 0.20135812 0.19440584
0001e0 27 47 34 3e 53 ca 88 3e 7a 85 82 3e 8a 15 18 3e
       0.17605267 0.2671686 0.2549246 0.14851967
0001f0 03 c1 85 3e 2d 07 4b 3e 98 26 5f 3e 1d 38 a3 bb
       0.2612382 0.19826956 0.21792066 -0.0049810545
000200 7f ab 54 be c1 44 63 be a4 97 91 be 0e 8f 84 be
       -0.20768546 -0.22194196 -0.28436005 -0.25890392
000210 91 3b 7e be a2 b5 a3 be bc fe 81 be 84 1f 85 be
       -0.2482741 -0.31974512 -0.2538966 -0.26000607
000220 be 87 a0 be 41 a3 b3 be 7d 0b a7 be b1 ed 8f be
       -0.31353563 -0.3508549 -0.32625952 -0.28111032
000230 8d 90 a5 be 78 d3 8d be df 40 b3 be 53 be 8c be
       -0.32336846 -0.277004 -0.3501043 -0.27488956
000240 cc 6d 7d be f6 de 35 be d6 6d 55 be 1b 1b 44 be
       -0.24748915 -0.17760834 -0.2084268 -0.19150965
000250 b0 b3 4f be b1 2c 09 be 71 51 54 be e5 7f b3 bd
       -0.20283389 -0.13395955 -0.20734192 -0.08764628
000260 be f8 04 be bf b7 c4 bd 24 c2 d7 bd 89 3b fe bb
       -0.12985513 -0.09605359 -0.10535076 -0.007758562
000270 76 c0 c4 bc 5a c1 09 bd ec 65 e7 bc ff 9f 2a 3d
       -0.024017554 -0.03363166 -0.028246842 0.04165649
000280 4e 20 af ba ec 73 9f 3d e4 dd 94 3d 29 86 a3 3d
       -0.0013361068 0.07785782 0.07268885 0.079845734
000290 4a c7 a3 3d e7 72 d2 3d 32 3e 16 3e ce 38 13 3e
       0.07996996 0.10275822 0.14672163 0.14377138
0002a0 f7 66 33 3e fc c6 34 3e 55 d3 24 3e 0e 6f 35 3e
       0.17519747 0.17654032 0.16096242 0.17718145
0002b0 5c 96 6d 3e 18 c4 70 3e 78 54 71 3e 52 23 81 3e
       0.23201889 0.23512304 0.23567379 0.2522226
0002c0 c7 2b 8f 3e 67 49 84 3e f6 35 9f 3e 2b 21 78 3e
       0.27963087 0.25837252 0.31095856 0.24231403
0002d0 86 ce 9f 3e dc d2 77 3e e2 03 8b 3e 42 c4 75 3e
       0.31212252 0.2420153 0.271514 0.24000648
0002e0 e6 38 8b 3e 2c c2 8c 3e 05 b5 93 3e 92 26 60 3e
       0.27191848 0.2749189 0.28849044 0.21889713
0002f0 8b fb 4e 3e 1a 04 79 3e 48 ba 76 3e cf 78 61 3e
       0.20213144 0.24317971 0.24094498 0.22018741
000300 28 c9 08 80 af f1 02 00 18 c9 06 00 c3 b7 04 00
       -8.06845e-40 2.70371e-40 6.23152e-40 4.33263e-40
000310 1d 69 08 80 56 5d 01 00 75 00 02 00 06 95 02 00
       -7.72392e-40 1.25318e-40 1.83835e-40 2.3713e-40
000320 d6 14 0a 00 c8 33 03 00 f2 0f 00 00 5b 59 09 80
       9.2583e-40 2.94082e-40 5.72e-42 -8.58574e-40
000330 22 f5 07 00 a8 d4 07 80 23 20 04 00 7a b3 04 00
       7.30786e-40 -7.19135e-40 3.7887e-40 4.31726e-40
000340 7a a3 09 80 ff e1 08 80 4c e5 02 80 20 af 02 80
       -8.85164e-40 -8.15756e-40 -2.65927e-40 -2.46494e-40
000350 b6 e1 02 80 a6 64 00 00 2f 13 0a 80 67 9b 08 00
       -2.64641e-40 3.6106e-41 -9.25237e-40 7.90432e-40
000360 fe 5f 08 80 86 08 04 00 04 0c 09 00 0d 73 07 80
       -7.6912e-40 3.704e-40 8.3083e-40 -6.84121e-40
000370 71 2e 02 00 da 6b 07 80 49 80 00 00 3d 4c 04 00
       2.00331e-40 -6.81538e-40 4.602e-41 3.94691e-40
000380 a0 34 00 00 3f 62 07 00 01 1f 04 80 8d 39 0b 00
       1.8878e-41 6.78093e-40 -3.78464e-40 1.030836e-39
000390 b9 ab 06 00 1f 34 04 00 45 f0 0a 00 b6 90 03 00
       6.12615e-40 3.8604e-40 1.004547e-39 3.27419e-40
0003a0 0c 8d 0a 00 0d b1 05 00 a7 14 04 00 f9 6b 03 80
       9.68953e-40 5.22691e-40 3.7475e-40 -3.1424e-40
0003b0 de 2b 08 00 e3 16 03 80 e6 b7 0a 80 38 86 04 80
       7.5042e-40 -2.83717e-40 -9.84325e-40 -4.1549e-40
0003c0 60 00 03 80 f9 e4 06 80 10 76 09 80 9d 56 03 80
       -2.75641e-40 -6.33153e-40 -8.68872e-40 -3.06577e-40
0003d0 8a 7f 03 80 f5 62 09 00 3b 92 09 80 cb 65 06 80
       -3.21259e-40 8.62019e-40 -8.78977e-40 -5.8753e-40
0003e0 2d 99 00 00 39 2a 05 80 fb b4 08 80 1d 92 01 80
       5.4949e-41 -4.74324e-40 -7.99608e-40 -1.44251e-40
0003f0 5b e8 03 00 46 41 03 80 8f 78 03 80 b5 ac 08 00
       3.5886e-40 -2.98922e-40 -3.18755e-40 7.9664e-40

encoder.fc_mu.bias f4 [16]
000000 49 b7 6d bc 1f e5 48 3d 1c 26 42 bc 37 c0 7b bd
       -0.014509031 0.049046632 -0.011849906 -0.061462607
000010 05 ca e6 3b 94 e2 a0 3d 86 fd d7 3d 36 1b cd bd
       0.0070431256 0.07855716 0.10546403 -0.10014956
000020 29 33 e3 3c f5 f4 9a 3d 5c d7 ef bb 2c f2 80 bd
       0.027734356 0.07566253 -0.007319374 -0.062961906
000030 f1 76 ea bc 4d b7 08 3c e5 64 8c 3c 34 85 41 3c
       -0.028621169 0.008344484 0.017137954 0.011811543

encoder.fc_logvar.weight f4 [16, 2048]
000000 14 08 07 3f bb f5 dd be 80 e5 0c bf 6b 59 e0 be
       0.527467 -0.4335154 -0.5503769 -0.4381822
000010 3c 5a 0d 3f 4f 1a f7 bd 97 f0 bd 3e c4 58 a7 bd
       0.5521581 -0.12065565 0.37097618 -0.081712276
000020 c0 6c cc 3e e9 0c 80 3d 27 53 ae 3e 15 4f 42 be
       0.3992672 0.062524624 0.34047815 -0.1897548
000030 04 2f e0 3e ed 7d aa 3e f6 9c 7a 3d 30 7c b7 bd
       0.4378587 0.332992 0.061184846 -0.08959234
000040 0c 9b 0d bf 0c be 90 be 9e 45 1a be 04 87 f1 3d
       -0.5531471 -0.28269994 -0.1506562 0.1179333
000050 e3 2c 87 be 1a f2 ae 3e dd b8 ea be 33 45 67 3e
       -0.26401433 0.34169084 -0.45844164 0.22584991
000060 95 3a 0b 3f 3d 95 40 3e 21 1f 1d 3e 92 9b c9 be
       0.54386264 0.1880693 0.15343906 -0.39376503
000070 83 97 7d be 3f fe 5d bf 53 4c 66 3e 22 36 86 be
       -0.24764828 -0.86716074 0.22490053 -0.26213175
000080 e9 7c 27 be 6a b1 d0 be bc 8a 93 3c f8 a1 b5 be
       -0.16356243 -0.40760356 0.01801049 -0.35475135
000090 8f 7d 10 3f 62 11 be be c6 94 21 3e 92 72 c5 3e
       0.5644159 -0.37122637 0.15779409 0.38563973
0000a0 f0 ce ee bd 24 5b b9 3e 33 61 ce 3e c8 b0 13 3f
       -0.11660564 0.36202347 0.40308532 0.5769162
0000b0 c2 d2 15 3f d6 5f 96 3d e2 bf b4 be 39 42 a3 3e
       0.58524716 0.07342498 -0.35302645 0.3188646
0000c0 a0 a0 bf be 5f 84 90 be 48 59 0c be bb ee 97 3d
       -0.37427235 -0.2822599 -0.13705933 0.07418581
0000d0 40 4b 7b 3e 3b 52 3f 3f 7e ca 49 3f b1 26 e4 3e
       0.24540424 0.7473485 0.78824604 0.4456077
0000e0 e7 a9 73 be 19 33 48 be d3 e8 db 3e 07 c3 28 bf
       -0.23795281 -0.19550742 0.42951068 -0.6592259
0000f0 e0 40 08 bf a8 08 86 3e 72 43 e4 3e f1 5b ed 3d
       -0.5322399 0.2617848 0.44582707 0.11589802
000100 88 3f 57 3e 1c 9e 82 bd 86 ae 74 bd af 07 44 3d
       0.21020329 -0.06377813 -0.05973675 0.04785889
000110 33 c0 f1 3d d1 5f 99 3e f8 60 19 3e 8e 17 e9 3c
       0.11804237 0.29955915 0.14978397 0.028453615
000120 7e d2 4c 3e 94 33 0f 3f 6f 76 ba 3e ee 15 bd 3e
       0.20002171 0.55938077 0.36418483 0.36930794
000130 0d 50 35 3f b0 7a 05 3f 34 7e 37 3e a9 82 56 3e
       0.7082527 0.5214033 0.17919236 0.2094828
000140 45 7c 01 3e ee df d1 3d 81 89 55 3e c0 68 e3 3d
       0.12645061 0.10247789 0.20853235 0.11103964
000150 39 fd 32 3e 5a a8 04 3f 25 9e 8e bd 7d e9 2e 3e
       0.1747941 0.51819384 -0.069637574 0.17081256
000160 de 7c d0 3d e9 da 4a 3c 8f e0 a7 be a0 3d d8 3d
       0.101800665 0.012381294 -0.32788512 0.10558629
000170 7b 6e 3e be c0 77 66 3e 56 90 27 3d 0f e6 9d 3e
       -0.18596832 0.22506618 0.040909134 0.30839583
000180 45 1c f0 3b 50 3d f4 3d 54 97 28 bd e2 f2 60 3e
       0.0073275887 0.11925757 -0.041159943 0.21967652
000190 77 8c d5 3e 83 5e 29 be a2 d1 39 3e cb d1 20 3d
       0.4170873 -0.1653996 0.18146375 0.039262574
0001a0 78 62 7f 3e 6e 09 dc 3d 9e 18 12 3e 8e 39 0d 3f
       0.24939907 0.10743986 0.14267203 0.55165946
0001b0 b5 0b 95 3e 4c ec 0b 3e 14 8f db 3d e6 29 06 3f
       0.29110494 0.13664359 0.10720649 0.5240768
0001c0 a1 c9 31 3f e4 b5 06 3f b1 51 6a 3d 73 51 32 3e
       0.69448286 0.52621293 0.057206813 0.17413883
0001d0 3a 56 c2 3e 26 ea d8 3e 73 f0 14 3f 3a 47 8e 3e
       0.3795641 0.4236614 0.58179396 0.27788717
0001e0 7b 03 c8 3e 13 9c 28 3e 04 c6 b9 3e 09 0c 0c 3f
       0.39065155 0.16465788 0.36283886 0.54705864
0001f0 4f 69 cc 3e 92 89 7c 3e 95 3d d2 3e bc 14 46 3f
       0.39924094 0.24661854 0.41062608 0.7737539
000200 10 6b 71 bc d7 d8 5e be eb a2 23 be 22 77 16 be
       -0.014734998 -0.21762405 -0.15980117 -0.14693883
000210 ab c1 10 be 75 bd 22 be d0 2a 11 be c5 81 84 be
       -0.14136378 -0.15892585 -0.14176488 -0.25880256
000220 a9 50 92 be b0 e1 51 be ff cf e4 be 11 7f aa be
       -0.28577164 -0.20496249 -0.44689938 -0.3330007
000230 8d b4 b4 be 5a 29 c0 be 3e b0 8f be 6b ac fa be
       -0.35294 -0.3753155 -0.2806415 -0.4895967
000240 f4 80 a5 be 7e 87 99 be 39 83 d1 bd 7d bc 8a bd
       -0.32324946 -0.29986185 -0.10230107 -0.067742325
000250 c7 52 cc bd a0 6a 8d bd 1b 0f 50 be c5 3d df bd
       -0.09976726 -0.06905103 -0.20318262 -0.109004535
000260 f4 83 0e be b2 c9 92 3c 16 e0 87 3d 43 4b 9a bc
       -0.13917524 0.017918441 0.06634538 -0.018834716
000270 ee 54 48 3c 10 32 0e 3d 34 43 a7 bd 58 29 73 be
       0.01222728 0.034715712 -0.08167115 -0.2374624
000280 01 85 62 bd 2e 03 20 be 48 d2 e0 bd 2f e6 a5 3d
       -0.055302624 -0.15626213 -0.10977608 0.08100545
000290 a7 c8 b9 3b 13 48 07 be 08 7e 25 be 18 57 8f be
       0.0056696716 -0.13211088 -0.16161358 -0.27996135
0002a0 70 e1 61 be 67 4a 8d be 0a bf 56 bd 6d 7d a9 be
       -0.22058654 -0.27595827 -0.052428283 -0.33103505
0002b0 16 ae a6 be 73 e1 9d be 52 99 94 be 18 6c db be
       -0.32554692 -0.30836067 -0.29023224 -0.42855906
0002c0 41 2e e4 be 9e e2 cf be ce 02 b8 be 62 6e 74 be
       -0.4456654 -0.40602583 -0.3593964 -0.23870233
0002d0 52 e9 dd be 52 b1 70 be ec b0 a0 be f7 ba ae be
       -0.43342072 -0.23505142 -0.3138498 -0.34127018
0002e0 95 dc 7d be db 8a a0 be 5d 7c 8e be 61 f7 b8 be
       -0.24791177 -0.31355938 -0.27829257 -0.36126235
0002f0 d4 e8 65 be a3 17 8c be 9c 94 4b be ee 54 e9 bd
       -0.22452098 -0.27361783 -0.19880909 -0.11393152
000300 92 f4 0e 00 47 cd 03 80 51 b9 05 00 50 bd 02 00
       1.373432e-39 -3.49146e-40 5.25656e-40 2.51584e-40
000310 e6 ac 0c 80 84 93 01 80 b5 54 0a 80 56 f5 0c 00
       -1.16405e-39 -1.44754e-40 -9.48742e-40 1.190036e-39
000320 b1 d5 0b 80 e5 7c 01 00 a6 57 06 80 b1 b5 0c 80
       -1.086848e-39 1.36639e-40 -5.82455e-40 -1.167205e-39
000330 a3 20 09 00 a3 c5 05 00 38 d3 08 80 e0 10 06 00
       8.38227e-40 5.30076e-40 -8.10455e-40 5.57067e-40
000340 5d 4e 00 80 df f0 0a 80 c4 ce 07 80 bc a3 05 80
       -2.8111e-41 -1.004763e-39 -7.17022e-40 -5.17914e-40
000350 15 2f 0a 80 fc fd 0b 00 fb db 09 00 a2 d3 00 80
       -9.35245e-40 1.101303e-39 9.05434e-40 -7.592e-41
000360 2d f6 0a 80 12 34 09 00 ef 59 09 80 65 d8 05 00
       -1.006666e-39 8.45199e-40 -8.58782e-40 5.36805e-40
000370 c4 36 06 00 25 aa 10 80 cc 01 12 80 e9 6b 0f 00
       5.70659e-40 -1.530404e-39 -1.653684e-39 1.416243e-39
000380 9b 02 05 80 08 c0 0b 00 e2 50 08 00 97 5e 02 80
       -4.60112e-40 1.079078e-39 7.63699e-40 -2.17603e-40
000390 03 6b 0c 00 02 14 0b 00 ee fb 07 80 3a 7e 03 00
       1.140415e-39 1.017368e-39 -7.33224e-40 3.20788e-40
0003a0 af 78 02 80 ec 10 09 80 ca 0e 07 80 0d dc 0f 00
       -2.26964e-40 -8.3259e-40 -6.48154e-40 1.456472e-39
0003b0 5b 22 0a 80 82 21 0b 80 ba 48 0a 00 fc 67 02 80
       -9.3068e-40 -1.022211e-39 9.44444e-40 -2.20974e-40
0003c0 99 da 06 00 94 39 0d 80 96 51 0c 80 93 12 10 00
       6.29431e-40 -1.214517e-39 -1.131293e-39 1.476031e-39
0003d0 a7 f2 05 00 21 5e 06 00 68 3a 06 80 b3 c6 0c 80
       5.46225e-40 5.8478e-40 -5.71965e-40 -1.173306e-39
0003e0 0d 45 0d 80 9c f3 04 00 3a 48 09 80 6f e8 01 80
       -1.218632e-39 4.54733e-40 -8.5243e-40 -1.75217e-40
0003f0 43 a0 06 80 37 5d 08 80 aa 55 03 80 6a 24 00 00
       -6.08504e-40 -7.68123e-40 -3.06237e-40 1.3063e-41

encoder.fc_logvar.bias f4 [16]
000000 8c 16 ad bf d4 5c 2f bf 01 b7 66 bb 87 74 54 bf
       -1.3522506 -0.6850102 -0.0035204294 -0.82990307
000010 b4 ac 25 bd 53 8b e3 be 55 f1 49 bf 75 84 93 bf
       -0.040447906 -0.44442233 -0.7888387 -1.1524798
000020 51 3b 8b bf f2 28 e1 be f1 c6 95 bc 3e fc 6b bf
       -1.0877477 -0.4397655 -0.01828334 -0.92181766
000030 71 48 05 bf 69 18 09 bf 70 bd 3b bd c0 78 13 bc
       -0.5206366 -0.5355287 -0.04583496 -0.009000957

decoder.fc.weight f4 [2048, 16]
000000 84 b1 2e 3f 12 d3 19 bf c1 f8 91 bd 9f 88 ec 3e
       0.6823962 -0.6008769 -0.07127524 0.46197984
000010 8a 96 a1 3c c4 fb ed bd 23 02 99 bf de 8b 5e 3f
       0.019725103 -0.11620286 -1.1953777 0.8693217
000020 c2 44 b5 be 00 0e c5 be bd e1 dc bb c8 0a 4c 3b
       -0.3540402 -0.38487244 -0.0067407773 0.0031134356
000030 41 ba ba 3d 3b 70 a9 3f b2 a2 42 bc 87 f9 94 bd
       0.09117556 1.3237375 -0.01187961 -0.07274156
000040 51 76 61 3e c8 1b ae be c4 84 0b bd 54 4e 81 3e
       0.2201779 -0.3400557 -0.034062162 0.25255072
000050 6e c7 6f ba ce ff 96 3c 32 7e dc bd 1f a0 09 bf
       -0.0009146844 0.018432524 -0.10766257 -0.5375995
000060 d2 63 7d bd 4c 52 48 be 9c 0c 8f 3b ee e3 4c be
       -0.061862774 -0.19562644 0.004365517 -0.20008823
000070 c9 1e b7 3e 32 3f d9 3e 1c 88 9a 3d ef 0b 0b 3d
       0.35765675 0.42431027 0.07545492 0.033946928
000080 8f a0 af 3e 8b d6 8c be 9f c8 d8 bc 34 2c b1 3e
       0.34302184 -0.27507433 -0.026462851 0.34604037
000090 75 63 ec 3c cd de 40 3c 0c ba 1c be 54 20 06 bf
       0.028856019 0.01177187 -0.15305346 -0.5239308
0000a0 f8 fc 78 be 66 51 9a be 92 71 8f 3c 37 d0 a4 bc
       -0.2431525 -0.30140227 0.01751021 -0.020118816
0000b0 10 08 b5 3e e9 36 05 3f cf 47 8d 3d b8 15 eb 3c
       0.35357714 0.5203691 0.06898462 0.02869688
0000c0 94 71 6f 3e fe f1 5b be e1 2b ce bc a3 5b 0b 3e
       0.2338317 -0.21479031 -0.025167407 0.13609175
0000d0 be 41 6f 3d e1 f3 2d 3c c3 1b e1 3d 92 74 13 bf
       0.058412306 0.010617227 0.10991623 -0.5759975
0000e0 8c c9 9f be 4e 70 58 be 64 40 1b 3a a3 a8 8a 3c
       -0.31208456 -0.21136591 0.0005922376 0.016926115
0000f0 ac bd ee 3e a2 5e f8 3e f1 da e5 3c cb c5 d0 3c
       0.46629083 0.485097 0.028058501 0.02548494
000100 e9 5b ae bd 1e 21 4a be be 59 20 bc df 07 e3 3c
       -0.08513624 -0.19739196 -0.009787021 0.027713714
000110 f9 f0 ad 3c 50 07 3f 38 7e 96 62 3e d7 4d 2f bf
       0.021233069 4.554476e-05 0.2212772 -0.6847815
000120 6f 10 a2 be 04 2d f7 bd 20 ed 0f 3c ee 67 29 3e
       -0.31653163 -0.12069133 0.008784562 0.16543552
000130 91 23 d5 3e b0 04 14 3f 64 46 b2 bb 0c 7c fe 3c
       0.41628698 0.5781965 -0.00544052 0.03106501
000140 e8 99 16 be a7 e1 88 3b dd 85 af 3c d4 dc 01 be
       -0.14707148 0.0041772905 0.021426136 -0.12681895
000150 29 66 8f 3b 6e ac c6 3c 65 25 5f 3e ef 01 38 bf
       0.004376192 0.024252143 0.21791609 -0.7187795
000160 8a 29 b3 be c8 5f 45 3c f8 15 92 3c bd 3d 50 3e
       -0.3499263 0.012046762 0.017832741 0.20336051
000170 3f 2d 88 3e 68 48 02 3f 30 1c fc 3a 6c a6 00 bc
       0.2659702 0.50891733 0.0019234475 -0.007852178
000180 1a 92 9f be 69 a5 c6 3d 7c de fe 3a cb 1b 71 be
       -0.31166154 0.09699518 0.0019444968 -0.23545758
000190 30 db c1 ba fc be cf 3c 2a c1 40 3e bf 09 34 bf
       -0.0014790054 0.025359623 0.18823686 -0.7032737
0001a0 f4 7e a2 be e4 fb b3 3d 19 51 32 3d 91 81 83 3e
       -0.31737483 0.08788279 0.043534372 0.2568479
0001b0 2f 10 5a 3e d4 e6 e3 3e 2e 52 91 bc ed 47 60 bb
       0.21295236 0.44512045 -0.017739382 -0.0034222559
0001c0 17 1c b9 be 68 31 28 3e d4 b1 0e bd 83 c9 a5 be
       -0.36154243 0.16425097 -0.03483756 -0.32380304
0001d0 a7 6c fc 3b 78 c1 43 3d 55 bb 17 3e a1 97 2c bf
       0.007703382 0.047791928 0.14817555 -0.6741887
0001e0 bc ae f0 be d1 93 b2 3d 58 3d 2c 3d 6d a9 48 3e
       -0.47008312 0.087196 0.04205069 0.19595881
0001f0 dc 1b 1f 3e ef 6e af 3e 57 56 c7 3b 36 ac cd 3b
       0.15537971 0.34264323 0.0060832906 0.0062766327
000200 af fb 05 bf fb 5b 0e 3e 94 95 ad bc 3e f2 b7 be
       -0.52337164 0.13902275 -0.021189488 -0.35927004
000210 70 37 2d 3d c0 6d 30 3d ec 26 15 3e 9d 4f 3d bf
       0.042289197 0.043073416 0.14565629 -0.73949605
000220 7d 00 dd be 0a 7f de 3d 4c a0 84 3d d1 30 5d 3e
       -0.43164435 0.108640745 0.06475887 0.21600653
000230 03 42 09 3e 23 21 b8 3e c3 3f 87 bd 16 0b 43 ba
       0.13404088 0.3596278 -0.066039585 -0.00074403116
000240 e3 a2 14 bf 16 af ad 3d 71 71 31 bd 79 22 b0 be
       -0.58061045 0.084806606 -0.043321077 -0.344013
000250 f8 75 97 3c f4 b5 09 3d 4e 23 06 3e 6a 6e 39 bf
       0.01848887 0.03362079 0.13099405 -0.72434103
000260 78 23 da be 41 2a 00 3e b9 78 65 3d 3c c4 73 3e
       -0.42605186 0.12516119 0.056023333 0.23805326
000270 2c 81 b8 3d ab f6 a7 3e 4f bf 36 bd 5f ea 18 3c
       0.090090126 0.3280538 -0.04461604 0.009333222
000280 59 90 10 bf 1e 84 fc 3c 08 98 cb bc 52 cd 59 be
       -0.5647026 0.030824717 -0.024852768 -0.2126973
000290 e4 c5 58 b9 f3 f8 2c 3d 83 5b 3d 3e d5 70 30 bf
       -0.00020673085 0.042229604 0.1849194 -0.6892217
0002a0 7f b1 fb be 33 db 00 3e e0 66 2b 3d 37 e4 9e 3e
       -0.49158856 0.12583618 0.041846156 0.3103349
0002b0 b1 dc 91 3d e5 f9 61 3e 06 c7 5e 3c 67 f2 73 3c
       0.07122172 0.22067983 0.013597256 0.014889336
0002c0 41 26 1a bf 87 cb 4d 3d a0 77 b6 bc 0e 5d 48 bd
       -0.6021462 0.050242927 -0.022273839 -0.04891687
0002d0 80 8e db 3c 08 a9 dc 3b 12 83 49 3e a8 c8 4f bf
       0.026801348 0.0067340173 0.19678906 -0.8116555
0002e0 89 9e 04 bf e8 10 2a 3e 5b 36 2b 3d 71 ac e8 3e
       -0.51804405 0.16608012 0.041799884 0.45444062
0002f0 67 65 84 3d 5c 93 69 3e 4e e0 27 3d 05 c4 b6 3c
       0.064646535 0.2281012 0.040985398 0.022310266
000300 3d aa 06 bf f5 d6 3e bd 3e 05 a8 3a aa 00 17 bd
       -0.52603513 -0.046591718 0.0012818945 -0.036865868
000310 30 5b 83 3b 78 4b e5 3c 2c 90 40 3e 52 d2 50 bf
       0.004008673 0.027990088 0.18804997 -0.81570923
000320 cc 99 fb be a0 0f 07 3e 30 c6 09 3d df 9b 09 3f
       -0.49140775 0.13189554 0.033636272 0.53753465
000330 bd da 43 3e 0c fb 4f 3e 17 6e 02 3d 89 30 20 3d
       0.19126411 0.2031061 0.03184327 0.039108787
000340 a7 a7 fd be 12 05 d6 bd 28 53 0a bd 2e b8 9e bb
       -0.4954197 -0.10450186 -0.03377071 -0.0048437333
000350 86 af e1 bb f5 fe 62 3d 3d c7 b1 3d 20 42 63 bf
       -0.006887379 0.055418927 0.0868058 -0.88772774
000360 7b cb db be 8f 76 88 3d eb 68 a9 bc 76 d4 ed 3e
       -0.4292868 0.06663238 -0.020679912 0.46451157
000370 57 8e 50 3e 14 00 45 3e 6f e7 60 3d 41 bc cb 3c
       0.20366798 0.19238311 0.054908212 0.02487004
000380 73 c2 f5 be a9 03 2a be fe 51 c2 bc a7 94 38 bd
       -0.47999915 -0.16602959 -0.023720738 -0.04506364
000390 05 53 51 3c 05 bf 24 3d 04 77 62 3d 1a f0 83 bf
       0.012776141 0.040221233 0.055289283 -1.0307648
0003a0 0f 7c af be c1 bf c7 3c 59 a7 93 3b 06 a9 f9 3e
       -0.34274337 0.024383428 0.0045060334 0.48761767
0003b0 54 f8 59 3e 79 aa 2b 3e c2 62 43 3d 5e 52 2b 3c
       0.21286136 0.16764249 0.047701605 0.01045665
0003c0 0b 82 a7 be e4 95 86 bd b0 a3 bc 3c 32 fe 0f bd
       -0.32716402 -0.06571558 0.023027271 -0.03515453
0003d0 26 8e 23 3c b7 37 42 3d fa 0c 04 3d 15 d0 88 bf
       0.009982621 0.047416415 0.032238938 -1.0688502
0003e0 b6 8c 92 be c3 7c 34 bc 82 51 0d 3b f8 9d e7 3e
       -0.2862298 -0.011016074 0.0021563475 0.45237708
0003f0 a0 35 2b 3d 49 73 3b 3e de 9a 06 3d 15 6a c1 3c
       0.041799188 0.18305697 0.032862537 0.023610154

decoder.fc.bias f4 [2048]
000000 33 90 c5 bf f2 0f 2a 3f 3f 4d 90 3e 79 9e 17 3e
       -1.5434631 0.6643058 0.28183934 0.14806546
000010 69 17 58 3e 41 8f be 3d 40 e4 ae bd b5 09 b3 be
       0.2110268 0.09304667 -0.08539629 -0.34968343
000020 10 d2 88 be e0 0f 8a bd 33 f8 8d 3e ed ce 23 3f
       -0.26722765 -0.06741309 0.27728423 0.6398762
000030 f1 ea 40 3f 5f e8 f1 3e cf 22 2c 3e 9a bc 2f 3e
       0.7535849 0.47247598 0.16810153 0.1716179
000040 09 03 82 3e 92 c7 13 3e 69 e7 54 3e 6d 04 c7 3d
       0.2539294 0.14431599 0.20791401 0.09717641
000050 a0 49 12 bb 04 e5 ed 3c f2 87 21 be 99 a3 00 be
       -0.0022321716 0.029039867 -0.15774515 -0.12562408
000060 cb ae 9a 3c f7 f9 e0 3e 1e 98 83 3e 7a 4d 5f 3e
       0.018882176 0.43940708 0.25701994 0.21806899
000070 a3 d4 2d 3e 31 6a 39 3e 48 da 1d 3e 5c b3 15 3e
       0.16975646 0.18106915 0.15415299 0.14619201
000080 1e 3e 45 bc 9a 96 9a bd 78 70 86 be b3 cb 93 be
       -0.012038736 -0.07548256 -0.26257682 -0.28866348
000090 03 a1 a9 be fe 7e 4c be d4 28 2a be 62 01 30 be
       -0.33130655 -0.19970319 -0.16617137 -0.17188028
0000a0 c1 bb 8e be 63 92 2f bf 5e 35 d9 bd 09 f5 3a 3e
       -0.2787762 -0.68582743 -0.10605882 0.18257536
0000b0 f9 5a 5e 3e 11 09 74 3d a8 86 5f be 90 58 c4 be
       0.21714391 0.05957896 -0.21828711 -0.38348818
0000c0 1e 91 39 bf c4 b4 dc be 81 45 42 bd 1c 6f 2b 3e
       -0.72487056 -0.43106663 -0.047429565 0.16741604
0000d0 6b 7b 0c 3f 33 cb 2c 3f 05 e0 cf 3e 14 53 a3 3d
       0.5487582 0.6749756 0.406006 0.0797483
0000e0 37 e1 98 be 1d a0 b0 be db d6 98 be ed f0 14 be
       -0.29859325 -0.34497157 -0.29851422 -0.14545031
0000f0 79 67 df bd 63 87 d2 bd 94 23 66 bc bf f5 84 bf
       -0.10908408 -0.10279729 -0.014046568 -1.0387496
000100 a9 ca 33 40 ef 51 4d 3f 31 65 81 3e 75 af 86 3e
       2.8092444 0.80203146 0.25272515 0.26305738
000110 c1 f6 3b 3f ba 8e 19 3f 0d 01 f3 3e 7b 5a 05 3f
       0.7342339 0.5998341 0.4746174 0.5209119
000120 38 4d 1d 3f e6 16 57 3f a5 31 72 3f 85 a1 94 3f
       0.6144595 0.84019315 0.94607 1.1611792
000130 a7 ab ab 3f a2 29 8b 3f 87 31 8e 3f a2 1c a1 3f
       1.3411759 1.087208 1.1108865 1.2586863
000140 52 e7 a5 3f 8f b3 95 3f a4 3b 8d 3f 33 b0 7d 3f
       1.2961218 1.1695422 1.1033826 0.99096984
000150 60 bf 3e 3f 14 19 29 3f a1 ec 5a 3f 38 90 4a 3f
       0.74510765 0.6605389 0.8551732 0.7912631
000160 20 49 6f 3f 3e 6e 8d 3f 52 ac 91 3f be 26 93 3f
       0.93470955 1.1049268 1.1380713 1.1496198
000170 42 96 9a 3f 49 86 9b 3f 90 ff 90 3f b2 7b 1e 3f
       1.2077105 1.2150356 1.1327991 0.61907494
000180 e3 19 ab 3e ee 64 c9 3e ea a3 1a 3f f8 b9 14 3f
       0.33418187 0.39334816 0.60406363 0.58096266
000190 38 12 25 3f b1 23 1c 3f 1d 45 20 3f a7 74 17 3f
       0.64480925 0.6099196 0.6260546 0.5916237
0001a0 ed 51 d1 3e 26 38 8c 3e 16 a3 bf 3e c5 78 63 3f
       0.40882817 0.27386588 0.37429112 0.88856155
0001b0 9f 7d 67 3f c5 bb 5c 3f 57 8b 55 3f 43 c3 1c 3f
       0.9042606 0.86224014 0.8341574 0.61235446
0001c0 43 4d 20 3f e1 ef 6b 3f ef 1d 20 3f 97 26 67 3f
       0.6261789 0.921629 0.62545675 0.9029326
0001d0 ea 1b 88 3f 8c 38 b0 3f f4 c9 92 3f e6 34 5a 3f
       1.0633519 1.3767257 1.1467881 0.85236967
0001e0 3e 3a 3e 3f c9 1e 30 3f 59 49 55 3f 6e 31 5c 3f
       0.7430762 0.68796974 0.83315045 0.86012924
0001f0 ff d2 56 3f 09 18 45 3f 79 82 96 3e 34 8d 12 40
       0.83915704 0.769898 0.29396418 2.2898684
000200 4c c7 2b be c2 2c 2a 3f 6b cc 1c 3f 9d 5b 2e 3f
       -0.16775244 0.66474545 0.6124942 0.6810854
000210 bb 0d e7 3e ab 0a 67 3e 0d 89 ef bd aa bf 07 be
       0.45127663 0.22562663 -0.11696062 -0.13256708
000220 64 01 eb 3e 49 9e e1 3e 59 8f d1 3e 19 9e ba 3e
       0.45899498 0.44066074 0.40929678 0.36448744
000230 b3 6f 22 3e d6 f5 fe bc 15 1f 0a be fa 65 05 3f
       0.15862922 -0.031123083 -0.1348842 0.5210873
000240 08 df 20 3f cd c5 f6 3e ef b5 a7 3e 8f bb 6e 3e
       0.6284032 0.48197785 0.32755992 0.23313735
000250 89 2a bc bc ca 59 c6 be e1 59 af be a2 fe db bd
       -0.022969501 -0.3874038 -0.3424826 -0.10741927
000260 d0 3c ea 3d 0b 02 05 3e 92 95 25 3f d3 2b 36 3e
       0.1143738 0.1298906 0.6468135 0.17790155
000270 25 0b 97 3e 51 d1 54 3e 9a d4 70 3d 8f 44 a8 3d
       0.2950069 0.20782973 0.058796503 0.082162015
000280 b5 ec 43 be c6 91 18 3e 06 02 62 3e 31 2f 9a 3b
       -0.19133265 0.14899358 0.22071084 0.0047053327
000290 b1 a7 1f be 32 00 52 3d 37 51 b8 3e 93 f2 cf 3e
       -0.15591313 0.051269718 0.35999462 0.40614757
0002a0 2a 24 c4 3e 82 8d 60 3e ca 21 ec bc e9 2b fe 3e
       0.3830884 0.21928981 -0.028824706 0.49642876
0002b0 82 56 35 3f 32 d1 2d 3f 02 28 c3 3e de 7a 31 bd
       0.70835125 0.6789733 0.3811646 -0.043330066
0002c0 28 d6 15 be bd 2e e2 bd 81 50 8b 3e e1 0e ae 3e
       -0.14632475 -0.11044071 0.27209857 0.33995727
0002d0 c4 d4 a0 3e 4c a2 8d 3e 65 c3 9b 3e eb 3d f3 3e
       0.31412327 0.27662885 0.30422512 0.47508177
0002e0 b2 cd 00 3f 0e fb eb 3e 22 74 c4 3e bf 8b d2 3e
       0.50313866 0.46089977 0.38369852 0.41122243
0002f0 bc 2f 99 3e e0 f4 0b 3d 8d cc ba 3c 9b b0 72 3f
       0.2991923 0.034169078 0.022802616 0.9480073
000300 51 45 84 40 1a b7 2d 3d 1e 14 8f 3e b0 5d 2f be
       4.1334615 0.042410947 0.27945036 -0.17125583
000310 88 6e 8b be 68 2c c6 be 83 d1 b9 be 9c fb f0 be
       -0.27232766 -0.38705754 -0.36292657 -0.47066963
000320 40 e9 fe be 73 fb 03 bf c8 a7 db be 22 b5 11 bf
       -0.4978733 -0.51555556 -0.42901444 -0.5691701
000330 53 68 0a bf 1d 20 47 bf bb 78 59 bf a5 20 54 bf
       -0.54065436 -0.77783376 -0.84949845 -0.8286231
000340 08 64 52 bf a2 b1 36 bf 70 ca 08 bf 30 7a cc be
       -0.82183886 -0.71364796 -0.53433895 -0.39936972
000350 42 ba f7 be d9 16 e6 be e1 cb 24 bf b7 05 2e bf
       -0.4838429 -0.44939306 -0.64373595 -0.6797747
000360 5f 54 31 bf 8c 49 0d bf 85 16 c4 be 56 d5 0b bf
       -0.69269365 -0.5519035 -0.3829843 -0.546224
000370 71 22 11 bf fd 43 31 bf 32 76 37 bf d6 83 98 be
       -0.5669318 -0.69244367 -0.71664727 -0.29788083
000380 52 dd 89 be 1b d4 9a be 2c 95 01 bf 8a fa 90 be
       -0.26926666 -0.3023995 -0.50618243 -0.28316146
000390 9e 19 b8 be e2 86 f6 be 8f 87 cc be 66 1d fc be
       -0.35957044 -0.48149782 -0.39947173 -0.4924118
0003a0 8c eb 01 bf 73 e8 4f bf e9 14 c7 be 00 a0 1f bf
       -0.5075004 -0.81214064 -0.3888314 -0.62353516
0003b0 39 d4 0d bf ea 0f 0d bf 84 e3 1f bf 1f d6 09 bf
       -0.5540195 -0.5510241 -0.62456536 -0.5384235
0003c0 ba 51 29 bf 97 00 83 bf 2d fe 1f bf aa fd 3e bf
       -0.6614033 -1.0234555 -0.62497216 -0.7460581
0003d0 c9 a5 5c bf 8f 98 5a bf ad 58 68 bf 7f b4 45 bf
       -0.8619047 -0.85389036 -0.9076031 -0.7722854
0003e0 db d4 3e bf cb 08 3c bf da ef 73 bf c1 01 80 bf
       -0.7454354 -0.73450917 -0.9528786 -1.0000535
0003f0 5d 59 7e bf 67 ef 60 bf 4b 33 ff 3d 8e 8c 5d 3e
       -0.9935511 -0.878653 0.12460955 0.21635649

decoder.conv2.weight f4 [32, 16, 4]
000000 26 70 9c 3d ed f5 eb 3e 0e 9d e3 3c 8a 55 d8 3d
       0.07638578 0.46086064 0.02778485 0.1056319
000010 ce 78 b4 3c c5 01 64 be 4b 81 94 3e 54 fa b0 bc
       0.02203026 -0.222663 0.29004893 -0.02160374
000020 0b 4a 0e 3e 1e dd 82 bc ee b7 0f 3d e5 92 1c 3d
       0.13895433 -0.015974578 0.03508752 0.038226027
000030 b7 1e 3a be a8 86 c0 be cc f3 66 be 03 ae 25 be
       -0.1817578 -0.37602735 -0.22553939 -0.16179661
000040 fa be ae bd 5e 57 0f be e0 e2 c6 bd 5e b1 12 be
       -0.0853252 -0.13998172 -0.09711242 -0.14325473
000050 63 73 d6 bc 58 d4 51 3d c1 7a 46 bd 19 62 03 3c
       -0.026178068 0.051227897 -0.04845691 0.008018994
000060 ac 9a 67 bc 4c 9a 99 bd ae 7b 35 3e e8 40 d8 3d
       -0.014135998 -0.07500133 0.17722961 0.10559255
000070 ca 38 9c 3e 48 32 41 3e b4 94 29 3f 5e c7 4e 3e
       0.30512077 0.18866837 0.6624253 0.2019324
000080 69 03 ed bd 7d 15 a8 be 72 ea 9e be 0d 00 3c be
       -0.11572916 -0.32828894 -0.31038243 -0.18359394
000090 7a db 90 bd 9b 76 03 3c 31 e6 22 3d ba cb 0b bd
       -0.07073112 0.008023883 0.03977031 -0.034129836
0000a0 c7 34 3c bd a9 ea 93 be 2b 5c 07 be 3b d1 07 be
       -0.04594877 -0.2888997 -0.13218753 -0.13263409
0000b0 c7 95 03 bd 3e a5 91 bd d0 2f be 3c 70 cd 3f 3e
       -0.03212526 -0.071115956 0.023216158 0.18730712
0000c0 be 4d 87 bd 6a fb 8c 3e db 3e fa bc 00 dd b4 3d
       -0.06606625 0.27535564 -0.03054755 0.08831215
0000d0 6f fe 8d bb 47 30 b1 bd 76 96 a2 bd 49 51 89 bd
       -0.0043333094 -0.08651786 -0.079388544 -0.06704957
0000e0 3e 27 cf 3c a1 36 ca 3e f1 e4 2d 3d 59 07 3e 3e
       0.025287267 0.39494804 0.042454664 0.1855749
0000f0 06 f9 4e bd 05 b9 ac 3c 94 90 4a be ee 3a 23 bd
       -0.050530456 0.021084318 -0.19781715 -0.03985112
000100 3c b9 b0 bd 53 ff aa bb b9 5f 1c 3e fc fe 1f 3e
       -0.08629081 -0.0052184253 0.1527089 0.15624613
000110 d0 4d a7 3d 02 f4 92 bd db e9 b5 3c 68 b3 31 bc
       0.081691384 -0.07175447 0.022206238 -0.010845996
000120 b5 1d 85 bc 71 b8 ca 3e 84 65 83 3e d6 ec e2 bb
       -0.016249517 0.39593843 0.25663388 -0.0069252057
000130 42 64 38 be d9 58 ae 3d 95 1b 1c bf 9a c8 1c be
       -0.18006995 0.0851304 -0.60979587 -0.15310898
000140 1d 3c 3b 3d be a7 11 3e 6e 61 52 bd 7c b7 98 bd
       0.045711625 0.14224145 -0.051362447 -0.07456872
000150 d3 50 af 3d 87 f0 96 3e 1d 77 12 3e 69 7e 7c 3d
       0.08560338 0.29480383 0.1430325 0.06164399
000160 e2 28 7f bd 37 5d 9d 3e e8 01 d5 3e ba c1 2b 3e
       -0.06229485 0.3073518 0.41603017 0.1677312
000170 91 c7 57 bf 1c 33 28 3e a1 35 a1 bf a4 ba 51 3e
       -0.8428889 0.16425747 -1.2594491 0.20481354
000180 b1 f7 8e be ba 27 06 bf e2 ab b5 be ee a8 12 be
       -0.2792335 -0.5240437 -0.354827 -0.14322254
000190 b5 c2 a1 3c 3b d1 2c be 1c b2 5b 3d 9f 12 27 3e
       0.019746164 -0.1687669 0.053636655 0.16315697
0001a0 06 7e 8c bd 09 9f b0 3c fb cc 8e bd 60 02 04 3d
       -0.068599746 0.021560209 -0.06972691 0.032228827
0001b0 f6 98 cf 3c 3d aa dd 3b 03 e5 02 be 94 d9 be bd
       0.025341492 0.0067646788 -0.12782674 -0.093188435
0001c0 4e b6 b9 bb 5b 11 c1 3d 13 a6 21 3e 03 02 d1 bc
       -0.0056674844 0.094271384 0.15786009 -0.025513655
0001d0 c7 ae 7c bc f9 82 33 bd 17 ac e4 3d ae 1c 0e 3c
       -0.01542253 -0.043826077 0.11165636 0.00867383
0001e0 f9 a0 d3 3d d4 f1 a0 3d 3a 54 3b be 29 32 16 bd
       0.103334375 0.07858625 -0.18293849 -0.03666893
0001f0 75 1c e8 bd 80 8e 21 be 22 7b 95 be d1 e4 04 be
       -0.11333553 -0.15777016 -0.29195505 -0.12977912
000200 74 06 9c bc b3 bb 8d 3e 3c 09 63 be 4c c8 02 3e
       -0.019046046 0.27682266 -0.22171491 0.1277172
000210 44 c0 2d 3c 86 b2 7e bd 95 f4 f4 bd 17 13 bd 3d
       0.010604922 -0.062181972 -0.11960713 0.09232157
000220 24 92 bf 3d 1b 01 a3 3e 45 5d df 3e 9f 45 85 3d
       0.09354046 0.3183678 0.43625847 0.0650742
000230 5b c7 8e bd 4d 03 82 3e 39 de bc be cb dc 3a 3e
       -0.06971618 0.25393143 -0.36888292 0.18248288
000240 b8 21 bf 3d 96 b4 b1 3e 2d a3 1b 3f 75 69 7a 3e
       0.09332603 0.3470809 0.6079586 0.24454291
000250 e6 6e 2b bd b7 79 26 3e 41 18 3f be 14 7b ce 3d
       -0.041853808 0.16257368 -0.18661596 0.10082069
000260 3c 47 94 bd 63 47 08 bd 60 68 36 be 30 31 8e bd
       -0.072401494 -0.033271205 -0.17813253 -0.069429755
000270 44 aa a9 be 21 98 14 be ae b9 04 bf b9 68 57 bd
       -0.33137715 -0.14511158 -0.51845825 -0.052590106
000280 4c 78 58 bd fa 16 0f be 26 18 82 be ed b8 48 bd
       -0.0528491 -0.13973609 -0.2540905 -0.049004484
000290 ea 99 8c 3c 27 3b 3e 3e 4c 59 26 3e 29 69 0a 3e
       0.017163236 0.18577252 0.16245002 0.13516678
0002a0 67 4a 5c bd 1e 86 e2 39 58 6e a0 3d ec a0 45 bd
       -0.053781893 0.00043206004 0.078335464 -0.04824917
0002b0 1a a6 82 bd 19 c4 ba be ff 5a db be a5 70 a6 bd
       -0.063793376 -0.36477736 -0.42842862 -0.08126954
0002c0 f1 e5 91 3d b9 9f 87 bb 14 ba 7c 3e 74 92 82 3c
       0.07123936 -0.0041389135 0.24680358 0.015938975
0002d0 60 42 40 3c 35 33 34 bc d9 41 cf 3d 26 75 d0 bc
       0.011734575 -0.010998537 0.10119981 -0.025446486
0002e0 0c 22 c8 bd 1d 32 83 3d 6b 78 a4 be a5 50 9f 3d
       -0.09772119 0.06406043 -0.32123122 0.077790536
0002f0 58 57 07 3d 91 de 96 3e 0b 8b d9 3e 8c 57 30 3e
       0.033042282 0.2946668 0.42488894 0.17220896
000300 96 2d 2b bd d9 a2 c7 bd 76 3e 25 3e 46 43 50 3c
       -0.04179152 -0.097478576 0.16137108 0.012711352
000310 91 6f 0f bd 53 60 37 3e a1 05 c1 bd 81 b6 87 bc
       -0.035018507 0.17907839 -0.09424902 -0.016566517
000320 4d 5f 1f bd 8d f1 70 3e 97 38 f0 3d d4 c7 92 3b
       -0.038909245 0.23529644 0.11729544 0.004479388
000330 5a c2 ef 3d ce 26 e7 3e 57 37 e5 3c ac a6 6c be
       0.117069915 0.45146793 0.02798049 -0.23110455
000340 1b cb 89 3d 09 13 3a 3e 4d ec 6e 3e 2c 39 e6 3c
       0.067281924 0.18171324 0.23332329 0.028103434
000350 bc 5a d6 39 6d 1f 15 3e f1 ae e1 3d 86 61 45 bd
       0.00040884863 0.14562769 0.110196956 -0.04818871
000360 d9 4d db 3c 23 1b 9b bd 72 a2 58 be 62 e8 1b bd
       0.02677052 -0.07573535 -0.21155718 -0.038063414
000370 e1 92 98 3f 48 f1 73 3e 0e a5 9c 3f b5 ae 0f 3e
       1.1919824 0.2382251 1.2237871 0.14031489
000380 94 bc f9 bd cd 54 24 be 75 5e e7 bd 86 dd 71 bd
       -0.121941715 -0.16047974 -0.11297313 -0.05904915
000390 77 61 8f 3d ed 94 0d bd ac f7 d5 3d 5c 70 9b 3d
       0.07001012 -0.034565855 0.1044763 0.0758979
0003a0 60 97 bf 3d 55 f9 18 bd ec ce 4c bd 0d 92 bc 3c
       0.09355044 -0.037347157 -0.050002024 0.023018861
0003b0 82 79 70 3d 8b f9 ac 3d c2 50 1d 3e 76 cc 24 3e
       0.05870963 0.08446034 0.15362838 0.1609362
0003c0 23 d4 0c 3d 03 f7 dd bd e5 a3 37 3d 24 ca b4 3c
       0.034381997 -0.10838129 0.044834036 0.022069044
0003d0 26 e1 1c bc a8 56 5e 3d 13 f1 04 3d 3c 42 bf 3c
       -0.009575164 0.05428186 0.03245647 0.023347013
0003e0 a1 86 82 3d f6 ab 95 3d bb 42 33 bd be d1 4f bc
       0.06373335 0.073081896 -0.04376481 -0.012684284
0003f0 5b b6 3d 3e f3 f5 15 be 75 81 c8 be 8a 2b 69 bd
       0.18526594 -0.14644603 -0.39161268 -0.056926288

decoder.conv2.bias f4 [16]
000000 4e c9 a5 3f d0 8b bf 3f 1e dd eb bf e1 a9 fd bf
       1.2952058 1.4964542 -1.8426855 -1.9817468
000010 c4 0d f4 3d 8d cd 4e 3f 63 9a 33 3e 07 43 c8 bf
       0.11916688 0.80782396 0.17539363 -1.5645455
000020 86 2e 0a c0 56 9e 0a c0 9a 5a 8c 3f 84 6a 0b c0
       -2.1590896 -2.165914 1.0965149 -2.1783762
000030 7b 17 8c 3f ad 96 16 3f ef 2c e4 bf a3 0d 04 c0
       1.0944666 0.58823663 -1.7826213 -2.0633323

decoder.conv1.weight f4 [16, 1, 4]
000000 e9 be 15 3c aa 67 31 3d dd e1 0d 3e 62 d7 ae 3d
       0.009139755 0.043311752 0.13855691 0.08537175
000010 ef db b0 3c ee 03 0a 3e 8a a7 f2 3d 1b 89 55 3d
       0.021589248 0.13478062 0.11848362 0.052132707
000020 6f 67 2d 3d 0b cc cc 3d bc 18 9b 3d 5f 28 95 3c
       0.04233497 0.099998556 0.07573077 0.018207727
000030 f2 45 9d 3c 4d 46 94 3d d2 66 b7 3d 49 8b 15 3d
       0.019198392 0.07239971 0.08955158 0.036509786
000040 35 60 98 bc 77 b3 a1 bd ec 62 e0 bd 6d ef 49 bd
       -0.018600563 -0.07895558 -0.10956368 -0.0493006
000050 5e 59 2d 3d 7e 37 fa 3d f3 87 c1 3c 68 b6 e8 bc
       0.042321555 0.122176155 0.023624396 -0.02840729
000060 ce eb d9 bc 48 70 a1 bd 0a 9b b7 bd 26 35 19 bd
       -0.026601698 -0.07882744 -0.08965118 -0.037404202
000070 bd b1 dd bd ea 1b e0 bd cd ed df bd d2 03 dd bd
       -0.108249165 -0.10942824 -0.10934029 -0.10791744
000080 3c 72 e6 bc 2f af 9c bd e8 56 95 bd 04 03 c8 bc
       -0.028130643 -0.07650601 -0.07291967 -0.0244155
000090 02 5c 47 bd 2e 3f e1 bd bb 91 a8 bd 91 ce aa bc
       -0.04867173 -0.10998379 -0.08230921 -0.020850452
0000a0 4a d3 8d 3d 02 88 27 3e 2b 08 52 3e 76 5f 30 3d
       0.06925066 0.16360477 0.20510928 0.04305979
0000b0 eb 5b 11 3d cd 91 bf 3d 40 61 b0 3d 35 6c e4 3c
       0.03548805 0.09353981 0.08612299 0.027883628
0000c0 ff ea 91 3d 88 39 2a 3e 66 17 55 3e f5 57 3c 3d
       0.071249 0.16623509 0.20809707 0.04598232
0000d0 66 87 7a bd 93 b5 c9 3d 95 49 04 3e 8e 1e d6 3d
       -0.061164282 0.09849086 0.12918694 0.104550466
0000e0 72 56 41 bd 86 af 3c be 95 8b 6a be 26 0d bc bd
       -0.04720158 -0.18426332 -0.22904809 -0.09182195
0000f0 bc 0c ae 3c 0e db 98 3d ae 8a bc 3d 86 cf 1e 3d
       0.021246307 0.07463656 0.092061386 0.03877213
