wavae_notebooks/wave_vae_SYNLP.pth (torch, 423583 bytes, 13 tensors)

encoder.conv1.weight f4 [16, 1, 4]
00000000: 3eda b53e e227 403e 7f32 7abe e99d 0fbf
00000010: 38ab 04bf 6cea acbe b3bf 473e ff74 d03e
00000020: 5985 93bc 046b 94bc a57b 98bc 31f2 9dbc
00000030: 8f9c 64bf a949 b73c 29fc a2bd 65f8 c9bf
00000040: 1240 763d dd69 9a3e 0b95 6a3d 3137 e3bb
00000050: 5e0c 9f3e 666a f1be f730 c6be f862 e33e
00000060: 1480 763e 9728 a03d 4a0a 27bf 23cc 863e
00000070: 0613 5dbd 3b25 813e 4970 e93e f3fa 6ebe
00000080: 35c7 c5be 32fd abbe 0788 ccbb f513 163f
00000090: 99e2 a13e 0942 dc3e e912 53be 00be d4be
000000a0: b528 9f3e 7aba 9fbe a971 a3bd a8eb d63e
000000b0: 3339 24bd d3f7 703e 84e7 333e 1246 eebe
000000c0: dbfb 21bf c2df f33e 5a74 883e dd71 02be
000000d0: 5a4d 07bf 2455 f33c 6be2 7f3e 15b9 22bf
000000e0: 5e8e 403f b143 89be 3b07 8abe 797f a1be
000000f0: 46c2 d6bc d492 d6bc bd72 d6bc 0356 d6bc
0.35518068 0.18765214 -0.24433325 -0.56100327 -0.5182376 -0.337726 0.19506721 0.4071426
-0.018007921 -0.018117435 -0.018613646 -0.019280525 -0.8930139 0.022373991 -0.07958252 -1.5778929
0.060119696 0.30158892 0.057271045 -0.0069340696 0.31064123 -0.47151488 -0.38709232 0.44411445
0.24072295 0.07820242 -0.65250075 0.2632762 -0.05397322 0.25223717 0.4559348 -0.23337917
-0.38628545 -0.3359161 -0.0062418017 0.586242 0.31618193 0.4301913 -0.20612682 -0.41551208
0.31085745 -0.31196958 -0.07980663 0.41976666 -0.040093612 0.23532037 0.17568785 -0.46537834
-0.63274926 0.4763165 0.2665127 -0.12738748 -0.52852404 0.029703684 0.24988715 -0.6356366
0.75217235 -0.26809457 -0.2695864 -0.31542566 -0.026215684 -0.02619306 -0.026177758 -0.02616406

encoder.conv1.bias f4 [16]
00000000: 71ce 843e 17de 783e 28fc 0ebd c28e f63d
00000010: bdde 0cbd 09d9 a536 3dcf 4b39 0f0c b9be
00000020: 4003 383d 64f6 d3bd 883f f1be 9edb d53c
00000030: 2de0 b73c de37 803e 112e d3b9 cdc1 cabc
0.25938752 0.2430347 -0.034908444 0.12038948 -0.034392107 4.9426494e-06 0.00019436791 -0.36142012
0.044924974 -0.1034973 -0.47118783 0.026105698 0.022445763 0.25042623 -0.00040279378 -0.024750615

encoder.conv2.weight f4 [32, 16, 4]
00000000: 0947 46bd 112c 02be 2cbc 543d b64e 773d
00000010: f101 71be 7b66 82bd 66a7 32be 0dc6 d9be
00000020: 6e0c c43c 5410 b63c 0f72 993c 021e a13c
00000030: b640 c0bb 6550 e797 3401 db29 f9f3 ea3d
00000040: 8d63 833e 09fb 523d 673d 5fbd 94f0 88be
00000050: 4e4f 9cbd 2a6d 52bd b38e 73be ddce 4bbe
00000060: 227a a43d 922c c3bd f5df 823d 595c 9abe
00000070: 5ce2 acbd 9303 16be d2b7 81be 115d f33e
00000080: 9f09 22bd b05b 133e 7d1d 373e ed6f bc3c
00000090: a262 88bd 5568 a5bd b429 0a3e 4e9f 893e
000000a0: 3919 663e 1e66 143f 9fca aabe f0ec 0480
000000b0: 0b49 11be 0627 533e 583c c33c 6129 8dbd
000000c0: 856b 48bf b809 94bd db29 21bd bd81 bd3d
000000d0: 9d40 ba3c d888 acbd 08ee 49bd bf40 553e
000000e0: 285c dfbe a2c2 26be a619 f5bd e37e 423d
000000f0: 53d7 9dbb 3a77 8bbb 830e 6cbb 157b 4cbb
00000100: 0e0f 94bd 8c76 763c 6e75 98bd fb54 c13d
00000110: 8e44 fd3d bf47 5e3d 6422 6f3d 39ea 3c3a
00000120: 03b8 0d3d 265a de3c ce81 0c3d 87a3 1c3d
00000130: 5ea3 f13e 49ff e23e 249a 0600 1bd7 0180
00000140: 2911 fabd 42c9 5cbd b34e 043d 2b95 6d3d
00000150: 248a a03c 377d 7c3d a676 053c 5707 6bbe
00000160: 6587 5abe 7b84 0fbc 62b5 e3bd b6ec 72be
00000170: 8003 6ebf b99e cdbd d779 f8be fb43 7cbf
00000180: d24e 40be ad27 aebc f7ef 053d e1a8 ebbc
00000190: 6689 873e 5312 833c 0cfc 0abf 55db 16bf
000001a0: 121b c9be 532b 343f aa44 053e 533c f0bc
000001b0: b5ba f9bd 1f09 f4bc a23a 8dbe e712 29be
000001c0: ea81 a53d aa43 ae3d 0278 11be e0ba 4d3d
000001d0: 8d5f 7fbe 190f a1be 7bab 6cbf a4cb 00c0
000001e0: 7a55 36bf 34b6 c13b 1e14 8b3d a4ae 1fbe
000001f0: 48d3 403c 6e9c f93b 36ac e23b 3fe7 d23b
00000200: 4d9c 3498 3ed3 0b99 48b0 689a 77dc 2298
00000210: b50a 649b d1ce d09c 2945 3c9b f9c3 2999
00000220: fd8f 1080 00c6 0680 9508 1300 25f0 1180
00000230: 21df 0200 7f1f 0100 94f1 0280 b03c 0380
00000240: 0510 b6b0 1879 17b1 7979 14b1 bb59 24b1
00000250: 9f28 0900 0f1b 0380 8785 0880 f708 0080
00000260: e88f 0380 c7fd 0100 d69d 0600 19f4 0400
00000270: c33d 0300 a352 0800 6310 0800 5b02 0000
00000280: 6faa 0380 8826 0100 4efe 0000 6876 0180
00000290: d1f9 0500 752f 0480 efcf 0200 0a15 0800
000002a0: 975a 0c00 3b6d 0b00 e863 1500 a8be 0780
000002b0: 0182 0180 7c4e 0000 a193 0600 6856 0200
000002c0: 039e 0080 9033 0100 a0be 0100 6415 0500
000002d0: ec9e 0680 3b6a 0300 0e19 0000 b53c 0800
000002e0: 5a33 0080 2d17 0500 4aad 0480 2419 0380
000002f0: f6d5 0980 f499 0980 c949 0c00 839b 0180
00000300: 1618 a6bc 6468 c6bb f98b abbd 6e39 f6bc
00000310: 94ef 12be fa81 a2bc e615 0fbe ea56 27be
00000320: a766 18bd 31d7 34bd b42e 41bd 1cf4 28bd
00000330: 901f 71bd cf2b a03d 2e14 553e efee 0abf
00000340: a4f6 ee3d 0391 c0bc aa49 17be 047e 84be
00000350: b3ff 3fbd e72f 0cbe 31f5 88be 86b8 a9be
00000360: 2f2f ba3d cdac cd3c 498c 29bd 11c0 83bc
00000370: f73f 4d3e a9ca 7f3e 3ef5 ecbd ec01 edbd
00000380: 4068 34bf 7fb8 813e e87d 083e 40fe 0e3e
00000390: 11bd 60be 36f3 c2be 48df c13d 4cce f03e
000003a0: 175a dbbe 55df e4be 27dc 8abe 46b5 1fb7
000003b0: a325 2e3e bebf efbd cae3 7ebe 9541 d7be
000003c0: e122 c6bf 9a30 3cbe 9cf0 f3bd 36d8 9f3d
000003d0: e415 973e 6ca4 dc3d becc 103e efce 0bbe
000003e0: a6e2 323d b756 e63d 50a4 7bbe 629c 59be
000003f0: 9ae7 a139 2ff1 cd39 13e9 003a b12e a23a
-0.04840759 -0.12712122 0.051937267 0.0603778 -0.23535897 -0.06367203 -0.1744667 -0.42533913
0.023931708 0.022224583 0.018731145 0.01966763 -0.005867089 -1.494832e-24 9.7257624e-14 0.11472315
0.2566189 0.051508937 -0.054501917 -0.26746047 -0.07632314 -0.05137364 -0.23784904 -0.19903131
0.080311075 -0.095299855 0.06390373 -0.3014858 -0.08441612 -0.14649801 -0.25335556 0.47531942
-0.039559957 0.14390445 0.17882343 0.02300259 -0.06659438 -0.080765404 0.13492471 0.26879352
0.22470559 0.5796832 -0.33357713 -4.52339e-40 -0.1418802 0.20620355 0.023832485 -0.06892658
-0.7828906 -0.07228416 -0.039346557 0.09253261 0.022735888 -0.084245384 -0.04929927 0.2082548
-0.43624997 -0.16285184 -0.11967783 0.04748429 -0.0048169284 -0.0042561563 -0.0036019392 -0.0031201292
-0.07229434 0.015042912 -0.07444273 0.09440037 0.123665914 0.05426764 0.058382407 0.0007206533
0.034599315 0.027142595 0.03430348 0.03824189 0.47194952 0.44335392 6.06308e-40 -1.69001e-40
-0.12210304 -0.053902872 0.032301616 0.058003586 0.01959712 0.06164285 0.008145964 -0.22952019
-0.21340711 -0.008759613 -0.111185804 -0.2372311 -0.9297409 -0.100400396 -0.48530456 -0.9854123
-0.18780068 -0.021259153 0.03269955 -0.028767051 0.26472014 0.015999949 -0.54290843 -0.58928424
-0.39278466 0.7037861 0.13014475 -0.02932564 -0.12193815 -0.029789506 -0.27583796 -0.16511117
0.0808142 0.08509 -0.14205936 0.050227046 -0.24938793 -0.3145683 -0.9244916 -2.0124292
-0.71224177 0.005911613 0.067909464 -0.15593964 0.011769123 0.007617525 0.006917502 0.006436258
-2.3343366e-24 -7.2287916e-24 -4.8118874e-23 -2.1049316e-24 -1.8863178e-22 -1.3817746e-21 -1.5573342e-22 -8.7766716e-24
-1.521021e-39 -6.22042e-40 1.747953e-39 -1.647351e-39 2.63715e-40 1.03134e-40 -2.70333e-40 -2.97277e-40
-1.3246796e-09 -2.2042226e-09 -2.1605884e-09 -2.3916147e-09 8.41092e-40 -2.85213e-40 -7.82585e-40 -3.216e-42
-3.2713e-40 1.82874e-40 6.07634e-40 4.54908e-40 2.97662e-40 7.64328e-40 7.40562e-40 8.45e-43
-3.36647e-40 1.05658e-40 9.1227e-41 -1.34312e-40 5.48795e-40 -3.84366e-40 2.58264e-40 7.42231e-40
1.134523e-39 1.049375e-39 1.964385e-39 -7.11243e-40 -1.38472e-40 2.8155e-41 6.03972e-40 2.14668e-40
-5.6684e-41 1.10333e-40 1.60219e-40 4.66851e-40 -6.08023e-40 3.13615e-40 8.988e-42 7.56462e-40
-1.8421e-41 4.67491e-40 -4.29506e-40 -2.84525e-40 -9.03274e-40 -8.81747e-40 1.128495e-39 -1.47623e-40
-0.020275157 -0.006054925 -0.08376307 -0.030056681 -0.14349204 -0.019837368 -0.13973197 -0.16341749
-0.037207272 -0.044150535 -0.04716368 -0.041248426 -0.05886799 0.07820856 0.20808479 -0.54270834
0.11668137 -0.023506647 -0.14774194 -0.25877392 -0.046874713 -0.13690148 -0.26749566 -0.33148593
0.09091031 0.025106812 -0.041393552 -0.016082795 0.20043932 0.24979652 -0.11570214 -0.11572632
-0.7047157 0.25336072 0.1332928 0.13964176 -0.21947123 -0.3807618 0.09466416 0.47032392
-0.4284217 -0.4470164 -0.27121088 -9.5193445e-06 0.17006545 -0.11706494 -0.24891582 -0.42042223
-1.5479394 -0.18377915 -0.11911127 0.07804911 0.2950889 0.107735485 0.14140603 -0.13653158
0.04367318 0.11247008 -0.24574399 -0.21251062 0.0003088087 0.00039280343 0.0004917543 0.0012373534

encoder.conv2.bias f4 [32]
00000000: c5a3 40bc 3fe5 5d3c 3847 23ba 12e3 c93d
00000010: c693 70bd e406 5ebc ae40 27bd e8f0 b1bd
00000020: bad2 ce3d 2a23 8c3d d73c c53c d179 04bd
00000030: 279a ea3c 33e5 38be 1e28 4bbd e0b0 93bd
00000040: f04b 153d bbaf d19b e28f b1bc 48bd ce3d
00000050: 41c7 efbc 79e2 b7bc 35e7 6abd 7c49 6dbc
00000060: eef2 e73b 8644 1abd cc8e 95bd abeb a0bd
00000070: 03be 37bd 2dcb dc3c a9c0 32bb dab5 29ba
-0.011757796 0.013543426 -0.0006228569 0.09857763 -0.058734678 -0.013551448 -0.040833168 -0.08688527
0.10098787 0.068426445 0.024076862 -0.032342736 0.028637959 -0.18056183 -0.049598806 -0.072114706
0.036449373 -3.4689713e-22 -0.021675054 0.10094696 -0.029269816 -0.022446858 -0.057349402 -0.014482852
0.00707852 -0.037663005 -0.07302627 -0.0785745 -0.044858944 0.02695235 -0.002727548 -0.00064739364

encoder.fc_mu.weight f4 [16, 2048]
00000000: aaab 79bc 2ba3 a3be df59 95bd 5730 40bc
00000010: 2baf f4bd 335f 67bd f55c 56bd 34b6 c63e
00000020: ca5d b5bd 4a7d 543d 16f6 fdbd baad f1bd
00000030: 5e19 93be 05d6 83bc 1041 39bd a91c 9cbd
00000040: 3f85 e5bd 5628 763d 20c7 c73d 0e29 e63d
00000050: 2e06 f23d c4ea 673e 5585 38be d5d2 103e
00000060: 5bbe d1bc c03b c3bc cf64 da3d 6567 a7be
00000070: a946 803e 6fa0 c33d f0ac 28bc acb3 6b3c
00000080: dccb 853e 33c9 663e 394c ed3d e20e 1dbe
00000090: c4d5 753d a9e9 57be a09c 96bc a76e e93c
000000a0: 7235 63be 008e bf3d b496 5a3e 095e 7abe
000000b0: 4c0a 29bd dd75 0cbe 4fe3 003d 53dd 453c
000000c0: 9ed3 063e 1f30 1d3c 3703 523d e026 093e
000000d0: 452e 643e ad9d 47bd d995 913d 07c4 6fbd
000000e0: a02e 10be c5aa 71bd 4999 2bbe be74 cabe
000000f0: 7c0e 86bd 85bc 5fbe f94a e9bd c250 99bd
00000100: a824 9fbe 90dd 93bc 7ed7 b8bc a803 c5bd
00000110: 358d cebd 56fb 43be 7619 363e ba5a 2b3e
00000120: f673 b03e c9b8 203e a7d6 3c3d 5c4f 27bc
00000130: 3810 ae3b e8ae fbbd ffce 8abe 0846 84be
00000140: 1e3d 123c e746 5dbe bc52 1d3d b4db 16bd
00000150: ed0e 37bd 1e19 2ebe 2910 073e ede2 a23d
00000160: 846b a83e c0bb d3bc 93d7 403e b933 6f3d
00000170: 9f19 ddbe b26a 123e db98 f6bd e808 76bd
00000180: 1740 88bc 923b 203d 8016 abbc 627f 873d
00000190: 48d4 14be a217 02bd e802 8abe 1d71 bb3d
000001a0: 6fab 0b3e 4202 e9bc d570 ed3d e1be 0e3e
000001b0: 4b3b 8b3e a459 203d 7d5e 313d d488 693d
000001c0: 925b 133c 37c5 f53d ac3a 98be e53c a13d
000001d0: 0373 223e 8496 8d3c c41f 57bd 5c30 efbe
000001e0: ed94 fa3d c9a6 253d 4e32 313e a57b ae3e
000001f0: 9c31 ae3b 9f17 3d3c 8f0b aebd 0577 0380
00000200: f553 0780 093f 0e80 8f15 0380 2287 0400
00000210: d66e 0e80 452a 1100 c0e1 0880 2154 0600
00000220: 7d09 1300 c573 0e80 210d 1200 f700 0200
00000230: a290 1500 40eb 0a80 90a6 0f80 fca3 0a80
00000240: b399 0800 65d6 0780 8c7f 0c80 3478 0d80
00000250: 3ae8 0900 36f1 0800 b4fc 0200 6ae6 0000
00000260: 2e6b 1200 676e 0980 be52 0c00 5a8c 0c80
00000270: 7b25 0c00 58d0 0880 1ec0 0b00 fdd4 1400
00000280: 2b71 1300 91c1 0600 db8a 0500 c4a7 1080
00000290: 3486 0f00 dd17 0200 a24e 1580 21c5 0b80
000002a0: 44bb 0c80 1443 0f80 b41f 0380 fca2 0880
000002b0: 619c 0d00 2f7e 0200 1e20 0f00 8ae8 0380
000002c0: 3b82 0b80 07ce 1400 bdaf 1000 7eac 0d00
000002d0: a97c 0500 c9e5 0700 8bd4 0180 3e82 0500
000002e0: 58f9 0a80 9a12 0080 006c 0a00 579c 0d80
000002f0: 5113 1180 2b90 1280 34c9 0200 f527 0c80
00000300: 8abb 8a3e 508e 8f3d 7101 1a3e 02ba a73e
00000310: 2d24 1b3e 19ba 623e fa37 883d 52c9 d7bd
00000320: 9c42 00bf c468 b1be 4e28 ebbe 0e1a 11bf
00000330: 172a 93be 2a71 cbbd ba5c ae3d 99c7 b43c
00000340: 5074 063e 144c 013e 9e5b bb3e 0675 da3e
00000350: b229 8b3e c50b 2d3e 98b4 193e b805 803e
00000360: 41e3 9b3b 4403 b3be fac7 b8be 0287 01bf
00000370: cd4c fabe 4b45 b2be 7121 d5be 988d 27be
00000380: 58da 0fbd eda4 d33d cb2c 113e 7085 9b3e
00000390: 502b 693e fd1e 9b3e 9c64 4e3e 1b74 d23e
000003a0: 3a42 193e 7adc d03d fd0f f8bc 7067 8fbe
000003b0: 725e afbe 5032 a7bd 0374 8abe 5d7b 1ebe
000003c0: acc1 e9bd 17d6 2a3e 7211 adbd d50d 923e
000003d0: 2f25 883e 8601 cebd c7ce 34bd 8b95 c4bc
000003e0: 552d f53c eecf 343d 606f c83d 9161 533b
000003f0: c3a6 423e 66fd 603e 6a66 9c3b dd27 0a3e
-0.015238682 -0.31960425 -0.07292532 -0.011730275 -0.11947473 -0.056487273 -0.052334744 0.38810885
-0.088557795 0.051877297 -0.12400453 -0.11800714 -0.2873029 -0.016093263 -0.045228064 -0.07622654
-0.11207055 0.06009706 0.09754777 0.11238299 0.11817585 0.2264815 -0.18019612 0.14142926
-0.025603464 -0.023832202 0.10663759 -0.3269607 0.2505391 0.09552085 -0.010295138 0.014386099
0.26132095 0.22537689 0.11586804 -0.15337709 0.060018316 -0.21085228 -0.018385231 0.028495146
-0.22188357 0.09353256 0.21346551 -0.24449934 -0.041269585 -0.13716836 0.03146678 0.012076694
0.13166663 0.0095939925 0.051272597 0.13393736 0.22283275 -0.048734356 0.07108659 -0.058536556
-0.14080286 -0.05900075 -0.16757692 -0.39542192 -0.065457314 -0.21849258 -0.11391253 -0.074861065
-0.31082654 -0.018049985 -0.022563692 -0.09619838 -0.10085527 -0.19138846 0.1778315 0.16733828
0.3446347 0.1569549 0.046103146 -0.010211792 0.005311992 -0.1228922 -0.2711105 -0.2583468
0.008925704 -0.21609078 0.03840898 -0.03683062 -0.04469197 -0.17001769 0.13189758 0.07953439
0.32894528 -0.025846362 0.18832235 0.058398936 -0.4318361 0.14298514 -0.120408736 -0.060067087
-0.016632123 0.03911931 -0.020884752 0.06616093 -0.14534104 -0.03176082 -0.26955342 0.09152434
0.13639615 -0.02844346 0.115937866 0.13940002 0.27193674 0.039147988 0.043303 0.057015255
0.008994 0.12000506 -0.29732263 0.07872943 0.15864186 0.017283686 -0.05252053 -0.46716583
0.122354366 0.04044226 0.17304346 0.34078708 0.0053159725 0.011541276 -0.084982984 -3.18203e-40
-6.72967e-40 -1.30831e-39 -2.8324e-40 4.15819e-40 -1.325457e-39 1.576367e-39 -8.15668e-40 5.81193e-40
1.748278e-39 -1.327227e-39 1.657749e-39 1.84017e-40 1.98043e-39 -1.002747e-39 -1.437284e-39 -9.77181e-40
7.89821e-40 -7.19759e-40 -1.147781e-39 -1.236982e-39 9.09827e-40 8.21214e-40 2.74324e-40 8.2657e-41
1.691488e-39 -8.66124e-40 1.131708e-39 -1.152375e-39 1.115471e-39 -8.09424e-40 1.079109e-39 1.913116e-39
1.785471e-39 6.20452e-40 5.0899e-40 -1.529551e-39 1.425675e-39 1.92232e-40 -1.956754e-39 -1.080907e-39
-1.169204e-39 -1.401596e-39 -2.8688e-40 -7.93152e-40 1.24996e-39 2.28937e-40 1.389054e-39 -3.58926e-40
-1.056908e-39 1.910619e-39 1.532411e-39 1.25574e-39 5.03897e-40 7.2528e-40 -1.68082e-40 5.059e-40
-1.007803e-39 -6.673e-42 9.57098e-40 -1.249946e-39 -1.568133e-39 -1.704757e-39 2.55849e-40 -1.11636e-39
0.27096206 0.07009566 0.15039612 0.327591 0.15150519 0.22141303 0.06651302 -0.10536446
-0.5010164 -0.34650242 -0.45929188 -0.5668038 -0.2874305 -0.09933694 0.0851378 0.022067832
0.13130307 0.12626678 0.36593336 0.42667407 0.27180248 0.16899021 0.15010297 0.25004363
0.0047573154 -0.3496343 -0.3609007 -0.5059663 -0.4888672 -0.3481849 -0.41627076 -0.16362607
-0.03512034 0.103341915 0.14177243 0.30375242 0.22770429 0.3029708 0.20155567 0.41104206
0.1496667 0.101983026 -0.030281061 -0.28008604 -0.34251744 -0.08163893 -0.27041635 -0.15476747
-0.11413893 0.16683231 -0.08450593 0.28526178 0.2659087 -0.10058884 -0.04414251 -0.023997089
0.029928843 0.04414361 0.09786868 0.00322542 0.19008927 0.21971664 0.004772951 0.13491769

encoder.fc_mu.bias f4 [16]
00000000: 3f52 efbc b4d7 e4bc 8a97 ba3b 1184 c63b
00000010: f99e 09bd 5960 d9bc bde1 103c f65e 05bc
00000020: b03d 21ba 153f e53c 3979 9ebb 07c9 84bc
00000030: 9f88 b03a 7af0 093c cb25 8dbc de4b 3f3c
-0.029214023 -0.027934887 0.0056943344 0.006058224 -0.033598874 -0.0265352 0.008842883 -0.008140316
-0.0006150855 0.027984181 -0.004836228 -0.016209139 0.0013468451 0.0084191505 -0.017229935 0.011675803

encoder.fc_logvar.weight f4 [16, 2048]
00000000: 82a9 b43e be92 4b3e 3958 61bd 7cea 50be
00000010: ec82 1cbf 0854 8cbe b8d4 f1bd 5afa 73be
00000020: f85d 21be 657d c7bd b335 063e c8e8 aa3c
00000030: a696 6f3d 7e34 21be d104 ddbd 8e61 0bbf
00000040: 8466 aebd e9d6 51be cc07 073e ce00 1ebe
00000050: 6e58 b63b 93f9 233c 9bf4 bebd 7f61 9bbe
00000060: f47a ef3c 9fe5 0cbf 3b26 bdbe 8355 023d
00000070: 05cd 0cbe d2ac 6c3d 2b1c 693d f359 083e
00000080: 5db6 ccbe b96d 94bd 4d3c 243e de49 61be
00000090: 5c35 d63d 8ad8 55be 1b05 18be 8e9a 683e
000000a0: 95c9 14be d21c c73e 84c9 f4bd cede c5be
000000b0: 0acc 3e3c 7c10 423e 62bd b03a d8c6 4c3c
000000c0: 34b1 65bd a509 f0bd 2c5e 8cbe 6dc4 4bbc
000000d0: 5d1a a73c 3c8c 723e 294a efbd 476b 6b3e
000000e0: 2f73 183d ec98 11bc bd00 013e b7ba fdbd
000000f0: 8763 b93d b44d 8ebe 4071 adbe 89bd d43d
00000100: 4397 4c3d 7da5 c43c 40c4 c43d 5564 42be
00000110: a942 f2be 57c1 633e c760 e2be 993b b2bd
00000120: 812d 7fbe afbf e8be 7fad 1fbe 993d d4bd
00000130: e6a4 9cbe 3434 b1be bdcd 8cbe 9eda 74be
00000140: ec30 9cbe 4755 b7bd 52ec 143c 1406 37be
00000150: c6e5 fcbd cd80 53be 2983 e0be d47f c7be
00000160: 1082 a9be eeff e0bd 8b8a adbe e73a 88be
00000170: 4164 81bd ac71 2abd 9f7a ebbc 2130 a2bd
00000180: 3328 a2bc 9787 f53a dda7 2e3e 0878 bb3d
00000190: d693 08be 1918 f33d 8d00 55be 7413 24be
000001a0: e499 60bd e2c2 223d d4af f63d ef14 8e3e
000001b0: c690 adbd 0d80 02be 70af 003e 7972 7ebe
000001c0: a42b af3d 68bf 0cbe ddd5 343e 2901 13bc
000001d0: 6ae5 26be 2737 ea3c e669 aebe 8c2f 53be
000001e0: 87b9 aebd 1db3 54be b784 553e d4a8 333e
000001f0: 6c07 afbd 19a7 59be 7010 b4bd c6a7 0f80
00000200: b917 0a80 fcd4 0f00 8b0d 0f00 9243 0680
00000210: 30ec 1200 8cb5 0400 d3ad 1080 f166 0080
00000220: 9d73 0a00 59c2 0580 0892 1080 d380 0c00
00000230: 5e40 0400 e26d 0b80 be37 0000 c10a 0100
00000240: 7739 0b00 e61c 0f00 34ce 0b80 385e 0f00
00000250: 987e 0600 5ada 0600 6947 0080 7283 0980
00000260: 9aa5 1500 3ebf 0700 7c91 0700 c660 1180
00000270: 38d2 0100 4fdc 0300 3c7c 0f80 4205 0080
00000280: 5e81 0580 27f2 0400 3adf 0a00 5f21 0a80
00000290: c009 1500 353f 0380 713d 0a00 5b7c 0b00
000002a0: 9a5b 0600 0801 1100 791d 0780 6e93 1380
000002b0: 6cc2 0b00 0822 0200 670b 0280 a932 0e00
000002c0: a1b4 0b00 8fef 0b00 57d8 0e00 1b20 1200
000002d0: 9ba2 0200 0348 0400 ea19 1300 c122 0300
000002e0: 975f 1180 e377 0700 32da 0800 8a8c 0980
000002f0: 37ba 0d00 3619 0100 4a82 0600 b82c 1300
00000300: 0b41 08bd a7c4 d93c 3a31 b9bd 3019 43be
00000310: 0b5e b7be 8f55 00be cc35 3bbe 5658 1d3e
00000320: 6630 afbe 2bd0 5dbd 5930 9cbd 0d2e e5bb
00000330: 229e 703d 5e6d 263e d9f1 36be 3126 43bd
00000340: b38b cbbd 682b a63d b318 e03d 84a4 c0be
00000350: b177 c7bd bb13 eebc 3610 643d 0b5a ac3d
00000360: 85f0 003e 1065 89bd 92bf eabe 2200 a1bd
00000370: ceba ddbd 0a34 683e f570 42bd 77c2 8abe
00000380: 3779 37be 0427 8cbe 893a 253e 8618 50be
00000390: 3c0e 85be e5a4 b1bd ad45 6abe a214 bf3d
000003a0: 474b e73c dfa5 323e 4a32 0e3e 1dd0 e0bd
000003b0: cad5 013e 6549 cc3d 05cd 333e 7443 dc3c
000003c0: 6ba1 c3bd 07fd 6ebe c005 73bc 3796 f93d
000003d0: b577 0e3e f12d 773d e185 1bbe 0899 bebd
000003e0: fb06 56be b755 05bc e57d 5bbc 081a 4e3e
000003f0: 4cf5 c6bc 5ca4 9cbd e9af 123e 426a 1fbe
0.35285574 0.19880196 -0.055015776 -0.20401949 -0.6113727 -0.2740786 -0.11808151 -0.2382597
-0.15758502 -0.09740714 0.13106422 0.020862952 0.05849328 -0.1574268 -0.10791934 -0.5444573
-0.08515647 -0.20492138 0.13186568 -0.15429994 0.005564741 0.010008234 -0.093239985 -0.3034782
0.029233433 -0.55037874 -0.3694323 0.03181983 -0.13750084 0.057782 0.05691163 0.13315563
-0.39982882 -0.072474904 0.16038628 -0.22000834 0.10459396 -0.20883384 -0.14845698 0.22715208
-0.14530022 0.38889176 -0.119524986 -0.3864655 0.011645326 0.18951601 0.0013484175 0.01249858
-0.056077197 -0.117205895 -0.27415597 -0.012436968 0.020398313 0.23686308 -0.11684067 0.22990142
0.037219223 -0.008886557 0.12597938 -0.12389129 0.090521865 -0.27793658 -0.33875465 0.103877135
0.049948942 0.024004692 0.09607744 -0.18983586 -0.47316483 0.22241722 -0.4421446 -0.087027736
-0.24919702 -0.45458743 -0.15593527 -0.10363311 -0.30594558 -0.3461014 -0.27500716 -0.23911521
-0.30506074 -0.08951812 0.009089546 -0.17873412 -0.12348513 -0.20654602 -0.43850067 -0.38964713
-0.33107042 -0.10986315 -0.33894762 -0.2660744 -0.0631795 -0.041612312 -0.028744994 -0.07919336
-0.01979456 0.0018732426 0.17056222 0.091537535 -0.13337645 0.11869831 -0.20800991 -0.16023046
-0.05483426 0.039736636 0.12045255 0.27750346 -0.08474879 -0.1274416 0.12566924 -0.24848355
0.08553246 -0.1374489 0.17659707 -0.008972445 -0.16298452 0.028590752 -0.3406517 -0.20623606
-0.0853148 -0.20771451 0.20851408 0.17544872 -0.085463375 -0.21255149 -0.08792198 -1.437718e-39
-9.26865e-40 1.453937e-39 1.382391e-39 -5.75253e-40 1.737767e-39 4.32469e-40 -1.531724e-39 -3.6928e-41
9.59829e-40 -5.28896e-40 -1.521754e-39 1.14824e-39 3.90433e-40 -1.049609e-39 1.9997e-41 9.5693e-41
1.030805e-39 1.387899e-39 -1.084162e-39 1.411332e-39 5.96426e-40 6.29343e-40 -2.5617e-41 -8.73673e-40
1.987952e-39 7.11453e-40 6.95038e-40 -1.595919e-39 1.67248e-40 3.54538e-40 -1.4221e-39 -1.886e-42
-5.05586e-40 4.5421e-40 9.98434e-40 -9.30326e-40 1.932043e-39 -2.98181e-40 9.40396e-40 1.054801e-39
5.83873e-40 1.561573e-39 -6.53421e-40 -1.797762e-39 1.079936e-39 1.95879e-40 -1.87761e-40 1.30387e-39
1.074988e-39 1.096128e-39 1.363305e-39 1.664556e-39 2.42003e-40 3.93175e-40 1.75417e-39 2.87974e-40
-1.595495e-39 6.85856e-40 8.12958e-40 -8.76935e-40 1.260663e-39 1.0088e-40 5.97752e-40 1.760916e-39
-0.033265155 0.026583029 -0.09042592 -0.19052577 -0.35813937 -0.12532638 -0.1828224 0.15365729
-0.34216613 -0.054153603 -0.07626409 -0.006994015 0.058744557 0.16252658 -0.17865695 -0.047643844
-0.09938755 0.08113748 0.10942211 -0.37625515 -0.09739626 -0.029062143 0.055679522 0.08415612
0.12591751 -0.06708729 -0.45849282 -0.078613535 -0.10826646 0.22676101 -0.047471005 -0.2710149
-0.17917334 -0.27373517 0.1613561 -0.20321855 -0.25987422 -0.08674029 -0.22878142 0.09330107
0.028234137 0.17446087 0.13886371 -0.109771945 0.1267921 0.099749364 0.17558677 0.026887633
-0.095522724 -0.2333871 -0.014832914 0.12186854 0.13912852 0.060346548 -0.1518779 -0.09306532
-0.209011 -0.008138112 -0.013396715 0.20127118 -0.024286889 -0.076485366 0.14324917 -0.15567878

encoder.fc_logvar.bias f4 [16]
00000000: 1820 02be a516 69be 0e03 91be 1eba f8bd
00000010: 4a55 a0bd edf8 97be 818d 8bbe 2576 13be
00000020: 3b59 4ebe 098c 80be 0735 63bd 367b 1ebe
00000030: 14c0 9cbd 4ea6 adbd 7d80 87bd 1413 0bbe
-0.12707555 -0.22762544 -0.28322643 -0.12144874 -0.078287676 -0.29682103 -0.27256396 -0.14400537
-0.20151226 -0.25106838 -0.055470493 -0.15476689 -0.076538235 -0.08478986 -0.06616304 -0.13581496

decoder.fc.weight f4 [2048, 16]
00000000: e977 c0be 74ef a3bf 1c7e 87bb b08f dfbd
00000010: 41f0 f4bd 57b5 33bf e7a8 a63e fd25 8bbd
00000020: 29e4 403f 2108 f23e 343b 233e 4a9c eabe
00000030: 726d 90bd b6a2 df3e 5aee a1bc 9343 063e
00000040: 58e7 34bd 6056 543d 5e6e 48be 2b17 55be
00000050: 10c4 f6bd f61a bebe a483 243e 5904 42be
00000060: b810 753e 99f5 8b3e 38a3 f63b 9fd4 8a3c
00000070: 83db 57bd 977f 873e f060 973d 77a5 0dbe
00000080: 4e8c 02bd 482b 67be 9578 73bd 0221 a5bd
00000090: 567e 68bd 57ee 42be 43a7 1a3e 4807 3d3e
000000a0: 4e50 313e 0634 773e 1e20 8c3d 08a5 643d
000000b0: 3b6e c3bd c25f a63e e042 d3bd 8596 c4bd
000000c0: a22e bbbd 36f2 72bc c1b4 72be d482 1b3d
000000d0: b944 e3bd 77f6 8bbe d575 d93d c92f 6f3d
000000e0: d6f9 3a3e 824f 5e3e 6bc6 a23d c381 4e3d
000000f0: e89e 4c3d 3183 073e 1d43 ec3d 5fa2 5bbe
00000100: 7de7 2abe d44a b93d c6d0 f7bd 16a5 8b3d
00000110: d3fc 77bd 187a 52be 6025 e0bd 2f90 763e
00000120: 6778 8c3d 9910 9cbd 7fab 523d 41ce 893e
00000130: f4cc cc3d bd17 9dbd ff9a 2a3d 0c8f 0cbd
00000140: 44ed b6bd ac98 1d3e 39b3 89be ee38 813e
00000150: 4843 ebbd f761 9ebe 9fca 4f3e 0ea4 a93d
00000160: c84a e13d da46 ef3d 454c 7abc 9474 743e
00000170: 49bc 853d ba40 0b3d a83a 8b3d 7a68 8d3d
00000180: 1954 63be 95fe f93d 0ae8 d2bd 05c5 223e
00000190: b800 123e 567b 8dbe a6ee 853e 1445 00be
000001a0: ed7b c7bc 6800 803e 47d8 43bd e621 ab3e
000001b0: 11a9 9ebc c313 8bbd dd99 223e 776c 1d3c
000001c0: f6de 2fbe 228c b4bd 461d e1bd 1c7c 3e3d
000001d0: afe1 91ba d259 bfbe 4b87 e6bd 7b90 acbd
000001e0: 78aa 613a 4be3 503e befc 3fbc 68b5 9c3d
000001f0: c853 bebd 161e d93d b33e 9a3c 1139 5e3e
00000200: ae17 c5bd b155 d03d e776 7cbe adf2 7cbd
00000210: 434f c4bc e542 96be 8907 ccbd 8dc2 4bbe
00000220: 580c c13d fde2 893e 8c50 0ebb d94c 993c
00000230: d7e7 30bd 2315 3abc 27ef 14bd 9fdf 573e
00000240: d07b 3abd 260d c9bd dac5 dcbd 38ba 03be
00000250: 5447 a4bd 5e5a 7fbd 7c89 d5bd 2240 07be
00000260: d679 103c aa02 3e3e 208e 22bc 5bdd 013d
00000270: b5d4 8cbc b81b 29bc 0a08 523c 7790 e63d
00000280: d770 63be 8c66 99bb c7d0 4dbe ede3 cbbd
00000290: 1497 5dbd 43c6 0ebe 7b1b 0abe fe18 c63d
000002a0: 884e fb3d 54da 9d3e 3e73 2a3d e3e2 823d
000002b0: 414b 1ebd 131b a0bd 1e7c aebd 142f d93d
000002c0: daef 91be 4a26 c7bc 23a6 a9be c6e8 763d
000002d0: 5bbc 0fbc 2788 aebb d2fa 01be 6a82 763d
000002e0: dbd8 313c 4de6 173e b634 253d fea4 9d3d
000002f0: fc9a 49be 512c 75bd bded 15bd 9221 f43d
00000300: 4081 64be 36b1 91be d3be 90be 9ce2 e93d
00000310: 8f54 ca3a f77e 903d 874b 64be fe67 b93d
00000320: b2df c43d a6c8 3dbe 1f53 473d bcf0 dc3d
00000330: 65a5 93be 0f39 173d 2d58 093d 6bfe 5a3e
00000340: d045 fabd 438f 15bf ae0b 94be f387 6f3e
00000350: 1886 edbd 90a8 713e 407c 6dbe c189 663d
00000360: c3c3 a23e 108b acbe 154e 723d 0d4e 953d
00000370: 8938 6bbe d56b 3ebb c7c8 163d 4522 ae3e
00000380: b4bd 2dbd 22bd 01bf 2a64 ccbe 02a7 813e
00000390: c03f 1bbd 77c1 8a3e 16d9 00be 5a8e a9bd
000003a0: befd be3e e202 a4be 4290 a6bd 291f ee3d
000003b0: 5adc b2bd 52e5 ea3c 7d78 243e a294 013f
000003c0: c49a e83d a9ff 1dbf 4fed b7be ca40 933e
000003d0: 8768 73bd 44a3 753e 42e3 34be 934d 7dbd
000003e0: f283 e73e 366b 90be 4c8b 0ebe e2b4 8c3d
000003f0: d33e f53d 1887 b13d d5d2 233d f95e d63e
-0.37591484 -1.280745 -0.0041349065 -0.10916078 -0.11959887 -0.7019858 0.32550737 -0.06794355
0.75348145 0.47271827 0.15940553 -0.45822364 -0.07052125 0.43678826 -0.019766975 0.13111715
-0.04416594 0.051840186 -0.19573352 -0.20809619 -0.12049115 -0.37129945 0.16065842 -0.18946971
0.23932159 0.27335814 0.0075267814 0.016947089 -0.052699577 0.2646453 0.07391536 -0.13832651
-0.031872086 -0.22575104 -0.059441168 -0.08062936 -0.05676111 -0.19036232 0.15102868 0.18459809
0.1731579 0.24140939 0.06842063 0.05582145 -0.09542509 0.32494932 -0.1031549 -0.09599022
-0.09139754 -0.014828255 -0.23701765 0.037966564 -0.11097092 -0.27336475 0.10618178 0.05839518
0.18259367 0.21710017 0.079480015 0.05041672 0.049956232 0.1323364 0.11536238 -0.21448658
-0.16689868 0.090474755 -0.12100367 0.06818597 -0.060543846 -0.20554388 -0.10944629 0.24078439
0.068589024 -0.07620353 0.051433083 0.26915172 0.10000029 -0.07670543 0.041651722 -0.034316108
-0.089319736 0.15390271 -0.2689455 0.25238746 -0.11487442 -0.30934116 0.20292138 0.08283244
0.110005915 0.11683436 -0.015276973 0.23872596 0.06530053 0.033997275 0.06798297 0.06904693
-0.2220005 0.12206761 -0.10298164 0.1589547 0.14258087 -0.2763316 0.26158637 -0.12526351
-0.024351085 0.2500031 -0.04781368 0.334243 -0.019367727 -0.067908786 0.15879007 0.00960838
-0.17174897 -0.08815791 -0.109919116 0.04650508 -0.0011129881 -0.37373215 -0.11256274 -0.08425995
0.00086084707 0.20399205 -0.011717973 0.07651788 -0.09293324 0.106014416 0.018828725 0.21701457
-0.09623657 0.10172594 -0.24654733 -0.06175487 -0.023963576 -0.2934791 -0.09962375 -0.19898434
0.094261825 0.2693099 -0.002171549 0.018713402 -0.04318985 -0.011357578 -0.036360886 0.21081398
-0.045528233 -0.09816961 -0.10779925 -0.12864006 -0.08021417 -0.06234204 -0.10426614 -0.13208058
0.00881811 0.18555704 -0.009921581 0.03170524 -0.01719127 -0.01032155 0.0128192995 0.11258023
-0.22211014 -0.004681414 -0.20099173 -0.09955583 -0.054099157 -0.13942818 -0.13487045 0.09672736
0.12270838 0.30830634 0.04161381 0.063909315 -0.038645986 -0.07817664 -0.08519767 0.106046826
-0.28503305 -0.02431025 -0.33134565 0.060280584 -0.008772935 -0.005326289 -0.12693337 0.060182966
0.010854925 0.14833947 0.040333472 0.076974854 -0.19688028 -0.059856717 -0.036603678 0.119204655
-0.2231493 -0.28455514 -0.28270587 0.114201754 0.0015436577 0.070554666 -0.22294436 0.09053038
0.09612979 -0.18533573 0.048663255 0.10788104 -0.28837124 0.03691965 0.033531357 0.21386115
-0.12220347 -0.58421725 -0.2891516 0.23391704 -0.11597842 0.23599458 -0.23191929 0.056283716
0.3178998 -0.33699846 0.059156496 0.07290278 -0.22970785 -0.0029055972 0.03681257 0.3401052
-0.042417243 -0.5067922 -0.3992017 0.2532273 -0.037902594 0.27100727 -0.12582812 -0.082791045
0.37302965 -0.3203345 -0.08132984 0.11627037 -0.08733435 0.028673802 0.16061588 0.5061742
0.11357644 -0.6171823 -0.3592324 0.28760368 -0.059425857 0.23988062 -0.17664817 -0.06184156
0.45217854 -0.28206795 -0.13920325 0.06870438 0.119748734 0.08668345 0.039995987 0.41869333

decoder.fc.bias f4 [2048]
00000000: d1e1 44bf 057b cabe a1dc aabc 8889 ebbc
00000010: e60d ed3d c764 7bbe a958 a9bb da98 0a3e
00000020: 1bf9 f5bd 71a4 91bd 8c1b 963b 67b1 5e3e
00000030: f071 a13e 9a71 bc3e 998c 493d 0ee7 213e
00000040: 803e 6a3e 42c5 7a3e 0993 e43d d01a db3e
00000050: 5a67 9d3e 76e8 293e 5ed4 9d3d 643a 013e
00000060: 782c 403d 4508 40bc 572d a0bd b9fd 7c3d
00000070: 3c76 1d3e 7422 b23d 7cac fc3d fbf1 683e
00000080: ed6a 933e 39ce 073f ff89 1d3f a0bd 7a3e
00000090: 35da 2e3e a7dc 043e f090 463e 39f3 f53e
000000a0: b09f a23e 5250 84bc ae58 47be 70cd b83c
000000b0: 7d4d 873e 13de 063f 43ef d63e 5631 873e
000000c0: 3e18 da3d 1699 ba3d 91b5 6b3d 3759 4d3e
000000d0: cd98 d63e 887b be3e 71f1 a93d 0320 9c3d
000000e0: cd5f 1f3e a2dc e23c 3c84 1b3e dc2e 2b3e
000000f0: f670 3e3e f39b 943d 80f6 33bf 4ad9 43bf
00000100: 34b7 773d 2c39 98bd 712d d83d 5840 f8bd
00000110: 66c6 b4be eea4 b7be eb88 f1bd 5f5d 8abe
00000120: 8671 e0be e7c1 9abe 62d3 8cbe f3b9 18be
00000130: 8be3 7bbe 590f 063e 0ce8 8bbd 2167 dabd
00000140: 3bea 813e 588a d4bd 462a b9be 98af 28bd
00000150: 7173 9cbe d02b 44be 7a98 d0be ccd0 a2bd
00000160: 982b 12be fa66 88be 13ce f6be 2605 01bf
00000170: ae63 d0be e366 abbe d007 32be 6bda 6abd
00000180: 713e 08be 5b48 af3d 1bc7 213e 5431 41bd
00000190: 051c 89be ed0f 79be 12f8 d83d d3e0 9a3e
000001a0: 6c6f dcbd 9ef6 bbbe 1257 fabe a5d6 0bbf
000001b0: 47e5 0fbb ae5b 1a3e 6630 ecbd b45f a8be
000001c0: 7800 d1be 8d81 8bbe e7fc 85be d6ed 7bbe
000001d0: d420 27bc 4d48 20be bc02 b1be d3f7 50be
000001e0: dfff c83b 587f 84bd 8e0e 23bd c01f 1abe
000001f0: 0f81 b6bd 7de4 a33c 6fd8 a7bd 59e3 80bf
00000200: 366a 343e 2c8c e4be 75d5 bebe d5e2 11bf
00000210: daaa b4bd 0674 87be 5c4c edbd 4cc6 14be
00000220: 79b0 03be bd81 3abe 2fd0 d2be 3a87 47be
00000230: ead6 87be 8beb 29be 5bc4 89be 2fe3 4bbe
00000240: 1940 043c f345 2bbe 079e 7dbd cd95 30be
00000250: c92e 56be e1c9 06bc 9321 fdbe 7328 7ebe
00000260: 8382 fbbe 1b93 1ebf ae6c 973d 1031 70be
00000270: 1ec0 9dbe b628 8dbe 95b9 06be 45f6 fcbd
00000280: 038e 0abe 4391 64be 7927 c1be 38b0 09bf
00000290: a117 8cbe fadb aebe 2524 cabe 3fef 23be
000002a0: 8a72 03bd 9072 9abe 37c7 4dbe d85c adbe
000002b0: acad 3dbe adcf cabd 1a19 e7be 8141 e83d
000002c0: 9f56 81be 8a8a bfbe c4bd b4be f550 64be
000002d0: 336a 02bf 044a 81be 1c51 46be f170 68be
000002e0: 8bde 06bf a361 babe 0094 97be ce4f 51be
000002f0: 0de4 81be 85dc cfbd 8e63 36be d7fe 4fbf
00000300: feeb 223e 48dd 9d3d e207 653d 3261 e93d
00000310: 0e9b f33e 4717 f83e 9584 ec3d 0e9d a43d
00000320: 3fa4 39be a6e4 de3d 2d37 a33e 6b32 c93d
00000330: 212c 6fbc fe10 b63e e30d 3a3f acf5 143e
00000340: 2f73 aa3d f495 8d3e 1213 233e 92dd 6ebe
00000350: 9ca9 3b3e cf7b 263e 2a95 033f 727c 143f
00000360: 6874 683f f59a 163f 6640 f53e 6081 6d3e
00000370: 77aa 873e 4df8 793e 6a00 853e d726 ef3d
00000380: 3448 d3bc 5bb3 0b3f ff93 8e3f c2a4 903f
00000390: 9519 6f3f 7706 853e ba1c b73d 2210 043f
000003a0: 5930 523f eaaf e13e b1f8 043f 78de e63d
000003b0: d3c9 c43e d88d 0e3f 6ff9 fc3e 7924 af3e
000003c0: 9cc9 733e 5267 c03d d27f 913e bc10 b53c
000003d0: 99dd 113f 33da 343f 7f3f cf3e c6dc 9c3c
000003e0: dc95 2c3e d379 ea3d 4760 b93e a2a7 bf3e
000003f0: 0861 7fbd 5c1f e63d de4d 3cbc 4173 0f3f
-0.7690707 -0.3954698 -0.020857157 -0.028752103 0.115749165 -0.24550162 -0.00516804 0.1353487
-0.12010404 -0.07111443 0.0045809206 0.21747361 0.3153224 0.3680542 0.04920635 0.15810797
0.22875404 0.2448931 0.11160857 0.42793894 0.30742913 0.16592583 0.077065215 0.1261993
0.04691741 -0.011720722 -0.07821148 0.061765406 0.15377134 0.08697978 0.12337586 0.22748558
0.28792515 0.53049046 0.6153869 0.24486399 0.17075427 0.12974797 0.19391227 0.48037127
0.31762457 -0.016151581 -0.19467422 0.022558898 0.26426306 0.5268261 0.41979417 0.26404828
0.10649155 0.0911123 0.057546202 0.20053564 0.41913453 0.37203622 0.082980044 0.07623293
0.15563889 0.027693097 0.15187162 0.16717094 0.18597779 0.072563075 -0.70298004 -0.7650343
0.06047745 -0.0743278 0.10555542 -0.121216476 -0.35307616 -0.3586802 -0.11793693 -0.27024361
-0.43836612 -0.3022606 -0.27505022 -0.14914684 -0.2459852 0.13091792 -0.06831369 -0.106642015
0.25374016 -0.103779495 -0.36165065 -0.041183084 -0.30556825 -0.19157338 -0.4074133 -0.07949981
-0.14274442 -0.26641065 -0.48204097 -0.5039848 -0.4070105 -0.33476934 -0.17385793 -0.057337206
-0.1330507 0.085587226 0.15798609 -0.047166184 -0.2677919 -0.24322481 0.10594191 0.30249652
-0.107634395 -0.3671159 -0.48894554 -0.54624397 -0.0021956728 0.15074036 -0.11532669 -0.32885516
-0.4082067 -0.27247277 -0.26169512 -0.24602446 -0.010200698 -0.1565258 -0.345724 -0.20407037
0.006134018 -0.064696014 -0.039808802 -0.15051174 -0.08911335 0.020006413 -0.08195578 -1.0069381
0.17618641 -0.44638193 -0.3727223 -0.56986743 -0.0882165 -0.26455706 -0.1158683 -0.14528769
-0.12860288 -0.18213554 -0.41174456 -0.19485179 -0.26531154 -0.16593759 -0.2690762 -0.19910882
0.008071923 -0.16725902 -0.061918285 -0.17244644 -0.20916285 -0.008226843 -0.49439678 -0.24820118
-0.4912301 -0.61943215 0.07393776 -0.23456216 -0.30810636 -0.27570122 -0.13156731 -0.1235166
-0.13530736 -0.22321038 -0.37725428 -0.53784513 -0.27361777 -0.34152204 -0.394807 -0.16009234
-0.032091655 -0.3016553 -0.20095526 -0.33859897 -0.18523282 -0.09902892 -0.45136338 0.11340619
-0.252614 -0.37410384 -0.3530103 -0.22296508 -0.509433 -0.25251782 -0.19366878 -0.22699334
-0.52683324 -0.36402616 -0.29605103 -0.204406 -0.253693 -0.10149483 -0.17811415 -0.8124823
0.15910336 0.07708222 0.05591572 0.11395492 0.47579235 0.4845526 0.115487255 0.08037768
-0.18129061 0.10883455 0.31878033 0.098240696 -0.0145979235 0.3555984 0.7267744 0.14546841
0.08322751 0.27653468 0.15925243 -0.2332671 0.1832642 0.16258167 0.5139948 0.5800239
0.9080262 0.58830196 0.47900695 0.23193884 0.26497242 0.24411125 0.25976878 0.1167733
-0.025791265 0.5457055 1.1138915 1.130028 0.9339841 0.25981495 0.08941026 0.51587117
0.8210502 0.44079524 0.5194197 0.11272901 0.3843523 0.55685186 0.49409053 0.34207514
0.23807377 0.09394707 0.28417832 0.022102706 0.56978756 0.70645446 0.4047813 0.019148242
0.16854042 0.114490174 0.36206266 0.3743258 -0.062348396 0.1123645 -0.011493174 0.5603524

decoder.conv2.weight f4 [32, 16, 4]
00000000: 7a3b 08bd 8729 903d 948c 7a3b 9bd7 1a3d
00000010: 207f 933a 63be aebd 5ff9 abbe 0966 68be
00000020: 71e2 a9bc d0a8 22bd 6d45 febc eb06 04bc
00000030: 2738 1dbd 70c6 6cbd c35d 32be 8ea1 8fbc
00000040: bfe1 e93d ee32 be3e a65a db3e 5a4f 283e
00000050: 2962 e33c cc4e 56be b00c ea3a f01c 07bd
00000060: 8775 fbbd a807 8dbe 7e11 bbbd 7ce5 1a3d
00000070: fdbb 56bd 01c4 8bbd f71a 8ebc 69c6 2d3c
00000080: 64a8 70bd 93ba 8f3d 74d9 d4bd 1343 adbd
00000090: c0c9 aa3d f5e1 fd3d 80eb 48bd 7376 7bbd
000000a0: ca35 24bd eda4 15bd 12d0 afbd f14d 1a3d
000000b0: ade8 6a3d a02d 993c 2d7e efbd c007 b1bd
000000c0: 2d4c c93c 5a0d b8bd 4633 e7bc 6924 6ebd
000000d0: ea31 cabd 2e64 933d 3345 723d 9305 333e
000000e0: 4b1d 9dbd e009 c83d 6f41 303e 6542 b93d
000000f0: 4609 1e3b 820a b3bc 88da c8bb 8904 c13b
00000100: f10c 7cbd 1991 3cbd dbcc b3bd a840 a5bc
00000110: fd99 f73c c1ec 0e3e 03c1 9d3e 5372 693e
00000120: 2d4f bb3c 6134 db3d b7fc 133e 2f84 623d
00000130: b618 c1bd cc5d aa3d 6f7f 083e cfc4 8b3d
00000140: a29b da3d 7575 673e 668b 2d3e a522 763d
00000150: 3951 5cbe c370 9ebe ca23 06be a469 373e
00000160: a710 0b3e 267d 713e 1b97 bebb 67b7 02be
00000170: da3b 113d 248a 67bc c203 81bd bfcc ff3a
00000180: b0d5 57bd 6074 2e3d 22fd 4cbb eee1 6fbe
00000190: ebf5 90bd 7af1 8abd 56ee e53b 1399 d33c
000001a0: c968 f1bc 9b23 233e 2db1 06bd a39b 19bd
000001b0: 03c5 043e 9c48 25bc 66aa b8be 776f a8bc
000001c0: 6ad9 843d 00b2 5c3d 8f68 8d3d 3267 3c3b
000001d0: 0880 69be 9817 06bd 2b96 95bc 494b 9e3d
000001e0: 7fcc 92bd e0ae 5dbe 0c62 e6bb a2b6 1abe
000001f0: 68ca bfbb 02c6 00bc 21c1 0ebc 1d71 d73b
00000200: c835 9dbd a5a4 d1bd 8d86 2fbe 8bb0 fdbc
00000210: 8e07 2d3c c3fe 403c 8fcd 2abd 2418 66bd
00000220: 4c24 3e3b b323 21bc 6a7c 02bd b1b4 a1bc
00000230: 1473 89bd 3701 9bbb 2559 3abd f8ad 33be
00000240: 4004 adbb c4e2 ecbc cbc3 2bbd 37cd d8bc
00000250: 945e 03bd c990 48bd b480 0abe 3ba7 ff3c
00000260: 62f2 d03d 680c 313e f458 e03d 6339 263d
00000270: 4f79 903c d866 9dbc c175 1ebd d740 aa3b
00000280: a12b 4abc 941f bb3d 3d88 fabd 3a16 d93d
00000290: 94b0 2f3d bd7d 373c 09ab 31be 61df f0bd
000002a0: e825 adbc 9d8e 2b3d 6987 4fbd 8037 dd3c
000002b0: ca10 3e3d d581 c73c 2379 0d3e 6340 18bd
000002c0: fc90 a23d 9f32 cc3d 64b6 243e 1505 bf3c
000002d0: a770 30bd 1601 b8bd 42b9 163e e076 2e3e
000002e0: 289c a5bd 362d 3a3c 7354 223d 078b d7bd
000002f0: c165 1ebc 86e8 d4bc 9a2a 2e3d 48a9 2a3d
00000300: 7239 30bc 84e4 993d 459f d5bc cabc 3c3d
00000310: 7a89 aa3d b904 e33d f11e 563b a36f aebb
00000320: 8e79 083c a55d 4c3c c95c 00bd aea2 0bbd
00000330: 1a90 023d 47f2 68bd 0617 253e 3001 0dbd
00000340: 2806 4fbd 7910 f3bd 15e6 76bd 7ebc 29bc
00000350: 31bb 46be c960 473d cbc7 0abe 0d91 d73d
00000360: 1cb8 19be 0f89 4cbe 5532 22bd cda0 da3c
00000370: 9557 01bd 87e7 393d bef4 a1bb 2a72 303c
00000380: e746 fcbb 8d77 68be 5e3e 2dbe d8ba 17be
00000390: 45ee 033c 9920 c33d 83c9 5f3d 4abb 413d
000003a0: d888 da3c 8f54 023e 2736 093d 9269 b0bb
000003b0: 32e4 50be 40f7 07bc f9af 92be 2952 693d
000003c0: 14eb 973c 7d89 9cbd 3822 003c 813e 8cbd
000003d0: c55d f33c 6e45 d0bc 7c86 4c3e 779b 6d3e
000003e0: 2e65 903d 5bfc 90be 7d74 06be b5dd 2cbe
000003f0: f775 a43c 14aa 033d 618c 4d3d 5a60 a53c
-0.033259846 0.07039171 0.0038230764 0.037803274 0.0011253096 -0.08532407 -0.33588693 -0.22695173
-0.020737858 -0.039711773 -0.031038964 -0.00805829 -0.03838363 -0.057806432 -0.1741858 -0.01753309
0.11420011 0.3714823 0.42842597 0.1643652 0.027756767 -0.20928496 0.0017856564 -0.03298658
-0.12278276 -0.27544904 -0.09134196 0.03781651 -0.052425373 -0.06824494 -0.017346842 0.010606387
-0.05875434 0.07018008 -0.103930384 -0.08460059 0.08339262 0.123966135 -0.049052715 -0.06139226
-0.04009036 -0.03653424 -0.08584608 0.037671987 0.057350803 0.018698514 -0.11693988 -0.08644056
0.024572456 -0.089869216 -0.028222691 -0.058140192 -0.098728016 0.07196842 0.059148025 0.17482595
-0.07671603 0.097675085 0.17212461 0.09045867 0.0024114414 -0.021855596 -0.0061295666 0.005890433
-0.06153578 -0.046036813 -0.087793075 -0.020172432 0.030224795 0.13957502 0.3081132 0.22797517
0.022864902 0.1070335 0.14451872 0.05530184 -0.09428541 0.083186716 0.13329862 0.06824648
0.10674216 0.226034 0.16947708 0.060091633 -0.21515359 -0.30945405 -0.1309959 0.17911392
0.13580571 0.23582897 -0.005816353 -0.12765275 0.03545747 -0.014132056 -0.06299545 0.0019515975
-0.052694023 0.042591453 -0.0031278809 -0.23426029 -0.07078155 -0.06784339 0.0070169372 0.025829827
-0.02946891 0.15931551 -0.03288381 -0.037501942 0.12965779 -0.010088112 -0.36067504 -0.020560963
0.06486781 0.05388069 0.069047086 0.0028748033 -0.22802746 -0.032737345 -0.018260082 0.07729203
-0.07167911 -0.21648741 -0.007030731 -0.15108731 -0.005852986 -0.007859709 -0.008713038 0.0065747635
-0.076762736 -0.102364816 -0.17141171 -0.030967971 0.010560883 0.01177949 -0.041699942 -0.056175366
0.0029013334 -0.0098351715 -0.03185693 -0.01973948 -0.067114025 -0.0047303694 -0.04549517 -0.17546833
-0.0052800477 -0.028916724 -0.04193477 -0.026465042 -0.03207262 -0.048966203 -0.13525659 0.031207671
0.10202481 0.17289889 0.109544665 0.040582072 0.01763597 -0.019214079 -0.038686518 0.005195718
-0.0123395035 0.091368824 -0.12233017 0.105999425 0.042893007 0.011199412 -0.17350401 -0.11761356
-0.02113624 0.041884053 -0.050666247 0.027004004 0.04640273 0.0243539 0.13815741 -0.03717078
0.0793781 0.09970593 0.16085202 0.023317853 -0.043076184 -0.08984582 0.14719108 0.17037535
-0.08086425 0.011363318 0.03963132 -0.10524564 -0.009667815 -0.025989782 0.042521097 0.041665345
-0.0107558835 0.07514289 -0.026076922 0.04607848 0.08327003 0.11084885 0.003267225 -0.0053233667
0.008329762 0.0124734985 -0.031338487 -0.03409069 0.031875707 -0.05687168 0.16122064 -0.03442496
-0.05054298 -0.11868376 -0.060278017 -0.010359881 -0.19407345 0.048676286 -0.13552777 0.10525713
-0.15011638 -0.19974159 -0.03959878 0.026688004 -0.031577665 0.045386817 -0.0049425056 0.010769406
-0.007698882 -0.22701855 -0.16918322 -0.14817369 0.008052413 0.09527702 0.054635536 0.047297753
0.02667658 0.12727569 0.03349891 -0.0053836787 -0.2039955 -0.008298695 -0.2864988 0.05696312
0.018544711 -0.07643411 0.007820658 -0.06847859 0.029707799 -0.025423732 0.19973177 0.23203836
0.070505485 -0.28317532 -0.13130374 -0.1688145 0.020075781 0.03214462 0.050182704 0.020187546

decoder.conv2.bias f4 [16]
00000000: b4be b73e 5986 e3be d842 6cbf ec6b 533e
00000010: 6131 8ebf 570c 02bf ef63 bdbe 00ee 153e
00000020: 3679 c83d 850f 0bbf 5917 253e 6708 193e
00000030: 6141 04bf 6a20 f3be fc28 13bf 0d0f c13e
0.35887682 -0.44438437 -0.92289495 0.20646638 -1.1108819 -0.5080008 -0.36990306 0.14641571
0.09788744 -0.54320556 0.16122188 0.14944611 -0.5166226 -0.47485667 -0.5748441 0.37706795

decoder.conv1.weight f4 [16, 1, 4]
00000000: 8120 403e 10f6 f63e a5db c03e 74b6 a43d
00000010: 9523 ba3d a6a5 843e 4113 8f3e dec5 e13d
00000020: cee1 b13d 6d95 813e e00c 863e b723 c43d
00000030: 754d 9bbd ea62 debd f66b dabd 30fb 5ebd
00000040: f017 75bd ff34 3bbe 2c02 43be acba 8abd
00000050: 2f9d c2bd dd65 44be eb84 1fbe 9261 75bd
00000060: 0ba2 b43d 69c2 803e fe06 883e 4d81 d53d
00000070: 55f9 f9bd 33fd 8dbe 4c59 08be ecd1 e23d
00000080: 0f49 c539 3297 23be 3b34 2abe f75a 91bd
00000090: a8b1 ac3d 0665 7e3e 9b53 8c3e d5c5 e03d
000000a0: 6b26 02be 1e64 92be 2f65 34be 68cd c4bd
000000b0: 7cf3 82bd e087 19be 1f31 52be a95b 86bd
000000c0: 5efe 44be 5549 f8be 5cfc c2be 0fb9 b0bd
000000d0: d332 e5bd cc95 7ebe 5fb0 43be 792a 76bd
000000e0: e504 86bd 710d ffbd e583 dbbd 69cf 4fbd
000000f0: c313 df3d 5310 6b3e 00a5 21be b563 95be
0.187624 0.48234606 0.37667575 0.08042613 0.09088818 0.2590763 0.27944377 0.11024068
0.08685647 0.25309315 0.26181698 0.095771246 -0.07583133 -0.1085871 -0.10665123 -0.05443877
-0.05983728 -0.18281935 -0.19043797 -0.06773886 -0.09502637 -0.19179483 -0.15578048 -0.059907503
0.0881997 0.25148323 0.26567835 0.10425053 -0.122057594 -0.27732238 -0.13315314 0.11075196
0.000376292 -0.15975645 -0.16621487 -0.07097428 0.08432323 0.24843225 0.27407536 0.109752335
-0.12709968 -0.28592008 -0.17616723 -0.09609491 -0.06394097 -0.14993238 -0.2052655 -0.065604515
-0.19237658 -0.48493448 -0.3808316 -0.08629047 -0.111913346 -0.2486183 -0.19110249 -0.0600991
-0.06543902 -0.124537356 -0.10718516 -0.05073491 0.10892441 0.22955446 -0.15785599 -0.29177633
