wavae_notebooks/WAV/Various-ups-downs/model-tanh-1500/model-tanh-1500.onnx (onnx, 68775 bytes, 5 tensors)

fc.weight f4 [2048, 3]
000000 a6 3d c2 3e 2e bb e9 be 46 60 8a be b1 22 0e bf
       0.3793766 -0.4565062 -0.27026576 -0.55521685
000010 92 20 ae 3d 26 de a4 3e a6 0a fd 3e 03 8a 0e 3e
       0.08502306 0.32200736 0.49422187 0.13919835
000020 ac f1 c5 be 43 b3 07 be 72 f5 f1 be 17 6e 0c 3f
       -0.38660944 -0.13251977 -0.47257572 0.54855484
000030 f6 4b b6 3e 1e 82 c0 be 88 41 f5 be 2f b4 09 bf
       0.3560483 -0.37599272 -0.4790156 -0.53790563
000040 0e 5e 6a bc 70 d3 b0 be b3 76 20 be 72 7b e3 3e
       -0.014304651 -0.34536314 -0.1567028 0.4443012
000050 96 95 bd 3e 93 da 22 bd a8 e6 a1 3e 40 31 bc be
       0.37028188 -0.03975923 0.3162129 -0.36756325
000060 09 c9 7d be 96 de af bd 10 e3 af 3e 03 e5 0c 3f
       -0.2478372 -0.08587377 0.34352922 0.55036944
000070 80 bd ed be ee 21 b2 3e e5 4f 71 be b2 6a 42 3c
       -0.4643364 0.3479151 -0.23565634 0.011866258
000080 fc fb 03 bf 95 37 0b 3f 8e c2 8b be d3 88 09 bd
       -0.5155637 0.54381686 -0.2729687 -0.03357775
000090 c0 fd be 3e 33 2a 7d bd 89 9b 65 be a2 7c c6 3e
       0.3730297 -0.061807822 -0.22422613 0.38766962
0000a0 f0 d7 ca 3e 1e 8a 89 bd 99 e7 99 3c 9a b0 bf 3e
       0.39617872 -0.06715797 0.018787192 0.37439424
0000b0 67 44 f6 3c 63 ee 3a 3e 7f 75 36 3e ba f4 bb 3e
       0.030061914 0.18255 0.17818259 0.3671015
0000c0 ba 38 cd bd 9a 28 e4 be 8f a7 0c bf 91 ec 3b 3e
       -0.10020585 -0.44562227 -0.54943174 0.18351962
0000d0 81 0f f6 be bd a1 57 3e ba 48 ce 3e a3 4e 75 3d
       -0.48058704 0.21057792 0.4028986 0.059889447
0000e0 9b fc 71 be 41 d2 48 be 51 00 0d 3f f9 ff ce be
       -0.23631518 -0.19611456 0.5507861 -0.40429667
0000f0 76 9b aa 3e 19 39 ae 3c 93 df d5 be 19 b3 46 3e
       0.33321732 0.02126746 -0.41772136 0.19404258
000100 36 ad 09 bf ce 30 b7 be e0 45 bc 3e 72 c5 c1 bd
       -0.53779924 -0.35779423 0.3677206 -0.09461488
000110 1e 5e f2 3e b2 29 5d 3c b6 cb 89 3e 9b 42 91 3b
       0.4733743 0.0134987105 0.26913232 0.004432989
000120 65 d0 05 3e 97 38 79 be a6 75 ff 3e fa 2b ee 3e
       0.13067777 -0.24337994 0.49894446 0.46517926
000130 2f a8 13 3e 89 14 57 be 03 76 05 be 81 da 01 bf
       0.14419626 -0.21003927 -0.13033299 -0.50724036
000140 10 91 8a 3e be b1 9e 3e 0a c4 87 be 9e f8 c5 3e
       0.270638 0.30994982 -0.26516753 0.38666242
000150 0e b6 e6 3e 35 40 0e 3e d8 19 91 3e cf ab 76 3e
       0.45060772 0.1389168 0.2834003 0.24088977
000160 fa 21 c8 3e 46 9e 81 3d f4 9a 84 3e 40 e4 8e be
       0.39088422 0.063290164 0.2589947 -0.27908516
000170 c3 e9 21 bd 64 16 ea be a1 e6 08 be 42 67 b7 be
       -0.039529573 -0.45720208 -0.13369228 -0.35820967
000180 49 78 11 3f c5 eb a6 be 6e 79 86 bd e2 f0 d2 bd
       0.56824166 -0.32601753 -0.065661296 -0.10299851
000190 13 a0 38 3d 68 48 c4 3e d9 0e 12 3e 97 de 25 be
       0.045074534 0.38336492 0.14263476 -0.16198193
0001a0 c7 7e 65 be 16 01 cf be 87 b5 77 be da 27 b2 be
       -0.22411643 -0.40430516 -0.24190341 -0.3479603
0001b0 f9 b5 6f be f2 97 9b 3e fe 57 95 3e 57 f9 81 be
       -0.23409261 0.30389363 0.29168695 -0.25385544
0001c0 cb 70 5d 3e f9 2f e2 bc dc 4a ad be f6 84 d8 3d
       0.21625058 -0.027610766 -0.33846176 0.10572235
0001d0 a3 1b 08 be f3 5b 07 3d a1 1c 90 be 69 51 0f 3f
       -0.13291793 0.033046674 -0.28146842 0.559836
0001e0 99 e4 58 be b0 44 a8 3e 95 70 ab be 9a 2c e5 3e
       -0.21180953 0.32864904 -0.3348433 0.4476059
0001f0 d0 32 95 3e 6b 9f 1a 3e b7 7a 79 3e 8a 70 b4 3e
       0.2914033 0.15099876 0.24363218 0.3524211
000200 e6 a5 fc bd ab b1 6a 3e e9 b7 fc be 3f 52 01 bf
       -0.1233633 0.22919337 -0.49359062 -0.5051612
000210 32 de 07 bf 9f b2 ca be ae 33 a3 be 4e ba a6 3d
       -0.5307342 -0.39589402 -0.31875366 0.081410035
000220 16 17 80 bd b3 94 01 3f 5f 0a 3f be a6 47 ea be
       -0.06254403 0.5061752 -0.186563 -0.45757788
000230 90 32 90 be fa 88 b5 be b4 fa 8f 3e 54 48 0d bf
       -0.28163576 -0.35456067 0.2812096 -0.5518849
000240 79 4e ea 3c ef 53 49 3e a6 5a de bd 52 b2 02 bf
       0.028601872 0.19660924 -0.108571336 -0.51053345
000250 e1 dd 0a 3f f6 98 9e be 7a 4c 91 3e ab 79 9a be
       0.5424481 -0.30976075 0.2837866 -0.3017095
000260 66 da bc 3d 1a 6a e9 3e a8 08 9b 3e 8e 79 fb 3e
       0.09221344 0.45588762 0.30280042 0.49116176
000270 ea a4 fa 3d 36 91 dd 3e c3 27 ca be 5a d1 8e bd
       0.12238486 0.4327485 -0.3948346 -0.069735244
000280 fc 0d b0 3e 97 1e 0c 3f fb 56 55 3e fa 18 fb 3e
       0.3438567 0.54734176 0.20833962 0.49042493
000290 80 3e b6 3e 50 41 d8 3e 06 80 b8 3e b7 88 7c 3e
       0.3559456 0.4223733 0.36035174 0.24661528
0002a0 01 86 ef be 6f f3 33 be 4e d6 d5 be 75 15 06 3f
       -0.46781924 -0.17573331 -0.41765064 0.5237649
0002b0 80 79 a6 3e ae ce b8 be e8 c0 8d 3e 9d c8 09 3f
       0.32514572 -0.36095184 0.27686238 0.53821737
0002c0 3d 64 3f 3e d3 ee 86 be 34 9c ae 3e c8 e0 a1 be
       0.18690582 -0.26354083 0.3410355 -0.31616807
0002d0 f2 05 cb be f2 e9 f0 be d3 07 78 3e 8e f9 fd 3e
       -0.39652973 -0.47053486 0.24221735 0.49604458
0002e0 80 2f 85 3e 9b 98 80 bb fa b8 05 bf c3 41 8d be
       0.26012802 -0.003924442 -0.52235377 -0.27589235
0002f0 c7 d9 46 3e e2 9f d4 3e 4e 12 a9 3e fc 2b b6 3e
       0.19419013 0.4152823 0.33021778 0.35580432
000300 a4 fe af be 09 ec 2e be 87 91 29 be 8a 1f a7 be
       -0.34373963 -0.17082228 -0.1655942 -0.3264125
000310 1d 49 6f 3d fe 06 81 be de fd ba bd 1a ca 92 bd
       0.058419336 -0.25200647 -0.091304526 -0.07167454
000320 6a 2c e2 bd cd ab 7a bd 03 06 13 3e aa b7 ae 3e
       -0.110436276 -0.061199 0.14357762 0.341245
000330 fc 34 da be 83 9c 06 3e 76 1c e7 3e b4 fe 0a bf
       -0.4261855 0.13145642 0.451389 -0.54294896
000340 83 13 66 be ce 35 7e 3c 87 b8 ba bc a0 a9 dd be
       -0.2246838 0.015515758 -0.022793068 -0.43293476
000350 66 b9 da 3d c9 30 6e be 79 c9 f2 3c 37 30 08 3f
       0.10679893 -0.23260798 0.029637085 0.5319857
000360 01 94 11 3f 43 52 65 bd eb 14 0d 3e da 27 de 3e
       0.5686646 -0.055986654 0.13777511 0.4338978
000370 f9 85 10 bf 49 d6 6a be f1 cb 33 3e 83 ff 00 3f
       -0.56454426 -0.22933306 0.17558266 0.5038988
000380 f2 30 13 bf 9b 9a 10 3f 0f 3e 34 3e 7b ee 55 3e
       -0.5749656 0.5648591 0.17601798 0.20891754
000390 83 17 24 be a7 72 f2 bc 5a ed 93 3e 67 5e 74 be
       -0.16024594 -0.029595686 0.28892022 -0.23864137
0003a0 67 ac 4a 3e 5a 6e 8b 3d 1a bf bc 3e 04 35 b3 be
       0.19792329 0.06808157 0.3686455 -0.35001385
0003b0 69 4c 78 be 05 c8 71 3e 14 2b a1 3e 6b 04 37 be
       -0.24247898 0.23611458 0.31478179 -0.17872779
0003c0 e5 9d 49 be 2e 3a b1 bd 67 07 bf 3c ad 95 54 bd
       -0.19689138 -0.08653675 0.02331896 -0.051900554
0003d0 c9 6e 01 3f a0 bb a4 be d3 5d 30 bd e9 08 be be
       0.5055967 -0.32174397 -0.043058228 -0.37116173
0003e0 16 27 c9 be f2 cf d0 be ea f5 f1 3e 29 a6 09 3f
       -0.39287633 -0.4078365 0.4725793 0.53769165
0003f0 73 3c 05 bd 67 fa 02 3f c7 e2 60 be fd af 16 3e
       -0.032528352 0.51163334 -0.21961509 0.14715572

fc.bias f4 [2048]
000000 53 9e 44 3d 69 a1 07 3f fe 58 b6 3e 25 bf 4f 3e
       0.048002552 0.5298067 0.3561477 0.2028776
000010 73 c8 7a 3e 3e b4 fd 3e d3 fc 76 3d f2 13 c7 bd
       0.24490528 0.49551576 0.060299706 -0.09720601
000020 5a e6 d7 be 20 ef b5 3e 62 82 ea 3d 63 b4 2b 3d
       -0.42167932 0.35534 0.1145065 0.041920077
000030 7d 2c 89 be 45 cb 1a 3e c7 8c 6a be 7c d6 b1 be
       -0.26791754 0.15116604 -0.22905265 -0.3473395
000040 40 a7 cf be 47 bf f2 3c 73 89 72 3d 60 7e 13 bf
       -0.4055729 0.029632224 0.059213113 -0.5761471
000050 cd 2a 4b bd 4d d8 ea be 2a 07 e7 3e 92 9f eb 3e
       -0.049601365 -0.4586815 0.45122653 0.4602018
000060 86 47 fd bd 6f ad 14 3e c6 b9 a8 3e 9d f1 15 bd
       -0.12367158 0.14519285 0.32954234 -0.036607374
000070 12 64 e3 3d 46 6e 94 3e 1e 0c c2 be 52 ba 89 3e
       0.11103071 0.28990382 -0.3789987 0.26899964
000080 bd 45 a2 be 07 9e bb be 1f 3b 0b be e6 df 97 3e
       -0.3169383 -0.36644003 -0.13596772 0.29663008
000090 c0 32 9f 3e 8f b6 08 3f 53 62 4c 3d 96 45 81 bd
       0.31093407 0.5340356 0.049898457 -0.063121006
0000a0 97 a5 0d be 32 c6 f7 3e 87 18 48 3e d6 a7 97 3e
       -0.13832699 0.483934 0.19540606 0.29620236
0000b0 03 7e 52 3d 09 3c 06 3f 15 ec 47 3e e3 23 8f be
       0.051389705 0.52435356 0.19523652 -0.27957067
0000c0 51 84 06 3e 4b 52 24 be b2 4e 4e bc f8 19 c0 3e
       0.13136412 -0.16047017 -0.012592005 0.37519813
0000d0 c8 1d cd 3e 4a 2e fb 3e d4 43 c0 3e 0b b3 76 3e
       0.40061784 0.49058753 0.3755175 0.24091737
0000e0 c2 40 ae 3e 34 b1 02 bf 41 c1 7f 3e b4 da 97 3e
       0.3403378 -0.5105164 0.24976064 0.29659045
0000f0 49 87 d6 be 96 7f a8 be ed d7 0c 3f e4 fc ab 3e
       -0.4190009 -0.3290984 0.55016977 0.33591378
000100 2e 51 cd 3d 4e 88 ef 3e 11 e5 3f be fa 45 d9 3e
       0.100252494 0.4678368 -0.18739726 0.424362
000110 35 66 29 3e e2 48 9d 3e a9 7e 0c 3e 1a b1 fc 3e
       0.16542895 0.30719668 0.13720192 0.49353868
000120 8a 42 e0 3d d2 97 ec be 67 6f 9f bc 48 93 97 3e
       0.10950191 -0.4620958 -0.0194623 0.29604554
000130 03 dc 05 3f ca 45 f3 3e e1 3d 85 be 96 b7 b5 3e
       0.52288836 0.47514182 -0.26023772 0.35491627
000140 79 5d f3 bc b3 56 27 3e 88 26 e2 be ce 0d e5 3e
       -0.029707657 0.16341667 -0.44170022 0.44737095
000150 e8 2e cf 3e 10 4d be 3e 0b 50 14 be 1d a8 15 bd
       0.40465474 0.3716817 -0.14483659 -0.03653728
000160 27 94 03 3f f1 5a 1c 3e 1d ff 01 3f 65 3c 19 be
       0.5139794 0.15269066 0.50779897 -0.14964445
000170 76 e1 10 bf 47 ae 7e be af e2 3e be f9 11 cd 3c
       -0.56594026 -0.24871169 -0.1864116 0.025032984
000180 2d dd 3a be 2c 11 c3 3e ae b1 fb 3e 37 ae 77 3b
       -0.18248434 0.3809904 0.49158996 0.003779305
000190 c5 91 0a 3f 76 1a e8 3e 91 9e b8 be 19 05 09 bf
       0.54128677 0.45332688 -0.36058477 -0.53523403
0001a0 a4 99 11 bf 41 f7 1a 3e 9f 4c 12 3f 3a ca a5 3e
       -0.5687506 0.15133382 0.57148165 0.3238085
0001b0 19 e1 51 3e 12 c8 f8 3e 09 51 a1 be 0e 41 e4 bd
       0.20496024 0.48590142 -0.31507137 -0.11145221
0001c0 9b 11 4f be 48 89 a9 be fd 8d 36 be 4a 0a d2 3e
       -0.2022156 -0.3311255 -0.17827602 0.41023475
0001d0 69 06 70 3e 43 bf 65 bd ee a9 90 3e 03 5c 22 bd
       0.23439945 -0.056090605 0.28254646 -0.03963853
0001e0 14 9b c8 3e 70 d1 d5 3e e9 36 ff be f5 a7 11 be
       0.39180815 0.4176135 -0.4984658 -0.14224227
0001f0 79 7d f5 bc 49 46 dd be 68 4d d5 be 3a ad 9f 3e
       -0.029967057 -0.43217686 -0.4166062 0.3118685
000200 83 e0 cc be b7 1c 4d be 5a 28 c5 be 2d 2e e3 be
       -0.4001504 -0.20030485 -0.38507348 -0.44371167
000210 86 56 d6 bd b4 39 c8 be 21 b3 06 3f 7a f6 ab 3e
       -0.10465722 -0.39106524 0.5261708 0.33586484
000220 a0 55 f9 be 61 fc 2f be 60 72 a9 be 4a 16 87 3d
       -0.4869814 -0.17186119 -0.33095074 0.06596048
000230 da 72 e2 3e 32 07 d5 3e 8e 38 ef 3d 46 bc b7 bd
       0.4422825 0.41607052 0.11680709 -0.08971457
000240 75 41 9a be 1d da 04 bf 35 9c 10 bf 87 98 a2 bc
       -0.30128065 -0.51895314 -0.56488353 -0.019848121
000250 85 87 76 be ce 9d f5 3e 82 0f d2 be c3 22 1d bd
       -0.24075134 0.47971958 -0.41027457 -0.03836323
000260 80 87 e0 be b1 0f 7f 3e 57 83 4c be c6 d2 98 3e
       -0.43853378 0.2490833 -0.19971977 0.29848307
000270 b1 04 0c bf 5f d6 6c 3e 41 20 11 bf 41 40 23 3e
       -0.5469466 0.23128651 -0.5668984 0.1594248
000280 41 3c 22 3e e4 d8 de be ee ff da 3e 01 c1 01 bf
       0.15843298 -0.4352485 0.42773384 -0.50685126
000290 37 e7 5d be fa b9 ee 3e 2a b7 82 3e 4f d7 2e 3e
       -0.21670233 0.46626264 0.25530368 0.17074321
0002a0 32 fa df 3e b2 96 f9 3e 0c db 9f 3e fd f0 f9 be
       0.4374557 0.48747784 0.31221807 -0.48816672
0002b0 d9 a0 08 3e 23 24 e5 be 24 0b ce 3e f6 6e d4 be
       0.13342609 -0.44754133 0.40242875 -0.41490906
0002c0 8a 87 b6 3e 0c 5d ae 3e 6e 1f bd 3e c5 75 8c be
       0.35650283 0.34055364 0.3693804 -0.274336
0002d0 ea a3 b7 bd 03 35 44 3e 66 01 ea 3e f3 b5 6f 3e
       -0.08966811 0.19160847 0.45704192 0.23409252
0002e0 cd dd 02 3d 29 fc 27 be 12 03 04 bf 27 99 a4 bc
       0.031949807 -0.16404785 -0.51567185 -0.02009256
0002f0 ec 58 0c bf ba 92 09 bf 51 08 5b 3e 1b 06 47 be
       -0.54823184 -0.5373951 0.21389891 -0.19435923
000300 c7 1d 01 3f c3 43 43 3d fb 1a 45 be 07 00 d9 3c
       0.5043606 0.047672044 -0.19248573 0.02648927
000310 69 fe 6d be e9 c0 f8 be ed b6 0d 3e 47 bd cc bc
       -0.23241581 -0.4858468 0.13839312 -0.024992598
000320 df ae 60 be 49 70 01 bf 52 bf fe 3e 91 f2 e4 be
       -0.21941708 -0.5056196 0.4975534 -0.44716313
000330 32 c7 f4 bd b9 b9 20 be 2e f4 ea 3e 79 de d0 bc
       -0.11952056 -0.15695848 0.4588942 -0.025496708
000340 57 be 18 3e 60 94 0e bf 5d e6 09 3f 5e da bc 3d
       0.14916359 -0.5569515 0.5386713 0.09221338
000350 04 1d de be 0a 1a 8c 3d f2 74 09 bf 7e 74 f8 3e
       -0.43381512 0.06840904 -0.5369407 0.48526376
000360 34 fc aa 3e bd 56 17 bd 47 32 12 3f 58 a8 b2 3e
       0.3339554 -0.036947954 0.5710797 0.3489406
000370 4d a4 3a 3e 6a 4f a6 3e 97 a1 43 3e bc fb ab 3e
       0.18226738 0.32482463 0.1910461 0.33590496
000380 b0 53 0c bf e2 77 99 3d 01 94 76 be 66 1f 87 3e
       -0.54815197 0.07493569 -0.24079897 0.26391143
000390 84 ea 93 be 9f 4f 0c bf ff da 39 3e a8 ce bc be
       -0.2888986 -0.5480899 0.18149947 -0.36876416
0003a0 43 38 02 3f ee aa f1 bd 64 09 06 bf 0a 50 fd 3e
       0.508671 -0.118001804 -0.5235808 0.49475127
0003b0 a3 4b 73 3e 76 5d dd 3e b1 21 2c be 06 1d e1 3e
       0.23759322 0.43235368 -0.16809727 0.43967456
0003c0 cd f4 45 3e 96 c9 9c be c5 f3 98 be 3d 3e 7d 3e
       0.19331665 -0.30622548 -0.2987348 0.24730773
0003d0 fd 8d fa be c3 7f 0b 3f 22 d0 b4 3d c3 19 70 bd
       -0.48936453 0.54491824 0.08828761 -0.05861832
0003e0 43 65 02 3f 73 59 7d 3d 85 72 09 3f b2 52 82 bd
       0.50935763 0.061852884 0.5369037 -0.06363429
0003f0 d8 5d d3 be f4 eb fc be 32 78 8d be 8e 1d f4 be
       -0.41282535 -0.49398768 -0.27630764 -0.47678798

conv2.weight f4 [32, 16, 4]
000000 d0 15 90 3d ef b1 f0 bc 10 88 d1 3d f2 c0 3f 3c
       0.070354104 -0.02938172 0.1023103 0.011703717
000010 15 b6 2b 3d 9b d6 04 3d 41 3b 7d 3d 01 50 f7 3c
       0.041921694 0.032431226 0.061824087 0.030189516
000020 ca c1 9a 3d 33 30 35 3d ef d9 e3 bc b0 8f b2 bd
       0.075564936 0.04423542 -0.02781388 -0.087188125
000030 8e c5 94 bd 19 49 7c bd bf 34 aa 3c 1b e1 7d bd
       -0.07264243 -0.06159315 0.020777104 -0.061982255
000040 94 8c a5 bd 95 23 30 bd 70 11 a0 3d d2 5e 38 3c
       -0.08083454 -0.043002684 0.07815826 0.011253076
000050 5c 91 ff 3d 9d 19 26 3d 32 5e 4d 3c 1c dd b7 3d
       0.12478897 0.04055177 0.012534665 0.0897772
000060 4d c2 33 bd d1 ef 60 3d b3 ee 53 3d 18 e8 b3 bd
       -0.04388647 0.054916207 0.051741313 -0.08784503
000070 42 ba d2 3d 67 57 39 3d 92 87 54 bc fa cf fa 3d
       0.10289432 0.04524937 -0.012971776 0.122467
000080 05 d0 19 bd 30 71 95 3d 61 8f 4a bd 16 f9 e2 3d
       -0.0375519 0.072969794 -0.049453143 0.110826656
000090 1f 0d 61 bd de 27 98 bd c6 10 d3 bd 81 d8 80 3c
       -0.054944154 -0.07429479 -0.10305934 0.015728237
0000a0 69 db 50 3d 96 69 8b 3d d4 ad ed bd 40 60 ef bd
       0.050990496 0.06807248 -0.11605421 -0.1168828
0000b0 21 6d 89 bc 8a 77 8a 3d 62 be af bd 76 66 e7 3d
       -0.01677567 0.067610815 -0.085812345 0.1129884
0000c0 f2 53 90 bd 89 9b df 3c 9e 47 e4 bd 41 0a 2f bd
       -0.07047261 0.027295845 -0.111464724 -0.04273439
0000d0 56 04 80 bd 61 17 f5 bc 60 d7 fa 3d ea d9 a9 3d
       -0.06250827 -0.029918374 0.12248111 0.08293517
0000e0 e2 58 ce 3d 4c ae e9 bd 64 f3 89 3d e8 df fe bd
       0.10075547 -0.114101976 0.06735876 -0.124450505
0000f0 92 54 10 bc 6e d7 7d bc d8 59 f9 bd 68 bc f7 3d
       -0.008809226 -0.015493257 -0.121753395 0.120964825
000100 2f d5 63 3d 42 6c 55 bc 88 76 e4 bd d6 d8 d4 bd
       0.05562323 -0.013026299 -0.111554205 -0.10392921
000110 88 1c 97 bd c9 3b aa bc e5 b6 fe bb d2 24 c9 bd
       -0.07378489 -0.02078046 -0.0077732676 -0.09821476
000120 c2 94 5c 3c 3e 75 c7 bd 6e e7 c7 3d 59 2e da bc
       0.013463201 -0.09739159 0.097609386 -0.026633428
000130 90 75 a7 bd 38 da 9f 3d 11 d1 d3 bc 38 b4 c0 bd
       -0.0817672 0.07805294 -0.025856527 -0.09409374
000140 95 3d 21 3d 62 c6 ea 3d 2f ab b9 3c 65 e5 f7 3b
       0.03936537 0.1146362 0.022664635 0.0075651878
000150 9e 89 49 3c 22 54 e6 3d 66 74 94 3d ab ca 31 bd
       0.012300877 0.11246516 0.07248764 -0.04340617
000160 0e d0 ce bd 40 22 8e bd 7c 54 d1 bd 44 92 8c bd
       -0.10098277 -0.069401264 -0.10221192 -0.068638355
000170 81 5c 07 3d 7d 8a 29 3d de 53 b5 3d c4 c5 fa 3d
       0.033047203 0.04139184 0.08853887 0.12244752
000180 34 c6 81 bd 47 06 79 bd d2 1c ef bd 15 26 44 3d
       -0.06336632 -0.060797002 -0.11675419 0.04788788
000190 d2 56 1c 3c 2a 65 85 bd 81 4b d2 bc ad 19 5f 3d
       0.009542184 -0.06513436 -0.025670769 0.054467846
0001a0 40 10 a2 bd ca 54 ed 3d 66 36 b0 3d ec e3 84 bd
       -0.07913256 0.11588438 0.08604126 -0.06488785
0001b0 c8 6e a8 bd 64 18 d4 3d 46 cb 9c 3d ee 1a 2d bc
       -0.08224255 0.10356215 0.07655959 -0.010565503
0001c0 9b 2a e4 bb fd ea 77 3d b7 ce 40 bd d0 20 cd bd
       -0.006963087 0.060526837 -0.04707214 -0.10016024
0001d0 08 ee b4 3d 38 35 a3 bd 24 d5 cf 3d 0e e4 1b bc
       0.08834463 -0.07969135 0.10148075 -0.009514822
0001e0 cc dd 8a 3d 0a 54 8d bd f0 5b e6 bd c5 5e b3 3b
       0.06780586 -0.06900795 -0.112480044 0.005473944
0001f0 77 68 5e 3b 96 72 93 bd ab 9a 0c 3d bc 66 c3 3d
       0.0033936778 -0.0719959 0.03432719 0.095410794
000200 7f 53 99 bc 15 98 07 3d eb f2 45 3d d9 09 d5 3c
       -0.018716572 0.03310402 0.048327368 0.026005672
000210 d1 b9 49 3d 14 4f b4 3d c6 b1 94 bd d4 df 95 bd
       0.049249474 0.088041455 -0.0726047 -0.073180825
000220 80 4a 8d bd e7 2a 2b 3d 31 f5 3a 3d 48 2c c9 3d
       -0.06898975 0.04178896 0.04564399 0.09822899
000230 57 a4 03 3d 14 5b f5 3d ee ce d8 3a 9a ee b6 bd
       0.03213915 0.119802624 0.0016541162 -0.089322284
000240 34 9f fc bd 32 20 8f 3d 69 37 1f bd d9 2d ce 3c
       -0.12335053 0.06988563 -0.038871203 0.025168346
000250 1b 48 87 bb 17 2c 73 3d ee 85 82 bd e7 a5 92 bc
       -0.0041284687 0.05936822 -0.06373201 -0.017901374
000260 24 e8 ef bd d1 64 90 3c 5e b6 88 bd 12 c9 cc bd
       -0.11714199 0.017626198 -0.06675409 -0.099992886
000270 60 32 eb bd 6e 6b 8f 3d 19 43 db bc 77 34 56 3b
       -0.11484218 0.070029125 -0.026765393 0.003268508
000280 7c 84 dc bd 54 31 e4 3d aa 0e b2 3d 0f 1d d4 3c
       -0.10767457 0.11142221 0.08694203 0.025892762
000290 00 c3 f8 bd 06 3f b2 3d 8c 1d c0 3d 59 c4 b8 bc
       -0.12146568 0.08703427 0.093806356 -0.022554563
0002a0 28 14 8f bd 5e 1c ea bd ef f1 4d bd 6d 7e 2e bd
       -0.069862664 -0.11431192 -0.050279554 -0.042601038
0002b0 7a 72 e0 3d 49 b8 05 3d 6e 64 d9 bd 7d 56 25 bd
       0.10959335 0.03264645 -0.106148586 -0.040365685
0002c0 4c ba b4 3d 98 10 fc 3d d1 96 c6 3c b7 f8 42 3d
       0.08824596 0.123078525 0.024241837 0.047600474
0002d0 29 bf 5e bd 3c 9a ca 3b 41 66 df bc ce c7 9f bd
       -0.054381523 0.006182937 -0.027270438 -0.078017816
0002e0 83 8c 51 bd 36 ac 96 3d c4 1c a7 bd 56 f8 de 3d
       -0.051159393 0.073570654 -0.081597835 0.1088721
0002f0 de f0 b0 bd c1 81 b2 3c b7 3b 3b bd e7 56 95 bc
       -0.08639692 0.021790387 -0.045711245 -0.018229915
000300 96 b6 8d bd 4e 0c b7 3d 37 bc 81 bc 9a 2b ac bd
       -0.06919591 0.08937894 -0.015836818 -0.08406754
000310 92 28 6f 3c 5e e9 64 bc 0f 62 eb bc e1 5f af bc
       0.014597075 -0.013971655 -0.028733281 -0.021408023
000320 d9 cb 5c 3d b1 b5 01 bd 85 8d 6d bd 87 32 7a bd
       0.05390534 -0.031667415 -0.05799629 -0.061083343
000330 c2 73 e2 bd e5 f9 8c bb 7c f9 d1 bd dc b5 9b 3d
       -0.11057235 -0.0043022507 -0.102526635 0.07603046
000340 00 43 8d bd ce 6a d1 3d a2 c3 04 3c 18 52 cf bd
       -0.06897545 0.102254495 0.008103283 -0.1012308
000350 08 e4 ae 3d 47 15 30 bd 89 cc 9b bc 04 ee 8b 3d
       0.08539587 -0.04298904 -0.019018428 0.06832507
000360 f8 bb c8 bd 07 6b 03 3d 52 60 dc 3d e8 08 ce bd
       -0.09801477 0.03208449 0.10760559 -0.100602925
000370 7c 34 e4 bd 8c 3b d5 bd ae ad f2 3d ad e1 0c 3d
       -0.11142823 -0.10411748 0.11849533 0.03439491
000380 b6 d2 e1 3d 6c 7a e9 bd db 47 47 bd df be 9e 3c
       0.11026518 -0.11400303 -0.04865251 0.019378124
000390 ee 1e 9c 3a cc a2 e5 bd ee 93 8d ba 99 71 9f bc
       0.0011911073 -0.11212692 -0.0010801533 -0.019463347
0003a0 f9 fc 70 3d 41 5c 6f bd 51 ab 3f bd ba 1a 97 3d
       0.058835004 -0.05843759 -0.04679424 0.073781446
0003b0 19 18 a0 bc 97 3d b9 3c 85 fd 65 3d 98 55 99 3d
       -0.01954274 0.022612376 0.05614998 0.07487029
0003c0 99 55 17 bd 51 47 bb bc 3f dc ed bc 15 e4 0c 3d
       -0.036946867 -0.022861155 -0.029035686 0.034397203
0003d0 be cc e2 3d 31 ce de bc d6 61 83 bd 6a 3b a6 bd
       0.11074208 -0.02719793 -0.06415145 -0.08116801
0003e0 8f e0 51 3d 9e f9 b3 3d cc 41 d0 3d a1 bc 94 bc
       0.051239546 0.08787845 0.101688 -0.018156352
0003f0 7c a6 e8 3d 3a b3 c8 bd 62 7c f6 bd ee 62 dc bd
       0.113598794 -0.0979981 -0.12035443 -0.10761057

conv2.bias f4 [16]
000000 24 1e d1 3d 34 46 d2 3d 22 6e be 3d b8 61 8d 3d
       0.10210827 0.102672964 0.0929835 0.06903404
000010 4d 38 6f bd 30 fc e0 3d e8 73 9b 3d ae e6 d4 bd
       -0.058403302 0.10985601 0.07590467 -0.10395561
000020 de 16 cc 3d d6 6d f1 bd 57 06 60 bd 2c c5 f5 3d
       0.09965299 -0.11788528 -0.054693546 0.12000498
000030 b6 83 d1 bd c6 74 92 bd d1 97 34 bd 93 af 4c 3d
       -0.102302 -0.07151179 -0.044090096 0.049972128

conv1.weight f4 [16, 1, 4]
000000 ec 47 de 3e 13 88 02 3e cc f4 fe 3e ee 4b ca 3d
       0.43414247 0.1274722 0.4979614 0.09877764
000010 82 60 c3 3e 8d 4f 79 be 91 1e 79 3e 33 70 01 3e
       0.38159567 -0.24346752 0.24328066 0.12640457
000020 8e 74 f5 be ed db 54 be 5e 25 82 bd 86 ef e1 3d
       -0.47940487 -0.2078702 -0.063547835 0.110320136
000030 2e f3 b5 be ce ba bc 3e 70 14 af be bf d0 28 3e
       -0.35537094 0.3686127 -0.3419528 0.1648588
000040 de 5d 9b 3e b6 fc 82 be 99 ab a9 bc 96 ca c9 3e
       0.30345052 -0.25583428 -0.020711707 0.39412373
000050 ba f9 df 3d 66 e0 cd 3d 38 4d f2 3e 2a d4 89 be
       0.109363034 0.10052566 0.47324538 -0.2691968
000060 12 42 c9 3e 08 c1 f9 3e 72 69 c3 be 0a a0 e5 bd
       0.3930822 0.48780084 -0.38166386 -0.11212166
000070 57 2b 5a be 12 6c db bd 8a f8 ef be 03 24 60 bd
       -0.21305595 -0.10713972 -0.46869308 -0.054721843
000080 10 b6 a9 3e f9 05 e9 3c f6 14 f8 be 81 67 04 be
       0.33146715 0.02844523 -0.48453492 -0.12930109
000090 7a c0 d9 3e 5d 82 2d be a4 a6 b3 be 74 96 f8 3e
       0.4252966 -0.16944261 -0.35088074 0.48552287
0000a0 70 d3 fc be fd 0c 31 3d 98 b0 b2 be a8 d6 f0 be
       -0.49380064 0.043225277 -0.34900355 -0.4703877
0000b0 1a 52 c1 3d 46 df 86 3e f2 a4 29 bc 7e 59 c1 3e
       0.09439488 0.2634222 -0.010354267 0.3776359
0000c0 a4 ed 83 be 2e 43 b5 3e c0 3d fa be 93 c7 10 3e
       -0.25767243 0.35402817 -0.48875237 0.14138632
0000d0 54 dc 99 be fe fc c0 3d 9f 9f 4e be 26 ae c5 3e
       -0.3005091 0.094232544 -0.20178078 0.38609427
0000e0 3c 63 c6 3e 60 a8 91 be a2 08 db 3e 18 47 af 3e
       0.38747585 -0.28448772 0.42780024 0.34233928
0000f0 da 65 d4 3e 3f 99 47 3e 6b 8f 46 be e4 8c 9c be
       0.41483957 0.19492052 -0.19390647 -0.3057624
