wavae_notebooks/WAV/Various-ups-downs/model-tanh-1500/model-tanh-1500.pt (torch, 103739 bytes, 13 tensors)

encoder.conv1.weight f4 [16, 1, 4]
00000000: bb85 c1be 7d82 b4bd a206 f13e 2eb4 97be
00000010: cb57 ddbc a9c5 e53e 8880 c93e 4b23 833e
00000020: 5dfc 033d 5e28 1bbe 9802 85be e070 973e
00000030: 95b7 9b3e 4606 e33e 194c b93d 81f9 ce3e
00000040: 7112 a33e 67ad b23e 108f 9ebe 4f41 82be
00000050: 7de9 c53e 42ac ac3e bdcf c33e eab8 b53e
00000060: 1e6c eda8 e1af 0000 5473 0500 7700 0200
00000070: 48de d23e ab77 9ebe d087 e53e a476 a7be
00000080: f5f7 98bc 79b8 e6bc 04d1 e2bc 19c9 abbc
00000090: ede3 eabd 6bd6 f93d 8537 f1be 0b98 b9be
000000a0: b757 9e25 2b1d b6bc b050 b6bc 375d d725
000000b0: 04d9 21bd 377c f43e be70 d83e 3de3 913e
000000c0: 9388 533e fcb3 9f3e d2de 803e 6413 343e
000000d0: 68f8 3fbe 6776 10be c8b0 1e3e b672 cabe
000000e0: 166a 7dbe b6c9 f3be 2553 ba3c 7420 8e3e
000000f0: 0d0e 2fbe 07ab 333e 94ac 963e 70c7 903e
-0.3779734 -0.08813951 0.47075373 -0.29629654 -0.027019402 0.44877365 0.39355874 0.25612864
0.032223094 -0.15152118 -0.2597854 0.29578304 0.304135 0.44340724 0.090477176 0.4042473
0.31850007 0.3489792 -0.30968523 -0.25440452 0.386547 0.33725172 0.3824443 0.3549264
-2.6359174e-14 6.3093e-41 5.0055e-40 1.83838e-40 0.41185212 -0.30950674 0.4483018 -0.32707703
-0.018672923 -0.028164135 -0.027687557 -0.020969914 -0.11469255 0.121991 -0.4711267 -0.36248812
2.746807e-16 -0.022230705 -0.022255272 3.735972e-16 -0.039513603 0.47751018 0.42273515 0.28493682
0.20657568 0.31192005 0.25169998 0.17585522 -0.18747103 -0.14107667 0.15497124 -0.39540642
-0.247475 -0.4761483 0.022744725 0.27759135 -0.17095204 0.1754571 0.29428542 0.2827716

encoder.conv1.bias f4 [16]
00000000: 5224 12be ed4c f43e fec1 3f3e 3cf6 2dbe
00000010: 0654 a9be 5f60 f2be 562e 96aa 3dba 4e3d
00000020: 1b9b 02bd d55d ba3e 67c2 b6bc 5ae6 f73c
00000030: 83b1 72be c7d4 de3e 5722 bf3e 1c6e 09be
-0.14271668 0.4771494 0.18726346 -0.16988462 -0.33071917 -0.4733915 -2.6677505e-13 0.05047058
-0.0318862 0.36399713 -0.022309495 0.030261207 -0.23700528 0.4352171 0.37330887 -0.1342091

encoder.conv2.weight f4 [32, 16, 4]
00000000: 9402 29bd f20f eb3c 189a 553e 9f0e d23c
00000010: 987b 043d b05e 56bd 1c3f 2fbd 43af a1bd
00000020: 1fcb 45bd 6942 c13a 4275 ebbd d188 cf3c
00000030: d1a5 843d d43d 423c 6da2 1b3d 91f4 d3bd
00000040: 9bd2 933e c439 e93d dfd0 d93d 8fe3 383d
00000050: df87 c1bc faa7 073e 65b7 f53d 4b54 163d
00000060: f31a 0000 9e7b 0800 7b68 0c80 ca03 0480
00000070: 6a61 cbbb 8702 b2bd 57d0 42bd 924a bbbb
00000080: 1484 e63c 02d5 43bc 4e30 acbc f80b c1bc
00000090: 0673 c5bd d3f4 fbbb fccd 043b 2f3b 65bd
000000a0: 20d2 d6a3 775e 4224 72ef d7a5 2d98 0880
000000b0: 6886 2bbc 07f6 62bd 04cd da3d 979c c2bd
000000c0: d43e 963d 6f80 073d 7b51 403d 8cdf d0bc
000000d0: 36fd d3bc 6da0 d3bd 3fdf fa3d 7a3d 8b3d
000000e0: fc5c 97bd 9007 f73c ebc2 8dbd 2cd9 64bd
000000f0: 630b 37bd 9882 133d bbd3 ca3d 64dd c63c
00000100: 49b4 e43b c8ed e2bd 3a0b 3ebe d08e 93be
00000110: 54a7 c5bd 41ce 0d3d 44d1 923c bf1c 74bd
00000120: ad93 c23d e17e f43c a822 c8bc a292 e83d
00000130: 34e6 893d 4af2 b93d f6e0 99bc cc8f eebd
00000140: 8042 ecbd c14a 1abe 31b6 0d3e dbc1 ebbb
00000150: ab81 09bd 47d9 b93d 68bb 393b 3231 02be
00000160: cbde 0900 00d0 0580 df24 0480 5717 0600
00000170: 944b 9b3d 8cf4 babd 180f e93d 6931 aebd
00000180: d21e c23c 0ed8 9d3c 3397 c93c 0f0d 9e3c
00000190: 2187 01be 7ae7 b93c 612e 083d 48cb dfbd
000001a0: a079 0f28 393b 1128 5293 00a8 e975 42a6
000001b0: 0b7a b43d f6ac a2bd 6310 f6bc 04a1 103d
000001c0: 91e4 3f3d 38b3 02bd aa8d 67bd 5528 b83d
000001d0: c0fd 67bd c43c 4f3d 96cb f83d 5a18 ba3d
000001e0: f82d a33d fc1c ddbc 5fe7 de3c c06f 523d
000001f0: 441e 8d3d 24a4 a03d 85a0 cabd d1ea 37bd
00000200: ddd2 10be c471 edbc 9504 2ebe 0cfb ff3d
00000210: 8b3d 7bbc f6b9 8abd 16bb c83d 7598 463d
00000220: a14e f0bd bfbd 89bd 51e7 1abd 219e 053d
00000230: 8313 073d 2a85 853d f464 70bd 2b4f 343d
00000240: 8f27 d7bd 5953 fbbd f5b2 0cbd eb1a 23bd
00000250: e234 ad3d c57a 333c 16c7 d13d 4b0d 0d3e
00000260: 5f43 0480 2bd6 0080 f630 0480 29b4 0780
00000270: 9fc4 b63d cd0e 16bc 63ac 7d3d 45a1 b43d
00000280: 0ef3 993c 981c 943c a656 983c e8e2 983c
00000290: 7e07 dabc 6ddd babd 9d40 283d dac4 0e3d
000002a0: 5972 7128 6c04 4726 b3e6 0c28 40f7 af27
000002b0: 5bd8 a93c caff 073d 8b58 31bd ae3d c03c
000002c0: 9b53 183e 8dc7 76bd 45cd 763b 1dad 743d
000002d0: 1494 bebd 7fce f33c 7c69 bdbd 85db 22bd
000002e0: 0978 343d a3ed ab3c 0b32 a9bd 2c39 edbc
000002f0: cf48 1fbd a86b 1e3d 85d0 babd 61d4 1f3c
00000300: 7bda 2ebe e137 04be 340d f1bd f454 5d3d
00000310: 430f 12bd 6bcb 513b 8129 d0bd 7c5c bb3d
00000320: 2d60 ba3d 88bc de3d 58d4 883d e472 92bd
00000330: 8570 dcbc 3db8 71bd 2dab fcbd 29d9 6dbc
00000340: db71 01be f64c a6bc fa99 ea3d 063e 07be
00000350: 0e96 f7bc 0fbd adbd 8bd8 b4bb ab23 92bd
00000360: 212a 0880 e169 0100 c766 0100 3056 0680
00000370: 4c48 a8bd 8e19 c8bc 8f02 d1bd a6be 58bc
00000380: a80e 923c 5ce3 ff3c a92f e83c 07cf ad3c
00000390: e97c 1b3d 157d fb3d ad10 fe3d e5af 09be
000003a0: b7b7 3ea7 3c2c 3a27 d0bb f0a5 9aba 7727
000003b0: 42f2 79bd fe0d f9bd b3a2 cbbc d458 af3d
000003c0: d2bd 4e3d 16e0 803d 8477 38bc 59b4 7fbd
000003d0: 9599 ac3d c009 343e ad32 1d3e ebe8 6b3d
000003e0: c101 8a3d f6a9 b23c 17aa 85bd 5e54 3fbb
000003f0: 5d1b 84bd e397 eabd 9ec6 0dbe 4fcd a13d
-0.041262224 0.028694127 0.20859563 0.025641738 0.03234443 -0.052336395 -0.042784795 -0.07894757
-0.048289414 0.0014744523 -0.114969745 0.025333794 0.064769395 0.011855561 0.0379967 -0.10349382
0.28871617 0.11387971 0.10635542 0.04513889 -0.023624359 0.13247672 0.1199787 0.03670148
9.668e-42 7.7903e-40 -1.139506e-39 -3.68701e-40 -0.006206681 -0.08691888 -0.04756197 -0.0057156766
0.028139152 -0.0119526405 -0.021019127 -0.023565277 -0.096410796 -0.0076890974 0.0020264378 -0.055964645
-2.3290918e-17 4.214706e-17 -3.745881e-16 -7.89274e-40 -0.010469057 -0.05541041 0.10683635 -0.095025234
0.07336202 0.03308147 0.046952706 -0.02549722 -0.025877576 -0.10333333 0.12249612 0.06798835
-0.07390782 0.030154973 -0.06921943 -0.055871174 -0.044688594 0.036013216 0.09903666 0.02427549
0.0069794995 -0.110805094 -0.1855897 -0.28819895 -0.09651056 0.034620527 0.017922051 -0.059597727
0.09500823 0.029845657 -0.024430588 0.11356093 0.06733361 0.09079416 -0.018784028 -0.11648521
-0.11536121 -0.15067579 0.13839032 -0.00719474 -0.033570927 0.090746455 0.0028340463 -0.12714079
9.06443e-40 -5.33794e-40 -3.80569e-40 5.59386e-40 0.07582775 -0.09128675 0.11379832 -0.08505518
0.023696337 0.019268062 0.02460823 0.019293336 -0.12649204 0.022693384 0.033247355 -0.10927445
7.964468e-15 8.061959e-15 -7.137372e-15 -6.746707e-16 0.0881234 -0.07943146 -0.03003711 0.035309806
0.046848837 -0.031909198 -0.056531586 0.08992068 -0.05663848 0.05059506 0.12148206 0.09086676
0.07967752 -0.02699136 0.027209936 0.051376104 0.06890538 0.07843807 -0.09893898 -0.044901673
-0.14142938 -0.028984912 -0.16993935 0.12499055 -0.015334497 -0.067737505 0.09801309 0.048485238
-0.11733747 -0.06725644 -0.037818257 0.032621507 0.032977592 0.0651954 -0.058690026 0.044020813
-0.10505592 -0.12271757 -0.034350354 -0.039820593 0.08457352 0.0109545635 0.10243051 0.13774602
-3.9151e-40 -7.6829e-41 -3.84906e-40 -7.07478e-40 0.08924221 -0.009158802 0.06193198 0.08819822
0.018792655 0.01808004 0.018596005 0.018662885 -0.0266149 -0.09124265 0.041077245 0.0348557
1.3402983e-14 6.9047987e-16 7.821586e-15 4.8840326e-15 0.02073305 0.033202924 -0.04329733 0.023466911
0.14875643 -0.0602489 0.0037658971 0.059735406 -0.093055874 0.029761551 -0.09248635 -0.03976013
0.044059787 0.020987337 -0.08261498 -0.028957926 -0.038887795 0.038676888 -0.09121803 0.009755225
-0.17075531 -0.12911941 -0.117700964 0.054036096 -0.035659086 0.0032012116 -0.10164166 0.09148499
0.09100375 0.10875803 0.06681126 -0.0715082 -0.026909122 -0.059013594 -0.12337337 -0.014517107
-0.12641089 -0.02030037 0.1145515 -0.13207254 -0.030222919 -0.08483326 -0.005518978 -0.071357094
-7.49797e-40 1.29818e-40 1.28705e-40 -5.81931e-40 -0.082169145 -0.024426248 -0.10205566 -0.013229048
0.017829254 0.031236343 0.028343039 0.021216882 0.03796092 0.12279717 0.124055244 -0.13446005
-2.6467389e-15 2.5836665e-15 -4.176063e-16 3.4379293e-15 -0.06102205 -0.12160872 -0.024857854 0.085618645
0.050473996 0.06292741 -0.0112589635 -0.062427852 0.08427731 0.17581844 0.15351363 0.057595175
0.06738616 0.02180956 -0.06526583 -0.0029194574 -0.06450532 -0.11454751 -0.13845298 0.07900488

encoder.conv2.bias f4 [32]
00000000: 8192 a03c 5525 d83d b733 8ebd 0174 a23d
00000010: 7acb 883d 58b7 87bd d50b b33d 1c3e a3bd
00000020: b835 aebd dd3a e8bd b8e0 d63c 656e 7dbd
00000030: 1455 eebc 10eb b6bd 177f a6bc f3fb 0b3b
00000040: f64b d3bd 61b1 bdbc f56b 0bbd 054e 523d
00000050: f514 053e cd0d 6a3c 6328 9c3d fb29 1d3d
00000060: 7802 bc3d c0d2 a3bc 2abf 453d cf15 c4bd
00000070: 850b bd3c aad6 dcbd aa20 d83d 2291 58bd
0.019601109 0.105539955 -0.069434576 0.07932282 0.06679435 -0.06626767 0.08742491 -0.07970831
-0.0850634 -0.11339352 0.026230201 -0.06187286 -0.029093303 -0.08931553 -0.020324273 0.002135989
-0.10317223 -0.02315587 -0.034038503 0.051343936 0.12996276 0.014285517 0.07624891 0.038370114
0.091801584 -0.019997954 0.04827801 -0.09574472 0.023076782 -0.107831314 0.10553105 -0.052872784

encoder.fc_mu.weight f4 [3, 2048]
00000000: bb84 0600 a768 91bb 309f f0bc f796 bcbc
00000010: fc61 e9bb 4a52 4f3b 02bd 0c3d d055 ecbc
00000020: f7ba 94bb 19d2 7f3b 1be4 ab3c 069f 913d
00000030: 428d 1f3b a5c2 cabb b6bf 3e3d f5ad c83b
00000040: e14f 503d 9999 223c 9cf1 70bd c537 683b
00000050: c603 18bd 109c a23b d485 b53b 5b98 11bd
00000060: 02ab 12bd 46cf 073c c5fe 93bc ab66 6d3d
00000070: 6ea0 3dbc 5d4f ea3b 56c5 62bd ba73 58bc
00000080: cdd7 093c 8e94 453c df30 1339 eeae 2fbc
00000090: f771 c6bc 637c 6d3c 2954 30bc b4c6 3b3c
000000a0: cbc3 c53c 7a24 5bbb c424 d63c de90 413d
000000b0: 1acb 6cbb 7840 d8bb 0fa2 863c 0afd 20bd
000000c0: 0eec 02bd 4e81 09bb ba7b 0dbd b342 9b3c
000000d0: fb31 c8bb 9e16 52bc aef9 453d ed74 17bc
000000e0: f284 8fbc b951 863c cada 923c 1b4e 623b
000000f0: dc9f d4bb 1888 2abc f5ee 363c 878d be3c
00000100: 8b3e 60bd 1c7a 5e3c 48f0 2a3b bcd9 57bb
00000110: 4fe9 06bd 5c3b 35bc 15e2 083a 9698 dfbb
00000120: be7e bebc 66b3 383c 74fd 943c ddef 0bbc
00000130: 555b f43c e9b2 253c f3a4 943c 6fba 223d
00000140: de48 213c bebc 943c 82de 733b f2ef 6fbc
00000150: caa8 173d 3651 5cbc 2afa 02bc 6150 193c
00000160: 4157 843c cfd0 513b 796d ed3c 265d 00bd
00000170: 617a 3dbc 2696 2d3c c1c9 6c3c 8ed3 a73c
00000180: 8426 933b 7631 d73c 4c38 55bc 2925 203c
00000190: 679d b53c 863a 25bc 9f12 b13c 433e a0bb
000001a0: f345 db3c 43a9 bd3c 1a13 af3c 2c1e 7e3c
000001b0: a7be 69bb d338 533c db19 d73c 8f3c 29bc
000001c0: 3baa 0a3a 46b7 183c 637f 8dbc 37a1 1f3d
000001d0: 1986 f13b 500a 85bc 012b d63c a782 a83c
000001e0: d390 8fbc 36c3 213d dac2 303c 7062 9dbb
000001f0: 2a88 293d 149f b1bc ce74 9c3c e6cd 9bbc
00000200: 89a7 0b3d c2b9 4f3c fa1e 353b dd71 c43c
00000210: 0176 f43c 1de4 403a f5dd e2b9 d56f 823c
00000220: 440d d13c d83d 443c 3e52 923c e1d8 583c
00000230: 0c41 643c f04e 90bc 5236 0bbd 5051 f9bc
00000240: d13e 0bbd 91b5 3abd 0560 1fbd d88e 70bd
00000250: a5d1 cebc 4ed8 64bd b3f3 84bc 5a64 abbc
00000260: b364 e13b 6771 613a a6e6 22bc 9edc b3bb
00000270: 3ecb 9abb ff26 ddbc 5df3 9fbc 96a9 aabc
00000280: 61f6 4cbb fd13 b9bc 1e65 8ebb d3e1 f0bc
00000290: 05ff 46bc 4a93 76bc 5717 b5bc 700e 71bb
000002a0: 7873 aa3c 7104 debb 9c94 1abb cd3d 41bd
000002b0: 4c6d 03bd 86b1 763c c63c b6bc f4ca 42bc
000002c0: ea7b 15ba b97a aa3c 056c 03bc d622 573c
000002d0: 20ef 0d3c f0e6 233b 874c 093c d534 49bc
000002e0: 52c2 c73c 2ab4 e0bc d690 32bc 131c cb3c
000002f0: 54b3 05bc 210a a2bc 9a26 04bd e325 0dbc
00000300: 4984 c9bd bc8d 53bd 77ac 8cbd 1ea8 d9bb
00000310: 9542 e3bc 1cb7 aa3b 172d 9ebd 141a d6bd
00000320: 35ae d4bd 9958 8cbd 2ae5 51bd 9784 dcbb
00000330: d3f8 e6bb 251f c53c 6e48 263c 1e73 45bc
00000340: 3d7d 593d fbae 103d 9073 653d 5f82 733d
00000350: ca79 ff3c 4742 bc3c 70bf e23c d667 4a3c
00000360: c5f4 a23b 02e7 68bc 1442 363d be40 683d
00000370: 4f6b 47bd 60ff f43b 42ca 22bb a388 7b3d
00000380: c660 6abc 99b9 513d b7d8 0c3d 827e a13c
00000390: 9d8b febb 4ef6 43bc 7281 b9bc 2a98 cbbb
000003a0: 1bac 0e3d f742 223d d9ee 183d fde8 363d
000003b0: 3929 bd3c c31f 36bc de18 40bc f486 62bb
000003c0: a212 5d3d 2f70 69bd 445a c1bc 8175 04bd
000003d0: 9090 593d 760f 92bc 59b4 26bd 88d7 663c
000003e0: 16d8 45bd 4ba5 a83c 9fda 423d e2eb 97bc
000003f0: bb51 8f3c 2a7e e73c e2c4 0e3d 50b3 f6bc
5.98628e-40 -0.0044375244 -0.029372782 -0.023021204 -0.0071222764 0.0031634741 0.03435994 -0.028849512
-0.0045388895 0.003903514 0.020982793 0.071104094 0.002434567 -0.006187754 0.04656955 0.006124253
0.05085743 0.009924316 -0.058824167 0.0035433632 -0.037112974 0.0049624518 0.005539635 -0.035545688
-0.035807617 0.008289164 -0.01806582 0.05795924 -0.011573894 0.007150574 -0.055363975 -0.013211185
0.008413267 0.012059344 0.00014037218 -0.010722859 -0.024224265 0.014494988 -0.010762253 0.011460949
0.024141213 -0.003343849 0.026140578 0.047257297 -0.00361318 -0.006599482 0.016434697 -0.039303817
-0.0319634 -0.0020981613 -0.034541823 0.018952703 -0.0061094738 -0.012822775 0.048333816 -0.009244186
-0.017519448 0.01639639 0.017926592 0.0034531418 -0.0064887833 -0.010408424 0.01116537 0.023260845
-0.054747146 0.013578918 0.002608316 -0.0032936176 -0.032937344 -0.011061516 0.0005221677 -0.0068236096
-0.023253795 0.011273241 0.018187262 -0.008541075 0.029828707 0.010113456 0.01814506 0.03972858
0.009844033 0.018156406 0.0037211482 -0.01464461 0.037026204 -0.013447097 -0.007994214 0.009357543
0.016154887 0.0032015329 0.028982865 -0.031338833 -0.011564822 0.01059488 0.014452399 0.02048662
0.0044906754 0.026268702 -0.0130139105 0.009774485 0.022169782 -0.010084754 0.021615325 -0.0048902347
0.026766753 0.023152 0.021371413 0.015510123 -0.0035666616 0.012891966 0.026257446 -0.01032938
0.00052896485 0.00932104 -0.017272657 0.038972106 0.007370722 -0.016240269 0.026143553 0.020570112
-0.017525112 0.03949281 0.010788644 -0.0048029944 0.04138962 -0.0216823 0.019098666 -0.019019078
0.03409532 0.012678565 0.0027636872 0.023980075 0.029841425 0.000735821 -0.0004327145 0.015922466
0.02551902 0.011977635 0.017861482 0.013235302 0.013931524 -0.017615765 -0.03398735 -0.03043428
-0.033995453 -0.04558331 -0.03890993 -0.058729976 -0.02524645 -0.055870347 -0.016229486 -0.020921875
0.0068784594 0.0008599967 -0.009942686 -0.005488946 -0.0047239354 -0.026996134 -0.019525224 -0.020832818
-0.0031274783 -0.022592539 -0.00434555 -0.029404556 -0.012145762 -0.015049765 -0.022105856 -0.0036782287
0.020807013 -0.006775432 -0.0023587113 -0.04717808 -0.032086655 0.015056973 -0.022245776 -0.011889208
-0.00057023636 0.020810472 -0.008021359 0.013130864 0.008662969 0.0025009476 0.008380062 -0.012280663
0.024384651 -0.027429659 -0.010898789 0.02479366 -0.008160431 -0.01978022 -0.032263376 -0.00861499
-0.098396845 -0.05164884 -0.068688326 -0.0066423556 -0.02774171 0.0052098166 -0.07723444 -0.10454193
-0.1038479 -0.06852836 -0.05124394 -0.006729673 -0.007048705 0.024062702 0.0101491045 -0.012051372
0.053097952 0.035323124 0.056018412 0.059450503 0.031186003 0.022980822 0.027679175 0.012353858
0.0049730265 -0.014215233 0.04449661 0.056702368 -0.04868632 0.007476732 -0.0024839793 0.061409604
-0.014305299 0.05120239 0.034386363 0.019713644 -0.007768108 -0.011960579 -0.022644732 -0.0062132077
0.0348321 0.039614644 0.037337158 0.04465579 0.023090946 -0.011115971 -0.011724679 -0.0034565302
0.053972848 -0.056991752 -0.023602612 -0.032338623 0.05311638 -0.017829638 -0.040699337 0.014089473
-0.04830178 0.02058663 0.047571775 -0.018545095 0.017495027 0.028258402 0.03485573 -0.0301148

encoder.fc_mu.bias f4 [3]
00000000: 531b 73bc d459 bcbc 6d05 ce3c
-0.014838058 -0.022992052 0.025149072

encoder.fc_logvar.weight f4 [3, 2048]
00000000: c237 0400 5875 d63c d0e3 f1bc 7a5c 9fbc
00000010: c743 72bb 7ffb 86bc f9e6 8ebd 7587 c5bc
00000020: 2e35 b33c 79aa 143d 7924 adbc e2d6 063c
00000030: 0f64 913c bbb6 a2bc 24a0 fbbb 527b 02bb
00000040: 16bc 94bc c763 06bc 5bc0 f7bb 9f23 90bc
00000050: 5787 0f3b fbd7 41bc 1111 a23b e293 a73c
00000060: 7338 61bb 98b8 93bb a23c 44bc 06e0 9a3d
00000070: 2aa6 513d 26b4 1139 3f50 86bc 58ae 8cbc
00000080: 5292 3d3d 0b79 963b badb a73d e9e9 913b
00000090: 0710 083b 417b 8abb 91bf 44bc b6e1 babc
000000a0: 663f e23c c82a ae3b 8bb7 b9bc 3c52 fcbb
000000b0: 7d7a 9ebc d5ca 53ba 96d1 dabc 8cfd d6bc
000000c0: 2dfb 703c adde 5e3a 9180 94bc 6452 9fbc
000000d0: f8bc 143d 1a1d 10bc 3475 90bb 08e3 53bc
000000e0: 4cea cbbc bc5b c23b 4878 273c c722 a6bc
000000f0: 9250 01bd 8488 6cbb 38df a6bc 2343 50bc
00000100: a0af ab3b 3066 e6bb 5edb 84bb 6b9f 14bd
00000110: d330 c7bc 424d 48bc dbd2 cbbc 9393 94bc
00000120: dae3 2b3c 01a7 003c 8d66 e7bb 23ca 8ebc
00000130: e575 d4bc 833f f2bc 0676 c0bc 792c 06bc
00000140: f7c3 e7bb 3bc0 babc 9d83 eebc 0fd9 3f3c
00000150: 346b dfbc 598e d33b 4ee5 8d3b 8244 cbbb
00000160: 7021 8dbc 895c d4bc 940e e2bc 4d2b 3e3b
00000170: da11 dbbc b85d 26bc 69d7 abbc 3a9e 55bc
00000180: 2c48 fa3b 07a3 03bc 2484 b2bc c7b8 05bd
00000190: b8ce 09bc 51d8 d8bc 93a3 54bb 686a 90bc
000001a0: 7b08 d6bc f37d a23b bec8 17bc 383b 93bb
000001b0: dafb 9fbc 9caa 303b 377b f139 35cd dbbc
000001c0: 1cf9 60bb 3255 13bc 4a89 2636 7553 e6bc
000001d0: 9caf d8bb 6ca2 51bc a5d0 83bc 4af2 08b8
000001e0: 5421 753b 26f2 5dbc a8fc ec3b 60c8 0a3c
000001f0: 71b3 0ebd 57fd f7ba c8c4 36bb 10df bfbc
00000200: d054 12bc 8ac7 71ba 2369 0cbd 0a91 aebb
00000210: 38ec e1bc 1c77 f4bb 211b 823b 0348 dcbc
00000220: 238e 28bd 7b55 2abd 6e1d ccbc edb0 09bc
00000230: 8d68 263b 7530 acbb 50c4 d0bc 9735 07bd
00000240: 83f1 88bb 9d9b 9c3b 390f c5bc 5588 bebb
00000250: 2790 bb3a cbad 42bc f131 84bb a3e9 bc3b
00000260: 6501 93bc 290e 523c 2fce e1bb be2e 0a3c
00000270: aa78 b7bc 39ce d5bc 9179 b2bb 2a01 d33a
00000280: f457 d3bc 1333 0a3c afa2 aabb 2ee7 96bc
00000290: f647 07bc 46d3 adbc 52cb 2dbc 6e0d c7ba
000002a0: be6f 56b9 81ed 703b 0fb5 c53b a652 b33b
000002b0: 729f c3bc 7398 103a 2f36 a5bc da92 debc
000002c0: f846 56bc 0231 1abc 377d ccb8 73b8 b4bc
000002d0: f483 ec3b 58fd fcba 16d5 c7bc 681c e2bc
000002e0: b11e a6bb 35a0 bdbc 34d7 cb3b bbf9 0cbd
000002f0: 4b86 cebb c211 d6bc 240d 3bbc 1780 87bc
00000300: dd56 75bc ceb5 60bd 7a4a c5ba 3108 f9bc
00000310: c514 35bd e097 f3bc 4c82 31bd 6bea 28bb
00000320: df14 67bd e8aa 7ebc e285 d93c 0b08 393b
00000330: 8c35 4cbc 44d3 f9bc a952 3d3c 27f1 a3bc
00000340: 3789 18bd 91b9 5cbc db5b 02bd 463b 2ebd
00000350: 8d6e 7f3b b1e8 acbc 4c64 b93b e45e a33b
00000360: 886b 34bc 84dd 973c 799d d0bb 8562 c2bc
00000370: ce03 353c 725a 32bc 64ab 0ebd 755d 1cbb
00000380: d1cf 223b 1ac5 11bd ecac 5dbc b19c e8bc
00000390: ecdd 913c 904a 173c 853f 8cbc cd71 86bc
000003a0: 68c8 033c a6b1 c8bc ece8 ed3c fc01 8bbc
000003b0: afe5 7fbb 087f 69bc 52b1 babc b1e3 40bd
000003c0: a070 cbbc b078 18bd e419 3dbc e5e5 d3bb
000003d0: 2a8e 14bd aaff 6c3b 8b92 603c 8d9e a8bc
000003e0: 0847 a4bc f325 073c 2fc8 61bd a759 93bc
000003f0: be40 6e3d 2f25 28bc fce7 07bd 0773 823c
3.87344e-40 0.026179 -0.029527575 -0.019453276 -0.0036966668 -0.016477345 -0.06977648 -0.024112443
0.021875944 0.036295388 -0.021135556 0.008229943 0.017747907 -0.019862523 -0.0076790024 -0.001990993
-0.018156093 -0.0082025 -0.0075607724 -0.01759511 0.0021900737 -0.011831279 0.004945882 0.020456258
-0.0034365922 -0.0045080893 -0.011977347 0.0756226 0.051183857 0.00013895388 -0.016395686 -0.017172977
0.04628212 0.004592066 0.081962064 0.004452933 0.0020761506 -0.004226119 -0.012008564 -0.022812705
0.027618121 0.0053151585 -0.022670528 -0.007700233 -0.019345516 -0.00080792356 -0.026711266 -0.026243947
0.0147083225 0.0008501809 -0.018127711 -0.019448467 0.036313027 -0.008796001 -0.004408503 -0.012932546
-0.024891995 0.0059313457 0.010221548 -0.020280255 -0.03157098 -0.0036092112 -0.02037011 -0.012711319
0.005239442 -0.0070312247 -0.004054471 -0.036284845 -0.024315273 -0.012225451 -0.024880817 -0.018136775
0.010491336 0.007852317 -0.0070617856 -0.01743037 -0.025935123 -0.0295713 -0.023493778 -0.008189314
-0.0070729214 -0.02279674 -0.029115492 0.011709466 -0.027272798 0.006456178 0.0043303138 -0.006203235
-0.017227858 -0.02592303 -0.027594842 0.0029017508 -0.02674191 -0.01015418 -0.020976739 -0.013038212
0.007637998 -0.008034474 -0.021791525 -0.03264692 -0.008411102 -0.026470335 -0.003244613 -0.017628863
-0.02612709 0.004958862 -0.009264169 -0.0044931434 -0.019529272 0.002695716 0.00046058904 -0.026831249
-0.0034328168 -0.00899248 2.481584e-06 -0.028115967 -0.006612731 -0.012795072 -0.0160907 -3.2650576e-05
0.0037403898 -0.013546502 0.0072322674 0.008470625 -0.034839097 -0.0018920106 -0.0027888287 -0.023421794
-0.008931354 -0.0009223154 -0.034279954 -0.0053273486 -0.027578458 -0.007460488 0.003970519 -0.026889807
-0.041151177 -0.041585427 -0.024916377 -0.008403999 0.0025391907 -0.0052548 -0.025484234 -0.03301009
-0.004179181 0.0047792927 -0.02405511 -0.005814592 0.0014309929 -0.011882256 -0.004034274 0.0057651564
-0.017945 0.012820759 -0.006891034 0.008433996 -0.022396404 -0.026099311 -0.0054466208 0.0016098369
-0.025798775 0.008435029 -0.0052073817 -0.018420782 -0.008256903 -0.021218907 -0.010607557 -0.0015186497
-0.00020450258 0.0036762657 0.0060335468 0.005472499 -0.02387974 0.0005515881 -0.020167438 -0.027169634
-0.013078444 -0.009411098 -9.750801e-05 -0.022060608 0.0072178785 -0.0019301577 -0.0243936 -0.027601436
-0.0050695767 -0.023147682 0.0062207226 -0.03441785 -0.00630263 -0.026131514 -0.011416707 -0.01654057
-0.014974323 -0.054860882 -0.0015052103 -0.030399414 -0.04420926 -0.029735506 -0.04333715 -0.002577449
-0.05641639 -0.015543677 0.026553098 0.0028233554 -0.012463938 -0.030496247 0.011555352 -0.020012451
-0.037240233 -0.013471977 -0.03182588 -0.042536996 0.0038975806 -0.02110705 0.0056577083 0.004985677
-0.011011966 0.018538244 -0.0063664285 -0.023728618 0.01104827 -0.010885822 -0.03483142 -0.0023859416
0.0024843107 -0.03558836 -0.013529997 -0.028395029 0.017806016 0.009234086 -0.017120132 -0.016411686
0.008043386 -0.024498772 0.02904173 -0.01696872 -0.0039046814 -0.014251478 -0.022789631 -0.047092143
-0.024833977 -0.03722447 -0.011541817 -0.0064666145 -0.03626839 0.003616313 0.013706814 -0.020583415
-0.020053402 0.008248794 -0.05512255 -0.017987086 0.05816721 -0.0102627715 -0.033180222 0.01592399

encoder.fc_logvar.bias f4 [3]
00000000: d605 23bc 8b13 e539 9cfb 313b
-0.009950122 0.00043692844 0.0027158028

decoder.fc.weight f4 [2048, 3]
00000000: b03f 06be 7d3f 9abe 3d68 ea3d 50d5 c23e
00000010: c11d e33d 4c89 493e 8854 7cbe 66c7 2cbe
00000020: 2527 05bf 26aa c3be d74b 7d3e 5ede a73e
00000030: b423 14be ebc7 d93e 6bdb bebe d951 dc3d
00000040: 3972 b3be cde1 5b3d 3dbc 113f 2131 72be
00000050: 850f 4f3e c137 cb3e 4378 1abe 4ff6 76be
00000060: 8ef4 8dbd 0d6a efbc 3e43 8d3e 1c86 79be
00000070: a78e 31bf 55e3 53bd c00d 263e 1bc8 343d
00000080: baef c6bd 8972 dc3e 074d 973e 545f fe3e
00000090: 3bd5 b0bd 3fe2 12bd da2b a9be 3503 693e
000000a0: 6932 ddbc cac1 a03c fa1e 2abd dc04 0dbf
000000b0: ae2c 05bf 3ae3 5c3e 9a01 0a3e 38a6 c8be
000000c0: be4e 1bbf 14bc f63d 4b75 02bf 80d9 edbe
000000d0: 97d0 8f3d f3cf 95be 6501 563e 867a 93be
000000e0: 0781 c6bd bc89 2cbe 622a c23d 4bfa 89bd
000000f0: 722f 59be 835c 94bd ae94 f1be 6c35 adbe
00000100: 7df1 e7b9 bcf3 c6bd 8e81 53be aacf dc3d
00000110: 9ff0 803e 508f c63d 702d 5bbc f587 e5bd
00000120: 21f3 d73d 27f7 8e3e aa8c 7b3e 670a 3d3f
00000130: 2909 81be fd35 e5bd 8b99 763e df46 ea3e
00000140: caab 843e 4621 1cbc 886b cf3e 416d 0b3e
00000150: 0b29 513e 49d5 653e 2869 04be 3c77 c53e
00000160: 3055 8dbd 53e9 fcbe d9e5 96be f2cd a0bc
00000170: 98de bcbd 6451 bbbe 98ec 2c3e fecd 683e
00000180: 3155 a6be eaf0 b8bd 9f92 28be b636 b93e
00000190: 8f5b 8bbe 23ed 983e 2fab b6bd 7dee 503e
000001a0: 8410 7bbe cb17 bb3e 6e67 bd3e 63ec 1ebe
000001b0: 9fd2 af3e 4cf2 c13d e549 babe 886e 363e
000001c0: 8b99 e83e 29f1 11bf e7e0 a0be cbab c5be
000001d0: 0c0b a33e c22d 3d3d 1d67 c13d a16c d8be
000001e0: f219 3e3d e33f ccbe 40ff b0be b2e8 b73e
000001f0: a6d5 ca3e c812 c6be 7828 fabe 438a ce3e
00000200: 7bf9 85be 97e9 103e a232 cb3e 7a38 593d
00000210: 5592 76be 8067 e53e 8d41 12bd 72b3 9fbe
00000220: 25e2 343e 0542 4abf 2b47 79be 2830 c03e
00000230: 929c cfbe 8dbd 9bbe d8e0 c03e 2426 a9be
00000240: a908 b9bd 5999 5bbe 5337 c9bd e639 f43d
00000250: 7deb e1be 3835 553e a463 113f 0685 b13e
00000260: 3749 1dbe 12c8 283f 1c9e 2e3e f012 bf3e
00000270: 93bd 6cbd 98a5 ba3c e4e7 d73e a3fe 46bd
00000280: 8bab 203d d4c9 0a3d 5740 22be 25ab 30be
00000290: d76f f3be 7eca 86be ead1 6c3e d6d6 04bf
000002a0: d4cf 9ebe bd8c 983e 914f f93d e3a4 2a3e
000002b0: a6b2 f93c 1fee 9ebe 515b fb3e 2a64 f93e
000002c0: ecfe fdbe f55f 283f ffd8 a63e 9d01 e4be
000002d0: af62 91be 2f8e 23bf 2174 41bd eeda 19be
000002e0: 9fe5 ea3e da9c 64bd 1b4b bc3e 4455 6ebe
000002f0: 8b96 a7be c7a6 d83e 7dd6 3f3e 4b9c 433d
00000300: f0f6 823e 45d9 893d c4ba 0d3f 2b6a ff3d
00000310: 6969 613e a739 65be db8b 4c3d ead4 133c
00000320: 402b 283c bec5 a73e 6f2e 663e cf0d 803e
00000330: b972 4e3e 79e7 edbe 5d16 b3be a898 babe
00000340: ea70 68bf 4516 963d 42f8 083e 5f9f c13e
00000350: 2ce4 75be 1be2 86be 504f a33e dbe3 52be
00000360: f685 903e a0e1 963e 7cea 0b3e b4de 5b3e
00000370: d42a f0be 310e 89be 0148 993d 5ba5 963e
00000380: e62e 78bd 0792 af3e 4609 e43d 93d9 15be
00000390: dc3c 67be 6883 483e 8b6d 9e3d d25d 4ebe
000003a0: 8855 713e bd76 ebbd 3847 423e f2e8 163e
000003b0: 6f86 b63c 55d0 52be a615 66bd 806a 823e
000003c0: 52c7 8cbe dfee 0a3f c268 443e 4f0e 00bf
000003d0: ce8b cbbe 1601 6c3e 95bb e2bd 7bf1 9abe
000003e0: e67f 5ebe 1f83 e73b 1587 373d 302d fe3d
000003f0: 2ed0 c53e bf73 aebe af66 69be f680 153e
-0.13110232 -0.30126563 0.11445663 0.3805337 0.110896595 0.19681281 -0.24641621 -0.1687294
-0.52012855 -0.3821575 0.24735962 0.3278684 -0.14466745 0.42535338 -0.37276778 0.10757799
-0.35048082 0.053682137 0.56927854 -0.23651554 0.20220764 0.39690974 -0.15084939 -0.24117397
-0.06931411 -0.029225374 0.27590364 -0.24367565 -0.69358295 -0.051730473 0.16216183 0.044136148
-0.09713693 0.43056133 0.29550955 0.49682105 -0.086344205 -0.035860296 -0.3304127 0.2275513
-0.027001576 0.019623656 -0.041533448 -0.5508554 -0.520213 0.21571055 0.13477173 -0.39189315
-0.60667026 0.12047592 -0.50960225 -0.46455002 0.07022207 -0.29260215 0.2089897 -0.28804415
-0.09692579 -0.16849416 0.0948074 -0.06737193 -0.21209505 -0.07244208 -0.47183746 -0.3382982
-0.00044239676 -0.097144574 -0.2065489 0.10781796 0.2518358 0.096953034 -0.013377532 -0.11207572
0.1054442 0.27922937 0.24565378 0.73844 -0.252023 -0.11191938 0.2408201 0.45757195
0.25912315 -0.009529417 0.40511727 0.13615896 0.20425813 0.22444643 -0.12930739 0.3856753
-0.06901014 -0.49396762 -0.29472235 -0.019629452 -0.09222144 -0.36585534 0.16887128 0.2273483
-0.3248687 -0.09030326 -0.16462182 0.36174554 -0.2721829 0.2986842 -0.089193694 0.20403476
-0.24518019 0.3654159 0.36992973 -0.15519862 0.3434038 0.094700426 -0.36384502 0.17815602
0.45429644 -0.57008606 -0.31421587 -0.3860763 0.31844366 0.046186216 0.094434954 -0.42270377
0.046411462 -0.39892492 -0.3456974 0.3591972 0.39616126 -0.38686204 -0.48859 0.4033986
-0.261669 0.14151607 0.39687067 0.053032376 -0.24079259 0.44805527 -0.035707045 -0.31191593
0.17664392 -0.7900699 -0.24343555 0.3753674 -0.4054914 -0.30418053 0.37671542 -0.3303691
-0.09034855 -0.21445216 -0.098250054 0.11925106 -0.44124976 0.20821083 0.56792665 0.346718
-0.1535996 0.65930283 0.17052501 0.37319136 -0.05779798 0.02278404 0.42169106 -0.048582684
0.039226096 0.033883885 -0.15844856 -0.17252786 -0.47546265 -0.26326364 0.23126951 -0.51890314
-0.31017935 0.29794875 0.12173379 0.16664462 0.030480694 -0.31041047 0.49093106 0.48709232
-0.49608552 0.6577142 0.3258743 -0.4453248 -0.28395602 -0.6388883 -0.04722989 -0.15024921
0.45878312 -0.055813648 0.3677605 -0.23274714 -0.32732043 0.4231474 0.18734165 0.047756474
0.25579023 0.06730894 0.55363107 0.12471422 0.22012867 -0.22385274 0.049938064 0.009022931
0.010264218 0.32768053 0.2247865 0.25010535 0.2016095 -0.46465662 -0.34978 -0.36444592
-0.90797293 0.07328466 0.13375953 0.37816903 -0.24012822 -0.2634438 0.31896448 -0.20594732
0.28227204 0.29469013 0.13663667 0.21471673 -0.46907675 -0.2676864 0.07484437 0.2942303
-0.0605916 0.34291098 0.11134581 -0.14633779 -0.2258181 0.19581378 0.077357374 -0.20152977
0.23567784 -0.11497257 0.1897248 0.14737299 0.0222809 -0.20587285 -0.05617299 0.25471878
-0.2749582 0.5427074 0.19180587 -0.50021833 -0.397551 0.23047289 -0.11070935 -0.3026236
-0.21728477 0.0070651914 0.04480656 0.124109626 0.3863539 -0.34072682 -0.22793077 0.14599976

decoder.fc.bias f4 [2048]
00000000: 0a00 07bf 3d02 dabe fb14 18bf 9901 1f3e
00000010: 3423 86be 3c9d 353e d859 9b3d 553b f9be
00000020: aa5f d93e b166 e4be 5113 bdbe e00c d8be
00000030: a65f 233f 3e4e e2bd a018 8bbe 3307 f9be
00000040: d055 03bf 6a63 f3be cebd 0dbe d705 c7be
00000050: 26d3 893d 6832 b33e 17fa ac3e c6be 17bf
00000060: 89c7 0abe cd67 833e 3ca4 8fbe 363e 19bf
00000070: f91e d7be b1c7 1bbe 335f 03be b2b7 073f
00000080: 10ea 943b a236 d83e 6962 8dbe 60c8 a03d
00000090: b264 e3be 8117 f7be 0796 c0be b075 4f3e
000000a0: c97e 23bf 014b c43e 8628 c03e 9605 9f3d
000000b0: 6d7a 0e3d 6f0f 0cbf a55a b2be b18f b8bd
000000c0: cd02 b2be 01b9 2e3e ac90 e13e cf2c 903d
000000d0: 97fe b63e fb23 bc3e 77ac 593d aab8 973e
000000e0: e226 f13e 5199 6c3d e05e 943e 30fa e2be
000000f0: a721 afbe 37d6 53be 6de1 8abe 61cb 073d
00000100: e212 e63d 57c6 c93e b16b e7be 3beb 8e3d
00000110: dd55 003e 5f70 9cbe 82c6 01bf 035a 83be
00000120: 87cd c23d ce70 74be f44c 95be 5f79 0abf
00000130: 4770 013f 42b5 24be 0c6b e1be b713 9e3e
00000140: da35 88be 8820 963e f726 04bf 1834 e9be
00000150: fc06 ab3e 719f a23e 42a5 183f 7754 753e
00000160: 8772 323f 83e7 67be 5369 98be 6072 45be
00000170: 0cdf c8be a3d6 00be 6e84 42be 4186 8b3b
00000180: 3694 bebe 90f3 863e 295d c4bd ec67 4c3e
00000190: 1cdc 9fbe 746c 27bd e914 03bf a48f 303d
000001a0: 4e84 7e3e 7a26 c83e 7f3e b63e c053 83be
000001b0: 5637 02bf ff1b 8f3e da4a e63c 9e0a 903c
000001c0: c3a3 9cbe 8231 e93c 6865 643e 80e1 a7be
000001d0: 837f a7bd 53b4 9a3d 58dd 02bf 2a9f ca3e
000001e0: c225 b1be f8ff d53e 6425 e83e bcc6 613b
000001f0: db0d c0bd 0141 d23e 2710 b83e 5737 acbd
00000200: 1af8 80be 4edd 92be 1d53 eabd b785 d93e
00000210: 240e 463e cb67 a3be ce6c 013f 943f f9be
00000220: 0c4c 873c addc fabe 4fcc 613e a4c3 c63e
00000230: 5ebb e03d a8b2 56be de9b ebbe b035 e43e
00000240: 779b ccbe 7c90 b43e 1ff2 5cbc 67d1 e1be
00000250: 7459 fbbe 7b72 603e b379 e6be ffe6 dabe
00000260: 1085 12be 8860 1cbf f378 2a3c 83a6 14bf
00000270: 87e0 023e 1ef7 2b3e f4ab 413e f77b 61be
00000280: dacc 89be 503d 5abe 4139 fd3e 6bd8 243e
00000290: dc28 eb3e fbbb e8be 4e0c f9be 7432 8e3e
000002a0: 8370 b83e 8da1 afbe 2291 3ebd 1942 3ebd
000002b0: 12e2 803e 6a19 83be 14a1 2dbe 0a46 143f
000002c0: ac7f 6a3e 9206 c3be e82d f0bd a786 da3e
000002d0: 5153 52be 329f 203e 56c7 03bf 2785 e43e
000002e0: ee1f 9e3e fe7b 803d 5417 b0be b712 bbbd
000002f0: 5d28 1e3e 293e 82be 74e6 a1bd fa2d dc3e
00000300: a3ba c0be 0f36 03be b279 243f 1196 343f
00000310: def0 d6be 5af5 a6be 9e4a 763e 4cc6 1e3f
00000320: 6443 71bc 4df0 26bf c4d0 603e 88ad 203e
00000330: bcb5 1b3e 620a edbe 9129 d33e b017 6fbe
00000340: 7660 493d 5ac5 fcbd f3ad 46bd 41e9 a63e
00000350: 6822 b03d a268 febd a67b a8be 161a 683d
00000360: da17 90be ca3f e93e 564f a5be 04f0 bfbe
00000370: e72e b73e 2c96 24be f265 29bf 56c3 153e
00000380: e63f 18bd 296d 0e3f 1562 d7bd 765c a63e
00000390: 2b56 c5be 995a 803e 2a3c 24be fa70 3a3f
000003a0: 30f2 99bd 1643 883e 9dcb f83e 430e 0ebf
000003b0: 10f0 20bf dcab f53e e00d efbe 58f0 463e
000003c0: 06c2 9e3d b558 0d3e ee2f 1cbe c18d 7b3d
000003d0: 6558 01be 9088 793d 92ca a13e 61d6 f3be
000003e0: c562 50be f113 fa3e ba36 afbe c15d adbd
000003f0: 603e a7be 0c0f e93e f486 f53e ccdb bf3e
-0.52734435 -0.42579833 -0.59407014 0.15527953 -0.26198733 0.17735761 0.07585496 -0.4867808
0.42455798 -0.44609597 -0.369288 -0.42197323 0.6381782 -0.1105008 -0.27167225 -0.48638305
-0.51302814 -0.47536784 -0.13841936 -0.38871643 0.067297265 0.34999394 0.33784553 -0.5927547
-0.13552679 0.2566513 -0.28054988 -0.5986055 -0.42015818 -0.15212895 -0.12829284 0.5301467
0.004544504 0.42229182 -0.27614143 0.078507185 -0.44412762 -0.4826012 -0.37614462 0.20259738
-0.63865334 0.38338473 0.37530917 0.07764737 0.034784723 -0.5471105 -0.3483478 -0.09011782
-0.34767762 0.17062761 0.44055688 0.070397966 0.35741112 0.367462 0.05314299 0.29633075
0.47099978 0.0577634 0.28978634 -0.44331503 -0.34205362 -0.20687185 -0.2712511 0.03315294
0.1123407 0.39409134 -0.4519935 0.069784604 0.12532754 -0.30554482 -0.50693524 -0.2565461
0.095118575 -0.23871157 -0.29160273 -0.5409145 0.50561947 -0.1608477 -0.44026983 0.30874416
-0.26603585 0.29321694 -0.51621956 -0.45547557 0.33403766 0.3176227 0.59627163 0.23958002
0.69706005 -0.22646908 -0.29767856 -0.19281912 -0.3923267 -0.12581877 -0.1899583 0.0042579477
-0.3722245 0.26357698 -0.095880814 0.19961518 -0.31222618 -0.040874913 -0.5120378 0.043105736
0.24855158 0.39091855 0.35594556 -0.25649834 -0.50865686 0.27951047 0.028111864 0.017583188
-0.3059369 0.02846599 0.22304308 -0.3278923 -0.08178618 0.07553925 -0.51118994 0.39574558
-0.3459912 0.4179685 0.45341027 0.003445073 -0.09377643 0.4106522 0.35949823 -0.08408993
-0.25189286 -0.28684467 -0.11441634 0.4248483 0.19341332 -0.31915125 0.5055665 -0.4868132
0.016515754 -0.48996487 0.22050594 0.38821137 0.109732375 -0.2096659 -0.46017355 0.4457221
-0.3996236 0.35266483 -0.013485461 -0.44105074 -0.49091685 0.21918671 -0.45014724 -0.4275436
-0.14308572 -0.61084795 0.010404813 -0.58066577 0.12780963 0.16793486 0.18913251 -0.22019945
-0.26914102 -0.21312451 0.49457744 0.16098182 0.4592961 -0.45455918 -0.486422 0.27772868
0.3602334 -0.3430294 -0.04652513 -0.046449754 0.25172478 -0.25605327 -0.16955978 0.5791937
0.22900265 -0.3809095 -0.11727506 0.42680857 -0.20539595 0.15685728 -0.5147604 0.44632837
0.30883735 0.0627365 -0.34392798 -0.09134429 0.15445085 -0.2543805 -0.079052836 0.43003827
-0.37642393 -0.1281359 0.6424819 0.70541483 -0.41980642 -0.32609063 0.24051902 0.62021327
-0.01472554 -0.6521042 0.21954638 0.15691197 0.15206045 -0.46296984 0.4124265 -0.2334888
0.049164258 -0.12342329 -0.048505735 0.32599834 0.086003125 -0.12422301 -0.32906836 0.056665502
-0.28143197 0.4555648 -0.3228709 -0.37487805 0.3577797 -0.16072911 -0.6617118 0.14625296
-0.037170313 0.55635315 -0.105167545 0.32492417 -0.38542303 0.2506912 -0.16038576 0.7282864
-0.07516897 0.26613683 0.48592845 -0.5549051 -0.62866306 0.4798268 -0.46690273 0.19427621
0.07751851 0.1380337 -0.15252659 0.061414484 -0.12631376 0.06092125 0.3159986 -0.47624496
-0.20350178 0.4884334 -0.3422144 -0.08465148 -0.32664776 0.45519292 0.47954524 0.3747238

decoder.conv2.weight f4 [32, 16, 4]
00000000: 74b9 733e a644 183d 31b9 76bd 06ee c93d
00000010: 33d3 1c3b 5e51 5dbc 0a4a c3bc b8c3 353d
00000020: 301d a63d 8d0a 873d 7358 383d 8ebe afbc
00000030: 10e9 093e fd47 913e fab7 96bc 1084 8b3d
00000040: a525 b4bc 0b58 87bd 6c0e 733d 077f 723d
00000050: 2f5d f03c 868e b7bd eb49 babc ca35 37bb
00000060: 905a 1c3e dd6c 3ebd 5109 06be c64b 913d
00000070: a773 8bbd c88b db3d 60ec 093e dd28 af3c
00000080: b93c 2c3d af44 fbbb 3562 823c bb0f d73c
00000090: dfb3 cb3d 4a23 953c 8c97 933e 0a62 8b3d
000000a0: c330 91bc 3696 9bbc aa27 bbbc 1c24 8bbd
000000b0: 2928 8b3d 299c 05bd aadd d03d dbb5 31bd
000000c0: 1f6f a8bc ad68 903d 5e40 f53c 42ec bebc
000000d0: 32d2 edbc 0746 513c fa50 eebc c958 42bc
000000e0: 0a41 5cbd 5cbe 71bc 7613 f73d f092 533c
000000f0: 9571 2b3d a3f5 b53b 35f1 1b3d ec58 42bb
00000100: d72c 05be 7ab2 b6bc 8766 643d f123 1fbc
00000110: d7d4 0ebc d767 25bc fada 1fbd 8bf6 d23c
00000120: afb1 893d fcc8 833d d4c2 f23c 5817 0dbc
00000130: e75a b73c b37d 51be a119 4f3d bc98 a8bd
00000140: dfad c7bc 9963 283d b1df 5ebb 0647 a9bc
00000150: 2758 92bd 97b7 0ebd e215 e43d f14f 22bd
00000160: 99b9 2d3e e975 253b fa63 97bd 504e d93d
00000170: 3593 32be ae4d 663e afef ddbd 64f1 25be
00000180: e4fc 83bc 5433 423a 05da 9a3d b3b9 243d
00000190: d31d d8bd 2851 a13d 8333 35be 0aa6 343d
000001a0: f88c 5e3d 6699 c83b a05c 8a3b 3d93 4b3c
000001b0: cd3f 7e3d aeff c33c 2a87 be3d cda5 313e
000001c0: 0eeb 6d3c 85ca f23b 6fac a2bc d27b 7fbc
000001d0: 8880 07bd 745c 653c 0a18 6d3c 65e3 7a3d
000001e0: da75 2c3d b5cd cebc 213d 253c 791b 5aba
000001f0: 4d8f 6a3d f2bf 8cbc 23f0 ae3c 7032 a1bb
00000200: 2735 673d 5490 c53c 14db ccbd 87e4 b4bc
00000210: 648d 1dbc 9b0f f53b 5104 e03c 3dcb 10bd
00000220: 9fe5 4fbd 84dc 1f3d 1511 cc3d cec8 f2bb
00000230: a55b 893d 33f5 513d 5cc2 95bd 9477 e9bd
00000240: 1e45 233d 8fb4 723c 98e5 593d e379 8f3d
00000250: a039 3cbd 5edb 2d3d c340 3dbd e322 09bc
00000260: 8738 07be af3c 44bd 5a7c 2fbd ea45 b1bd
00000270: 57da b5bd 45fa 52be 846e f2bd 8a81 a5bd
00000280: 634c debc 6fa8 ddbb f487 82bd 22f3 f6bb
00000290: fbcf ea3b 1607 4e3c 211a 2d3e 4367 d63d
000002a0: 00fd ba3b 782a 8c39 3e65 c03c f9e0 05bd
000002b0: 2838 b03d e09c 123e 70fd 58bd 66ea 22bd
000002c0: 1586 523c da79 f63c 55b2 22bc 82c9 1c3d
000002d0: 6597 02bc d898 eabc be71 ebbc 3ccd 1fbc
000002e0: 5ac4 eabb 9c93 093c 9f93 4e3d 9e70 dbbb
000002f0: 860c c2bc 5142 3dbd af91 ea3c 5b7c 4abc
00000300: 158c 283c f06c 3a3d 53b4 473d 9b72 c2bc
00000310: 723d b5bc ac23 0d3d 8a48 93bd ad02 0fbd
00000320: 34ac c73c c511 1abd fec2 28bd 7ec4 eebc
00000330: 1720 d53d 4645 9b3d d633 e73d cb59 cd3d
00000340: a451 a53c 2423 4ebd 80ff 06be 487f c5bc
00000350: cb42 d1bd 7e18 9b3a 98d1 513d b90a 5abd
00000360: 2786 003e 128e bdbc e480 703d 675e 2c3d
00000370: b7c7 303c b61c 2f3e 99a4 d4bd 687b d93b
00000380: 566d 693d 045e 2abd b374 6ebd 8f13 b13c
00000390: 8ced 723b 6b90 b03c 7b53 62bd ff02 9fbc
000003a0: 7bda 123d 88da f9bc 1a1c 053d e51f 60bd
000003b0: ca55 79bd aad2 c4bd 58dd 8b3d 6dbc 3e3e
000003c0: 1da1 2b3d 4297 d23c 326c afbc 9d1f bbbc
000003d0: ad8c 63bd ae09 a5bd e136 35bc 478f a3bc
000003e0: 150f 5cbd 4e34 a5bd cfa1 db39 3587 2bbb
000003f0: 6cab b53c 6ec7 be3d d115 fe3b 9db0 d7bc
0.23801214 0.037174843 -0.060235206 0.098598525 0.0023929595 -0.013508169 -0.023839016 0.044376105
0.08111036 0.06593809 0.045006227 -0.021453168 0.13467813 0.28375235 -0.018398274 0.06812298
-0.021990607 -0.0660859 0.059339926 0.059203174 0.029341308 -0.08962731 -0.022740325 -0.0027955645
0.15268922 -0.04649054 -0.13089491 0.07094531 -0.06809168 0.107200205 0.13469076 0.02138179
0.042050097 -0.0076681 0.01591597 0.026252618 0.09946417 0.018205304 0.2882656 0.06805809
-0.017723447 -0.018992525 -0.022846062 -0.06793997 0.06794769 -0.03261963 0.10198529 -0.04338632
-0.0205608 0.07051215 0.02993792 -0.023306016 -0.029030893 0.0127730435 -0.029091347 -0.011861988
-0.053772964 -0.014754858 0.12064259 0.012913451 0.041856367 0.005552964 0.03807183 -0.0029655052
-0.13005386 -0.022301901 0.05576184 -0.009713159 -0.008717737 -0.010095558 -0.03902719 0.025752326
0.067233436 0.06434819 0.029633917 -0.008611523 0.022382213 -0.20458107 0.05056155 -0.08232257
-0.0243749 0.04111061 -0.0034007842 -0.02066375 -0.0714572 -0.034843054 0.11136986 -0.03962702
0.16965331 0.0025247282 -0.07392116 0.1061064 -0.17438968 0.2249057 -0.10836732 -0.16205364
-0.016111799 0.0007408161 0.07561115 0.04021616 -0.105525635 0.078768075 -0.17695431 0.04410366
0.054333657 0.006121802 0.0042224675 0.012425241 0.062072564 0.023925629 0.09303124 0.17348404
0.014521373 0.007409396 -0.019857613 -0.015593486 -0.03308156 0.013999093 0.014471063 0.061252017
0.04210458 -0.025244573 0.010085375 -0.0008320134 0.05726557 -0.01718137 0.02135474 -0.0049193427
0.056447174 0.024116673 -0.10002723 -0.022081627 -0.00961623 0.007478667 0.027345808 -0.035350073
-0.050756093 0.03902866 0.09964196 -0.0074091917 0.06706933 0.05125923 -0.07312462 -0.11399761
0.039860837 0.014813556 0.053197473 0.0700567 -0.045953393 0.042445533 -0.04620434 -0.008370134
-0.13205157 -0.047909435 -0.0428432 -0.08655913 -0.08879536 -0.20603283 -0.118374854 -0.08081348
-0.027136033 -0.0067644636 -0.06373587 -0.007536308 0.0071659065 0.012574932 0.16904499 0.10468914
0.0057064295 0.00026734523 0.023485776 -0.032685254 0.08604461 0.14317656 -0.05297607 -0.03977432
0.01284935 0.0300874 -0.009930213 0.03827811 -0.007970666 -0.028637335 -0.02874076 -0.0097535215
-0.00716452 0.008397009 0.05043375 -0.0066967746 -0.023687612 -0.046205822 0.02863392 -0.01235875
0.010287304 0.045514047 0.048755955 -0.023736289 -0.022124026 0.034457847 -0.0719157 -0.03491466
0.024374105 -0.037614603 -0.041201584 -0.02914643 0.10406511 0.07581572 0.11289184 0.10026892
0.02018053 -0.05032648 -0.13183403 -0.024108544 -0.10217818 0.0011832861 0.051225275 -0.053232882
0.12551175 -0.023139033 0.05871667 0.042082217 0.010789803 0.17100796 -0.10382957 0.0066370256
0.056989037 -0.041593567 -0.05821676 0.021615772 0.0037067859 0.021553239 -0.055255394 -0.019410608
0.03585289 -0.030499712 0.032497503 -0.054717917 -0.06087283 -0.096104935 0.06829327 0.18626566
0.041901696 0.025706891 -0.021413896 -0.022842223 -0.05555408 -0.08058487 -0.011060447 -0.01996578
-0.05372532 -0.08066617 0.00041891492 -0.002617312 0.022176467 0.09315382 0.0077540656 -0.026329333

decoder.conv2.bias f4 [16]
00000000: 0f95 5fbe 6bce e9bb faa8 6c3d acb6 3ebe
00000010: ada3 65bd 2ba1 45be d2f5 13be ca2a febd
00000020: 2a1e 90bc 5db0 7dbe ee80 edbd 2af9 3cbe
00000030: e71f 6f3c 390b 13be 6694 cdbd 12c5 f0bd
-0.21834205 -0.0071352026 0.057778336 -0.18624371 -0.056064297 -0.19299762 -0.14449242 -0.12410505
-0.017592508 -0.24774309 -0.11596857 -0.18454424 0.014595008 -0.1435975 -0.100380704 -0.11756338

decoder.conv1.weight f4 [16, 1, 4]
00000000: 2bf0 9c3e 3693 c03e db72 903e 7775 183e
00000010: 44fc cfbe 78aa 6a3e 58f2 9bbe 1ed8 823e
00000020: fbcd b53e 5f20 ad3e 7430 393e 2740 34be
00000030: 0cbb b83e 81d6 dd3e f94d e13e 667d ab3e
00000040: ace5 d43d 8f88 97bd 7ed8 1f3c 8908 8cbe
00000050: 4f40 20be bfe0 b0be 9652 b0be 258c 88be
00000060: 1435 96be 29e7 cebe c677 b5be f37a 83be
00000070: d788 8cbe c501 bcbe 9238 b8be 84fb 8fbe
00000080: df5c 65be c09b a93e fbe7 91bd 1789 863c
00000090: 23a4 a83e 0c9a d23e 6fd9 c63e aee5 923e
000000a0: 00d6 4d3e 75f9 aabc f750 b6be 555e 713e
000000b0: 845e cdbe e44b e9be 0b39 b5be 9cfd 7fbe
000000c0: 2dc9 37be 5792 32bc 14f0 b8be 0139 a7be
000000d0: 5e5a 2dbd 8bd6 ed3d de15 9e3e e23a 8dbe
000000e0: 8e78 14be 401a 383e 8a1a 983e aef5 593e
000000f0: 452c bf3d 9ed2 d03d cfa4 a5be 4cd3 b1be
0.30651984 0.37612313 0.28212628 0.1488856 -0.4062215 0.22916591 -0.3045833 0.2555551
0.35508713 0.3381376 0.1808489 -0.17602597 0.36080205 0.43327716 0.440048 0.3349411
0.10395369 -0.07399093 0.009756206 -0.27350262 -0.15649532 -0.34546468 -0.34438008 -0.26669422
-0.2933737 -0.40410736 -0.35442942 -0.2567974 -0.2744815 -0.367201 -0.3598066 -0.2812158
-0.22398709 0.3312664 -0.07124325 0.016422791 0.32937726 0.41133153 0.38837764 0.28690857
0.20101166 -0.020870904 -0.35608646 0.23571141 -0.40111172 -0.45565712 -0.35395083 -0.24999088
-0.17947836 -0.010899148 -0.36120665 -0.32660678 -0.04232251 0.116131864 0.30876058 -0.27583987
-0.14499113 0.17978764 0.29707748 0.21285126 0.093346156 0.10196422 -0.323523 -0.3473152
