wavae_notebooks/WAV/Various-ups-downs/model-relu-500/model-relu-500.pt (torch, 103723 bytes, 13 tensors)

encoder.conv1.weight f4 [16, 1, 4]
000000 b5 27 a6 3e 66 6e d0 be d2 a7 0e 3e 2a c9 13 bd
       0.3245217 -0.40709227 0.13931206 -0.036080517
000010 ee 1b fb 3e 85 20 8a be 53 6e b3 3c d0 5f 8f 3e
       0.49044746 -0.26977935 0.021903193 0.28002787
000020 55 01 a3 bd 02 2c a3 ab 2c 13 95 bd 88 68 1e bc
       -0.079592384 -1.1594061e-12 -0.07279047 -0.009668477
000030 c4 69 92 be 9f 4a 71 be b4 98 0d 3e 7d c8 c5 3e
       -0.28596318 -0.23563622 0.13827783 0.38629523
000040 0a eb 06 be 7a 38 e7 be 66 45 f2 3e 95 6e 1a bd
       -0.13175598 -0.45160276 0.47318572 -0.037703115
000050 bd a3 df 3e 04 d5 da 3d 5d 94 fa 3e 55 39 70 be
       0.4367961 0.10685161 0.48941317 -0.2345937
000060 0d 3a 98 3e 6c 8e e2 bc f8 9f b8 3e b9 d2 5a be
       0.2973179 -0.027655803 0.36059546 -0.21369447
000070 5d 3f 40 bc 62 84 dd 3b 1a e9 7d 34 db a8 a2 bd
       -0.011733857 0.006760166 2.3647263e-07 -0.07942363
000080 ec 3f b0 be f8 41 fb 3e d2 47 cc be fd 84 7e 3e
       -0.3442377 0.49073768 -0.39898545 0.24855419
000090 5f 8a 8a 3e 7f 85 eb bd 22 2e d5 be 56 1f a2 3e
       0.27058694 -0.11500072 -0.4163676 0.31664532
0000a0 1d 34 69 be cb 49 d2 be 57 ee 31 3d 93 03 0f 3d
       -0.22773786 -0.41071925 0.04344019 0.034915518
0000b0 eb 06 e9 be 99 43 a9 be 5e 93 13 3e 00 23 dd be
       -0.4551309 -0.33059385 0.14411685 -0.43190765
0000c0 a6 84 89 be 2a 00 f3 3e 75 07 92 3e 64 15 c9 be
       -0.26859015 0.47461063 0.28521314 -0.39274132
0000d0 51 b1 ca 3d 65 82 d6 be 4e 7e 4d be 76 42 d9 be
       0.09897102 -0.41896358 -0.20067713 -0.42433518
0000e0 eb 8a 02 3e 0e 79 09 3e 12 8d 1c 3d 5c 4f 68 be
       0.12748305 0.13425085 0.038220473 -0.22686523
0000f0 08 7e ff be 8f af 74 3e 5b 4f 97 3d 05 db 9e be
       -0.49900842 0.23895095 0.07388183 -0.31026474

encoder.conv1.bias f4 [16]
000000 90 c2 eb 3e ec 18 b7 3e 04 f8 0b b9 02 0a 8a bd
       0.46046877 0.357612 -0.00013348466 -0.0674019
000010 ac 1f f5 bd 1e a7 f8 3e 13 d0 a9 3e 4a 5f 99 bd
       -0.119689316 0.48565 0.3316656 -0.07488878
000020 a5 95 5d be fe 35 b6 3e 20 60 dc 3e 41 59 dc bd
       -0.21639116 0.35588068 0.43042088 -0.10759211
000030 25 e4 12 3d 34 b2 c4 3e 13 c9 81 3e 09 dd 27 be
       0.035862107 0.38417208 0.2534872 -0.16392912

encoder.conv2.weight f4 [32, 16, 4]
000000 61 96 12 3d 2a ba fd bd 35 d1 e9 bd c0 51 90 bd
       0.035787944 -0.123890236 -0.11416856 -0.070468426
000010 6a 10 b7 bd b0 3d cb bc 15 1f 5a bc 66 fc 86 bc
       -0.089386776 -0.024809688 -0.013313075 -0.016477775
000020 9a 44 28 2a f6 df cc 28 96 10 09 2c ae a2 27 aa
       1.4945198e-13 2.2745677e-14 1.9478078e-12 -1.488902e-13
000030 29 ac f3 3d fe 67 c2 bd 1b 79 11 3c 80 7a 89 3d
       0.11898071 -0.09492491 0.008878971 0.06712818
000040 f2 7d be 3b 63 fd ed 3d f7 be 74 bc 45 0e 87 bc
       0.0058133537 0.11620595 -0.014938108 -0.016486296
000050 93 e9 92 3c 1f d9 d7 3d 0a 60 9c bd 07 3c 65 bd
       0.017933642 0.105394594 -0.076355055 -0.05596545
000060 71 9e ed 3d 95 0c d9 bc ec b4 5e 3d a2 b8 e5 3d
       0.11602486 -0.026495257 0.05437176 0.112168565
000070 d9 51 3c 2c 5c b2 d7 b1 74 7b b5 29 b1 ae b6 32
       2.6761841e-12 -6.2776007e-09 8.0594304e-14 2.1267029e-08
000080 4c 53 88 bd 5e 80 e6 3d eb 87 8a bd 6d 5e da bd
       -0.066565126 0.11254953 -0.067642055 -0.106625415
000090 6e a2 10 3d b7 81 67 3c 6e 80 de 3a b6 9f d1 3d
       0.035311155 0.0141300475 0.0016975531 0.102355406
0000a0 db 1d 7d 3b 3f b9 ba bc c8 aa 91 3c ca fb 94 bd
       0.0038622532 -0.02279341 0.01778163 -0.072745875
0000b0 8b c4 1b bd 43 77 f1 3c 3d 91 8f bb 26 a5 d0 3d
       -0.038029235 0.029475814 -0.0043813274 0.101877496
0000c0 89 52 e4 3d 1a 2c 38 3d ff f8 e1 bd 76 31 6a 3d
       0.11148555 0.044963934 -0.1103382 0.057176076
0000d0 4f 03 00 be 41 49 79 3d 23 dc d8 3d 06 ff c5 bc
       -0.12501262 0.060860876 0.10588863 -0.024169456
0000e0 9b 05 9e bd fb 2b 71 bc 3e 2e 44 bd 38 ff 9e 3d
       -0.07715913 -0.014719958 -0.047895662 0.07763523
0000f0 f1 3f 87 bc 92 74 c6 3d dc 22 ec 3d 16 95 c8 bd
       -0.016509982 0.09690203 0.115300864 -0.09794061
000100 60 ac 8f bc 41 2c d0 3d 1a 36 01 bd c2 85 8b 3d
       -0.01753825 0.10164691 -0.031545736 0.06812622
000110 b2 2c 9a 3d ca 16 21 bc 17 0e 90 bd 99 76 0e bd
       0.07528056 -0.0098320935 -0.070339374 -0.034781072
000120 5b 7e 77 2f a1 b1 09 2d f5 ef b5 2b 4d d4 2e a6
       2.250941e-10 7.82699e-12 1.2927425e-12 -6.06561e-16
000130 cd f7 5c 3d 69 c7 b2 3d ab 89 1a 3d 3c 09 66 bb
       0.05394726 0.08729441 0.037728947 -0.003510072
000140 b4 4d a3 bc 09 84 24 bd 20 1f e0 bd c2 a2 e5 bd
       -0.019934513 -0.04016498 -0.109434366 -0.11212684
000150 03 06 f2 3d 1b 3c 2f bd 2f d2 6d 3d ae 74 d5 3d
       0.11817553 -0.04278193 0.058061775 0.104226455
000160 26 9a 95 3c f8 f5 7c 3d e4 69 de bd 93 a5 35 3b
       0.01826198 0.06175801 -0.10860041 0.0027717098
000170 8f c7 9f a8 84 12 1d aa 1d 72 7d 28 03 a2 f5 b4
       -1.773909e-14 -1.3950825e-13 1.4069066e-14 -4.5752685e-07
000180 ef f5 39 bd bc b3 86 bd b8 43 10 bc eb ab 0e bc
       -0.045400556 -0.0657725 -0.008805208 -0.008707981
000190 81 fb 2d bd a5 50 ff bc 16 ef b3 bd 9e 29 fa bc
       -0.04247618 -0.031166384 -0.087858364 -0.030537423
0001a0 08 55 8a 3d ad bd 16 3c d0 75 e1 3d ab 47 58 3d
       0.067545 0.009200496 0.11008799 0.052802723
0001b0 5d 4f 21 bb 86 1b b5 bd 1a 23 ec bd bd fd c8 3d
       -0.0024613955 -0.0884314 -0.115301326 0.09814022
0001c0 47 0e c3 3d 05 08 18 3d a0 df d2 bd 9d a1 74 bd
       0.095242076 0.037117023 -0.10296559 -0.05972444
0001d0 78 30 02 bd 86 63 dd 3c 48 56 27 3d 1d f3 d9 bd
       -0.031784505 0.027024996 0.04085377 -0.10642073
0001e0 2f 13 f6 3d 55 b1 03 3e 7f d1 d6 bd 28 c7 9b bd
       0.12015378 0.12860616 -0.10489177 -0.076063454
0001f0 23 83 d1 3d 90 65 91 3c 7b 58 7c 3b 3c ff 40 3c
       0.102300905 0.017748624 0.0038504887 0.011779603
000200 40 2a d1 bd 9b ff e4 3c ea 22 71 bd 72 45 bb bd
       -0.10213137 0.027953913 -0.058871187 -0.09144105
000210 f1 27 7e 3d 29 ef b8 bd 63 d9 fc 3b 55 47 61 bd
       0.06204981 -0.09029991 0.007716344 -0.05499967
000220 05 cf c3 2d ba 2d 31 29 78 e4 a6 a9 0e c9 ff af
       2.2260868e-11 3.9341557e-14 -7.411514e-14 -4.6527088e-10
000230 18 5b ec bd 9d d3 c4 bd f2 ae d4 bd 5d 7d 9e 3d
       -0.11540812 -0.096106745 -0.10384931 0.07738755
000240 33 f9 7e 3d bb f8 ed bd 00 cc 83 3d 9e a2 dc bc
       0.062249374 -0.11619707 0.06435394 -0.02693301
000250 f5 8a 87 3d 06 d9 cc 3d ab 19 cc bd 2f 82 c2 bd
       0.06618301 0.100023314 -0.09965833 -0.09497487
000260 d2 99 62 bc 81 09 88 3c cd ec a6 bc 95 20 fb 3c
       -0.013830619 0.016606094 -0.020376587 0.030655185
000270 2c b1 07 30 f1 e4 63 29 a5 67 3e aa 09 b8 06 2c
       4.936449e-10 5.06027e-14 -1.6911349e-13 1.9144705e-12
000280 05 91 0b 3e 7d 34 ba 3d 5c 7b 8b bd 64 01 12 3e
       0.1362954 0.090920426 -0.06810638 0.14258343
000290 7f 4a d4 3d 93 a3 43 bd ae 02 ab bb 9d 02 e4 3d
       0.103657715 -0.04776342 -0.0052188253 0.11133311
0002a0 4b 35 8d b9 79 6d 05 be 08 39 42 bd 9f 34 f9 bd
       -0.00026933322 -0.13030042 -0.04741767 -0.1216824
0002b0 12 bc 8d 28 5c 72 61 34 84 92 ab bd 61 33 93 2a
       1.5735707e-14 2.0996362e-07 -0.08377555 2.6148097e-13
0002c0 3d f6 4e 3d 5a 6a a2 bd 03 51 06 3d c6 92 ab 3c
       0.0505278 -0.07930441 0.032792103 0.02094401
0002d0 b1 31 8e bc 04 e3 fb bc f6 f8 ba bd 1c 7e ce bd
       -0.01735768 -0.030747898 -0.09129517 -0.10082647
0002e0 de 50 0d 3c b2 7b 24 3d 28 61 aa 3c da 51 a9 3d
       0.008625237 0.040157028 0.02079828 0.08267565
0002f0 f8 24 dc bd 31 77 c2 bd d8 da 8e 3d 12 ab 84 3d
       -0.10749239 -0.0949539 0.06975335 0.064779416
000300 90 6b b7 3d fa 36 e9 bc 0b ad 5e 3c 84 8e 4c 3d
       0.08956063 -0.028468598 0.013591061 0.0499406
000310 f8 09 10 3c 34 56 b4 3c f4 68 b4 3d ea e9 a8 bd
       0.008791439 0.022013761 0.08809081 -0.082477406
000320 5e 8a aa 29 ee c7 aa 2f ec de 68 31 8c 3b c0 2d
       7.5735194e-14 3.1064878e-10 3.388716e-09 2.1854317e-11
000330 8f b9 6c bd 97 26 4c 3d 1f b4 ab bc 7f 2b 2c 3c
       -0.05779415 0.04984149 -0.020959912 0.010508417
000340 02 04 9e bd 56 d2 6a 3b 3a f9 d1 bd 80 42 42 3c
       -0.07715608 0.0035830936 -0.10252614 0.011856675
000350 2d 29 cd bd 86 1b da bd c8 b9 ac bb 05 b5 e0 3d
       -0.10017619 -0.10649781 -0.0052711703 0.10972027
000360 04 9a f5 3d 2f 24 c1 3b e0 3f eb 3d 05 a6 4c 3d
       0.11992267 0.005894206 0.114867926 0.049963016
000370 0c ed a4 b4 2a 4d 11 30 ae 94 b3 2a 9b 95 8c 2c
       -3.0719855e-07 5.286035e-10 3.1899955e-13 3.995649e-12
000380 f2 01 ce bd 3b f5 83 3d 69 dd ea 3d 38 bb cf 3d
       -0.10058965 0.064432584 0.11468012 0.10143131
000390 d8 ad 9e 3d 46 b3 00 bd 82 93 e9 3c 05 32 e2 bd
       0.07748002 -0.03142097 0.02851272 -0.11044697
0003a0 67 3a d3 3d ff a5 9d 3d b6 76 a1 3c 96 f4 e8 3d
       0.10313874 0.07697677 0.019709926 0.11374776
0003b0 96 ca 88 3d 61 fb 00 be e0 f7 af 3c 71 19 a6 3b
       0.06679265 -0.12595893 0.0214805 0.005068951
0003c0 b5 2f e1 3d 0f 34 52 3d b9 fb d0 bd 40 58 42 3d
       0.109954275 0.05131918 -0.10204262 0.047447443
0003d0 b6 13 fd bd b3 50 a4 bc b8 ca c6 3d 90 30 31 3c
       -0.12357275 -0.020058012 0.09706634 0.010814801
0003e0 e5 41 29 3d 5b b1 29 3b dd ff 52 bd 78 1e d8 3a
       0.041322608 0.0025893066 -0.05151354 0.0016488573
0003f0 78 17 59 bd 1c 84 c4 3d ee 23 13 3d 2d 08 e8 bd
       -0.053000897 0.0959551 0.035922937 -0.113296844

encoder.conv2.bias f4 [32]
000000 59 a6 f1 3d fd 88 00 3e 47 f3 e6 38 1b 10 29 3d
       0.117993064 0.12552257 0.000110125686 0.041275125
000010 9d e7 bc 3c 79 71 a4 bc a0 6f 91 bd b1 0d b7 3d
       0.02305966 -0.02007364 -0.07101369 0.08938158
000020 51 a9 aa 3d 4a 3a a9 bd bb 23 0d 3e 1b 52 1e bd
       0.08333076 -0.08263071 0.13783161 -0.03865252
000030 ea c6 83 bd 2e 7e 3e bd 98 36 dc ba f4 1f f9 3d
       -0.06434424 -0.046507053 -0.0016800938 0.12164298
000040 ae 1b ae bd 9b 9e 05 bc b9 42 81 3d 4e 6b 7f 3d
       -0.08501373 -0.00815549 0.063115545 0.062358193
000050 e8 c1 94 3c 36 cd ba bd 3f 47 02 3e c3 80 15 3b
       0.018158868 -0.09121172 0.1272249 0.0022812344
000060 8c 89 fa bc 4d 6c 7f bc 12 45 a9 3c f6 76 96 3d
       -0.030583166 -0.015589786 0.020662818 0.07346909
000070 ab e2 56 bd 8e c5 d2 bd 2b 7b af bd cb c5 ad bc
       -0.05246226 -0.10291587 -0.08568414 -0.02121248

encoder.fc_mu.weight f4 [3, 2048]
000000 b8 e7 84 3b de 30 3c bc 5e a4 a8 bb 94 ad 77 3c
       0.0040559433 -0.01148626 -0.005146547 0.015117068
000010 48 6f 94 3c 5c 68 84 bc 73 5c 91 bc 45 af 3f 3c
       0.01811947 -0.016163044 -0.017744279 0.011699502
000020 87 a6 95 bc b9 67 e1 bb 24 19 4c 3b 56 9a 89 3c
       -0.018267883 -0.00687882 0.0031142915 0.016797226
000030 f9 28 92 3c 7d 54 16 3c bf 44 df 3b eb 4d 8a bb
       0.017841803 0.009175417 0.006813615 -0.0042207143
000040 bf 1b c0 3b 00 35 93 bc 8e 1a 91 3b c3 0e 79 ba
       0.0058626826 -0.017969608 0.0044282144 -0.0009500796
000050 bc a9 6c ba c1 cb 05 3c 6b d7 44 3c dc 80 75 bc
       -0.0009027978 0.0081662545 0.01201425 -0.014984336
000060 20 46 b2 b9 3d ea 0e 3b c5 f8 5f 3c 15 4e a9 bc
       -0.00034003053 0.0021807097 0.013670151 -0.020667115
000070 84 bd fa 3a cd ef ca 3b 9c cd 27 bb 62 3f 04 3c
       0.0019129966 0.0061931373 -0.002560473 0.008071752
000080 fb b8 72 bc d0 91 4e bb 38 06 31 bc 23 cd 14 3c
       -0.014814611 -0.0031520016 -0.010804705 0.0090821115
000090 17 63 2f 3c ec 1c a5 bc c0 dc 27 bc ba 23 95 3c
       0.010704777 -0.020155393 -0.010245502 0.018205512
0000a0 82 8c 93 bc e1 76 2b 3c 51 ca 61 3c 0a 0a 1d 3c
       -0.018011335 0.010465355 0.013781146 0.009584913
0000b0 bd 4e b0 bc 10 54 15 3c 40 60 a8 3b 41 8c ac bc
       -0.02152192 0.00911428 0.005138427 -0.021062972
0000c0 98 d7 a3 bc 62 d8 46 3b f9 92 f4 ba 7d b1 e7 bb
       -0.020000264 0.0030341377 -0.0018659524 -0.007070719
0000d0 8e c4 1e bc f4 96 8d 3c 49 89 0c 3b 9e 3b 68 bc
       -0.009690417 0.017283894 0.0021444133 -0.01417437
0000e0 08 a8 7b bc 8d ed 9b 3c 1e a0 60 bc f6 ec e5 3b
       -0.015359886 0.019034171 -0.01371005 0.0070167733
0000f0 d4 26 59 bc 2b ee 54 bc f5 58 ce bb b7 2b d8 3b
       -0.013253886 -0.012996237 -0.0062972256 0.006597008
000100 28 16 9e 3c 07 6a 07 bc c4 33 23 bc 6a d0 74 3b
       0.019297674 -0.008265025 -0.009961072 0.003735567
000110 0e bc 65 bc 26 21 a4 bb f0 24 9a bb 0a d8 0a 3b
       -0.0140218865 -0.0050088344 -0.0047041103 0.0021185898
000120 79 51 e3 3b 6c 0d c2 3b 34 c6 2a 3a 6e 7c 68 3c
       0.0069372025 0.00592201 0.000651452 0.014189823
000130 5c 33 48 bc 24 8e 43 3c 9b c4 3a bc 46 73 a4 bc
       -0.012219276 0.011935744 -0.011399413 -0.020074498
000140 1e 59 c8 bc fa b4 8a 3c de 43 8c bc 99 23 a5 bb
       -0.024456557 0.016932 -0.017122205 -0.005039644
000150 0c 2c 9f bc 6c cb 88 bc 1e 3d 80 3c 42 b5 19 bc
       -0.019430183 -0.016698562 0.015654143 -0.009381594
000160 61 fe 64 3b 7f f3 aa bc c5 43 95 bb 8b 2b 91 3c
       0.003494166 -0.020868061 -0.004555198 0.017720958
000170 6e 85 5b bb 2d d4 82 bb ae a7 11 bc 6a b8 19 bb
       -0.0033496278 -0.0039925785 -0.008890076 -0.0023455867
000180 c5 67 86 3c d9 b0 81 3c 3d b2 53 bc 65 e5 2a 3c
       0.016406903 0.015831398 -0.012920913 0.0104306685
000190 3d 17 4b 3c 2b 65 35 3c 0e ab 23 3c b1 51 d7 bb
       0.012395677 0.011071484 0.009989513 -0.0065710177
0001a0 41 0c ab 3c 4c 90 88 bb f1 22 6c 3c 6e c3 91 3c
       0.020879867 -0.004167592 0.014412628 0.017793383
0001b0 d2 4a ab 3b 2d 47 fd bb ed 4d 14 bc 31 7d 96 b9
       0.005227425 -0.007729432 -0.009051782 -0.00028703504
0001c0 29 cf ef 38 9c 34 ab 3c 00 0a 7e bc 83 fd 03 3c
       0.00011434995 0.02089911 -0.015505314 0.008056047
0001d0 8a ff 52 bc 35 34 f9 3b f3 3f 87 bc 9c c9 ab bb
       -0.012878308 0.0076051005 -0.016509986 -0.0052425396
0001e0 84 c5 c2 bc c6 49 15 bc 6e db 4e b9 2d 50 f3 3b
       -0.023775823 -0.009111827 -0.00019727435 0.007425329
0001f0 c7 d1 b0 bc 01 8d b1 bc 99 02 4d bc 97 99 04 3c
       -0.021584405 -0.021673681 -0.012512826 0.008093259
000200 a4 31 2c bc ba 70 2d 3c a3 c8 94 b7 3f a3 eb 3c
       -0.010509882 0.010585958 -1.7736404e-05 0.028764365
000210 fa 3a c9 39 90 cf ce bb a4 a1 91 3c fc 72 2e bc
       0.00038381648 -0.0063113645 0.017777272 -0.010647532
000220 52 6f 5a 3b 2b 56 16 bc 29 ea 03 bc 7f 78 7c b9
       0.0033330512 -0.0091758175 -0.008051434 -0.00024077481
000230 b7 bc 30 3c 2b 69 f8 b9 78 48 15 38 ac 35 6c bc
       0.010787181 -0.00047380602 3.559186e-05 -0.014417093
000240 3f 86 48 3c 15 51 1a bc dd e3 06 3c 31 41 39 bc
       0.012239038 -0.0094187455 0.008233038 -0.011307047
000250 36 ab b6 bc 2e 42 86 bc c4 3b 89 bc d0 50 10 ba
       -0.022298437 -0.016388979 -0.016752131 -0.0005505206
000260 ba 0b 94 bc b0 de 6b 3c c9 9f b8 3b ef 7d 40 3c
       -0.018071998 0.014396355 0.0056342822 0.011748775
000270 d6 c6 22 3c fa b6 37 3c c9 0e 6c 3c 1e 26 db bc
       0.0099351015 0.011213059 0.014407822 -0.026751574
000280 5d 12 88 3c 38 3f b9 3b 50 f8 cc 3b 26 df 8b bc
       0.016610319 0.005653288 0.006255187 -0.017074179
000290 35 f6 a8 bc 85 4e 88 3b e1 29 46 bc ec cc 51 3c
       -0.020625213 0.004159751 -0.012094946 0.012805205
0002a0 5e 5b f5 3b 82 a3 f5 ba ae 7d 41 bc af bd 1f bc
       0.0074876985 -0.0018740746 -0.0118097495 -0.009749814
0002b0 c1 95 6f bc 07 c9 71 bc 66 20 45 3c 5f 00 d9 bc
       -0.014623106 -0.014757401 0.01203165 -0.026489435
0002c0 1a 44 c1 bc b9 e1 c8 3a d3 96 4f bb 8f 22 a0 bc
       -0.023592044 0.001532606 -0.0031675592 -0.019547729
0002d0 20 8e df bb df 62 de 3a ff f9 30 bb 06 c0 ac bc
       -0.0068223625 0.0016966722 -0.0027004478 -0.021087658
0002e0 31 34 29 bb e3 68 66 bc 0c cd 8f bc 67 ab fb 3a
       -0.0025818462 -0.014063093 -0.017553829 0.0019200862
0002f0 c9 e0 17 bc 8e dc f5 3b 7d 24 24 3c ea 7b 0f bd
       -0.009269902 0.007503099 0.010018465 -0.035030283
000300 ad 92 9d 3c 74 16 80 bc 37 13 f8 ba cb dc 1b 3c
       0.01923498 -0.015635706 -0.0018926625 0.00951309
000310 34 56 9b 3c cf 12 ab ba 5b 06 a2 b9 2c d6 84 bc
       0.018962003 -0.001305187 -0.00030903783 -0.016215406
000320 73 5c 96 3c 68 5d c0 bb 94 9d bc bb 91 9f 97 bc
       0.01835463 -0.00587051 -0.0057560895 -0.018508704
000330 7e ee 1b 37 63 e2 92 3b e3 f7 9b bb af a3 cb bb
       9.294248e-06 0.004482554 -0.004759775 -0.006214581
000340 3b 3e 8d 3c 11 b6 93 3c 96 fb 20 3c d9 aa 58 3c
       0.017241588 0.018031152 0.009825608 0.013224327
000350 70 4e 91 bc 7c 17 59 3c 82 5f 28 bc e9 06 ca 3b
       -0.017737597 0.013250228 -0.010276677 0.0061653745
000360 ef ff cd bb 40 73 a1 3c 61 ae 23 3c ad 28 2c 3c
       -0.006286613 0.019708276 0.009990306 0.010507745
000370 99 37 fc bb b4 d7 5e 3c b6 a8 97 3b 7e 17 a0 3b
       -0.0076970574 0.013601232 0.004628266 0.004885613
000380 fc c3 06 bc a2 22 8f 3a 9f b2 91 ba 82 33 90 bc
       -0.008225437 0.0010920356 -0.0011115855 -0.017602686
000390 de cd b0 3c bc c5 7d 39 63 db 42 3c cc 01 6d bc
       0.02158254 0.00024201622 0.011893126 -0.01446576
0003a0 d2 48 a3 3c 09 ce c1 3b 72 f0 a6 3c 45 7f a6 3b
       0.019932184 0.005914454 0.020378325 0.0050810897
0003b0 97 41 9d 3c d0 79 ca bb 13 f0 ac bc 4e 6d ea bb
       0.019196315 -0.006179072 -0.02111057 -0.0071541434
0003c0 f5 7d a6 3b 10 a3 74 bc ad 0c a4 bc d9 8c 95 bc
       0.005080933 -0.014931455 -0.020025576 -0.018255638
0003d0 1b 9e a1 bc 34 1f 93 3c 5b ca 0f ba b6 bc eb 3b
       -0.01972871 0.017959215 -0.00054851704 0.007194127
0003e0 b6 dc aa bc 25 de 27 bc 64 7d 4c 3b 95 a4 60 3c
       -0.020857196 -0.0102458345 0.0031202668 0.013711114
0003f0 3a 5a a1 3c a7 ad 5e 3c 99 34 9f bb 92 69 fb 3b
       0.019696344 0.013591207 -0.004858565 0.007672497

encoder.fc_mu.bias f4 [3]
000000 a7 e6 87 bc 5e 67 ec bb af b4 fd bb
       -0.016589476 -0.0072144708 -0.0077424864

encoder.fc_logvar.weight f4 [3, 2048]
000000 44 85 98 ba 1d 74 df bc 97 4d ae bc dc be 5b bc
       -0.0011636396 -0.027277047 -0.021277232 -0.013412204
000010 53 d7 83 bc 22 14 1d 3c aa 65 ce bc 87 49 10 3b
       -0.016093886 0.00958732 -0.025194962 0.0022016482
000020 e0 80 06 3b d2 a4 03 3c 01 02 ad 3b e1 89 15 bc
       0.0020523593 0.008034902 0.00527978 -0.009127111
000030 dd 91 ba bc 15 87 2e bc 98 38 35 bc a3 c2 c6 3b
       -0.022774631 -0.010652323 -0.011060856 0.006065683
000040 e3 17 84 bc 39 fb ff bb 73 40 89 bc d5 e9 08 3c
       -0.016124671 -0.0078119305 -0.016754365 0.008356531
000050 33 4d 4b 3b 0b ed 01 bc 2f de a0 bc e0 17 dc bc
       0.0031021356 -0.007930051 -0.019637195 -0.026866853
000060 13 d5 16 3c 40 01 80 bc 77 1c 23 ba 6a 9e a1 bb
       0.009206074 -0.015625596 -0.0006222198 -0.0049322145
000070 ca 7c 36 bc 9d 1f 59 3a 59 ad 2b bc de 28 a8 bc
       -0.0111381505 0.0008282604 -0.010478341 -0.0205273
000080 b8 68 e7 bb 2b 0d 64 3b 64 19 6c bc cf 5f a2 bc
       -0.007062044 0.0034797888 -0.0144103505 -0.019821076
000090 95 0d 36 bc 75 64 fc bc dd cf 5b bc 2b 51 9d 3b
       -0.011111637 -0.03080962 -0.013416258 0.0048009357
0000a0 bd 26 e1 3b b2 18 a9 bc d4 73 63 bb 2d 94 51 bc
       0.006871073 -0.020641658 -0.003470649 -0.0127916755
0000b0 27 b0 82 bc 9b 9e c7 bc 53 7a 99 bc 45 3e 08 bd
       -0.015953137 -0.024367621 -0.018735087 -0.03326251
0000c0 86 06 12 3c 12 ee 13 3c 6e 47 40 bb a0 2e 06 bd
       0.008912688 0.009028928 -0.002933945 -0.03275931
0000d0 06 f5 bc bc 72 12 20 bb d3 5d 6b bc 78 aa ab bc
       -0.023066055 -0.0024425057 -0.014365631 -0.02095531
0000e0 53 e7 e6 bc 3f da ee ba 8e 86 59 bc 17 17 14 bb
       -0.028186476 -0.0018223001 -0.013276709 -0.002259677
0000f0 ed c6 5e bc 63 11 60 3b 50 87 fa bc 9d b9 8c bb
       -0.013597232 0.003419005 -0.0305821 -0.0042945878
000100 40 f4 10 3c 7f cc 89 bc 54 ef df bc 38 fc 84 bc
       0.008847296 -0.016821144 -0.0273358 -0.016233549
000110 0e 2f e1 bc e4 11 83 bc 3d a5 f1 bb a0 e5 4e b9
       -0.027488258 -0.015999742 -0.0073744343 -0.00019731233
000120 a9 22 e4 3b 79 ac f2 bc 01 40 8b bc 88 2a 6a bc
       0.0069621396 -0.029623257 -0.016998293 -0.014292367
000130 ce be c9 bc 34 82 33 bb 34 49 8d bc fd a9 d9 bc
       -0.024627116 -0.002739084 -0.01724682 -0.026570315
000140 c4 43 05 bd 45 79 cc bc 5b 9c 83 bc 09 4c bf bc
       -0.03253533 -0.02496017 -0.016065767 -0.023351686
000150 a6 0f 0f bd 06 10 91 3b 99 5a c8 bb 4a 6f bb 3b
       -0.034927033 0.004426959 -0.0061143157 0.005720054
000160 83 81 37 bc 9a df a7 bc 4a 10 68 3b 23 81 fc bc
       -0.011200312 -0.020492364 0.00354101 -0.030823296
000170 a8 8a 16 bc 1e 00 be 3a 86 2d c8 bc 83 de 08 bd
       -0.009188332 0.0014495885 -0.02443577 -0.03341533
000180 f1 18 cd bc e3 35 82 3b 40 40 09 bd 95 51 c1 bc
       -0.025036307 0.003973709 -0.03350854 -0.023598472
000190 3a 6c 2d bc f8 22 94 3b d1 af a5 bc 7f d9 ff bc
       -0.010584885 0.00452077 -0.020225437 -0.03123164
0001a0 db 60 c8 b9 f1 47 a8 bc e0 29 7f bc 42 fb d1 bc
       -0.00038219136 -0.020542117 -0.015573949 -0.025632504
0001b0 bb 81 09 bc d6 22 90 bb 32 2f 21 bc a5 f6 0b bc
       -0.008392747 -0.004398684 -0.009837912 -0.008542691
0001c0 c7 4d 41 bc 4c 33 0a bc 3f 26 df bc 33 8d cb bc
       -0.011798329 -0.008435082 -0.027239917 -0.024847602
0001d0 93 65 2d bc 30 3c e6 3b ab 34 96 bc 97 ad ba bc
       -0.010583299 0.007026218 -0.01833566 -0.022787852
0001e0 b1 25 ee bb 2d 84 7f bc b4 e8 48 3b fc 78 a3 39
       -0.0072676768 -0.015595478 0.003065628 0.00031179923
0001f0 14 dd 80 b9 c0 50 d7 bc 36 12 13 bd 99 f7 7d bb
       -0.00024578779 -0.026283622 -0.03590604 -0.0038752316
000200 aa 87 e1 ba d7 3d 34 bb f1 e5 d0 bb 41 df e9 bc
       -0.0017206569 -0.002750268 -0.0063750674 -0.028548839
000210 08 b1 6e 3c 12 b0 d3 bc 37 5c 24 3c 22 6f 99 3a
       0.014568575 -0.025840793 0.010031751 0.0011706094
000220 62 83 44 bb 99 e1 2a ba 3f ef 35 3c 80 18 fe bc
       -0.0029985537 -0.0006518602 0.011104404 -0.031017542
000230 5e be 56 bc 7a 90 4e b9 af a4 3a bb 06 9b cf bc
       -0.0131069105 -0.00019699513 -0.0028479507 -0.025342476
000240 81 e8 10 bc 22 c9 95 ba e0 f4 9c bc 79 ed 0d bd
       -0.008844496 -0.001142774 -0.019159734 -0.0346503
000250 fa b3 34 3a 98 cf ec bc f2 50 8c bc 39 d7 3b bc
       0.00068932737 -0.028907582 -0.017128441 -0.011464887
000260 61 64 40 bc 16 02 00 bd fd a6 ef bc 4b c7 3e bc
       -0.011742682 -0.03125199 -0.02925443 -0.011644195
000270 92 0f 2f bc 25 14 8f bc a9 ea 18 bb 19 dd cc bc
       -0.010684865 -0.01746566 -0.0023333228 -0.025007771
000280 75 38 f6 bb 50 c4 c6 bc 7d d2 d8 bb 13 aa 17 bc
       -0.0075140544 -0.024263531 -0.006616889 -0.009256857
000290 3e 68 da bc 46 6b c0 bc 84 23 d9 bc 8c 93 8c bc
       -0.026661035 -0.023488652 -0.026506193 -0.0171602
0002a0 c5 10 3f bc ca b1 b0 bb 74 6e 13 3b a8 c1 a2 bc
       -0.011661713 -0.005392288 0.0022496255 -0.019867733
0002b0 2a 90 12 bd 61 b5 6b bc 78 30 52 bc f2 d5 95 bc
       -0.035782017 -0.014386506 -0.012828939 -0.018290494
0002c0 b5 e5 ce bb cd 01 31 bc d6 b1 a7 bc 0f 14 03 bc
       -0.0063140043 -0.010803652 -0.020470541 -0.008000388
0002d0 c2 15 a7 bc 21 e8 62 bc c9 32 3d 3c 48 97 5f bc
       -0.020396117 -0.013849289 0.011547753 -0.013646908
0002e0 d4 15 82 bc 68 ad fd bc 57 36 03 3b 3d da 14 3c
       -0.01587955 -0.030966476 0.0020021403 0.009085235
0002f0 fc 54 04 bd 82 fa 6e bc 6b 21 83 3c 5e d7 d0 bc
       -0.03230761 -0.014586093 0.016007146 -0.02549332
000300 3f a5 52 bb 87 f1 a9 bc c4 c2 52 ba d3 20 8d bc
       -0.0032141951 -0.020745052 -0.00080398866 -0.017227566
000310 7b 7b 3d bc 6b c3 c7 bc d0 c6 34 bc 8f 47 d2 bb
       -0.011565085 -0.024385175 -0.011033729 -0.006417222
000320 27 82 fe bc fd 91 4d bc 0f ea b0 bb 20 5c b0 bc
       -0.03106792 -0.012547013 -0.0053989957 -0.021528304
000330 4b 6b 03 bd 22 fe 0d bd e1 26 c7 3b af 49 e3 bc
       -0.032084744 -0.034666188 0.006077633 -0.027745096
000340 fe 4e 41 3b 7c a0 06 bd cf e2 b5 3b bf f4 ee bb
       0.0029496546 -0.032867894 0.0055507193 -0.0072923596
000350 42 dc 22 bc cd 76 c8 3b d2 24 ae bb a9 d1 b2 bb
       -0.009940209 0.006117678 -0.005314448 -0.0054571223
000360 f0 9a 55 bc 8f 42 d7 bb 82 f3 85 bc 6b 41 47 bc
       -0.013037428 -0.0065692137 -0.016351465 -0.012161593
000370 0c 8c 7d bc 88 77 3d ba 62 8c ff bb 0b ff ab bc
       -0.015475284 -0.00072275894 -0.0077987174 -0.020995637
000380 a9 db 57 3b 12 e8 0c bd ba 4d 87 bc 6d db e0 bb
       0.0032937324 -0.034401007 -0.016516555 -0.006862095
000390 5a c9 8e bc 5c 00 06 bd 7b 24 10 bd 93 9a be b9
       -0.017429996 -0.032715186 -0.03519104 -0.0003635479
0003a0 d9 f3 dc bc 08 06 19 bc 6e 25 a3 b7 de 6e cf bc
       -0.026971744 -0.009339817 -1.9448544e-05 -0.02532142
0003b0 24 7b 10 bd 84 fc e8 bc 0a 35 f1 bc ef fc ef bc
       -0.035273686 -0.028440721 -0.029444236 -0.029295413
0003c0 29 ff aa bb 5d a6 0f 3b 59 90 00 3c 2c c3 44 bc
       -0.0052184057 0.0021919229 0.007846915 -0.012009423
0003d0 9f 69 cf bc e1 41 9c bc cc 35 e4 bc 54 36 f6 3b
       -0.025318919 -0.019074382 -0.027857684 0.0075138006
0003e0 7d 77 b9 bb ec a1 71 bc 7b 71 82 3b 35 51 d3 bc
       -0.005659996 -0.014748078 0.003980813 -0.025795558
0003f0 e0 44 0d bd 36 67 9d bc 4f e2 82 bc 5d e7 03 bd
       -0.034489512 -0.019214254 -0.015977053 -0.032203067

encoder.fc_logvar.bias f4 [3]
000000 b4 4b 81 bb 57 81 ce bc 48 45 e4 bc
       -0.003945792 -0.025208158 -0.027865067

decoder.fc.weight f4 [2048, 3]
000000 02 d9 2e 3d 2d 03 02 bf d0 da 0f 3e 73 19 f7 be
       0.042687424 -0.50786096 0.14048314 -0.48261604
000010 f6 74 ce be a8 03 aa 3d 2e d1 bb be 59 e3 03 3f
       -0.4032361 0.083014786 -0.3668303 0.5151878
000020 f3 ed d9 3c 58 a1 b5 3e 40 33 49 39 0b 8c 93 be
       0.02660272 0.35474658 0.00019187946 -0.28817782
000030 85 92 15 3e e8 cb 03 3c 1c 5f d4 3e 50 99 c3 3e
       0.14606674 0.0080442205 0.41478813 0.38202906
000040 a6 e2 06 3f d4 1d ec 3e 93 56 54 be 43 0d f9 be
       0.5268959 0.46116507 -0.2073615 -0.4864293
000050 60 7c 2e 3e 75 a3 fc 3d b7 3f 86 be fa aa 81 bd
       0.17039633 0.123358645 -0.26220486 -0.06331439
000060 d1 95 54 3e 59 09 b9 3e 0e a5 7c 3e d1 81 68 3e
       0.20760275 0.36139944 0.24672338 0.22705771
000070 ce 68 e4 be 49 5a 09 3e 32 a3 ef 3e 36 88 1f 3e
       -0.4461121 0.13413347 0.46804196 0.15579304
000080 5a 1a 8d be c8 47 02 3f b9 98 81 be dc cf 41 bd
       -0.27559167 0.5089078 -0.2531183 -0.04731737
000090 6b 44 aa bd 0d 16 cd 3e 20 b1 0a bf 93 7c b9 3d
       -0.08313831 0.40055886 -0.5417652 0.09056964
0000a0 97 0a 08 3f 30 3a f4 3c d1 2d bb 3e 25 4f e8 bc
       0.5314116 0.029812902 0.36558393 -0.028358052
0000b0 78 72 64 3e 6e 1d 37 bd c2 e6 85 be 75 b0 59 3e
       0.22309291 -0.0447058 -0.26152617 0.2125872
0000c0 9c 42 d2 be 78 c0 12 be fe 33 58 bd 12 7e 11 bf
       -0.41066444 -0.14331234 -0.05278396 -0.56832993
0000d0 cf 38 84 3c 4f 3c e4 3e 2a 17 e5 be d0 09 55 be
       0.01614037 0.44577262 -0.44744235 -0.20804524
0000e0 6a 93 05 bf 21 da f2 3e 94 6d e5 be d0 65 a5 be
       -0.5217806 0.47432044 -0.44810164 -0.3230424
0000f0 45 f5 af be 71 41 9e be 58 5e 91 be 56 a9 eb 3d
       -0.34366813 -0.30909303 -0.2839229 0.11506908
000100 62 ea 05 bf 15 e1 d3 3e 8d 36 f3 3e c8 fa c8 be
       -0.52310765 0.4138266 0.47502556 -0.3925383
000110 84 1f d7 bd 7a 56 9f be 87 7a cc be 86 25 6e be
       -0.10504058 -0.31120664 -0.3993723 -0.23256502
000120 f3 44 b6 3e 82 8a c6 3e d4 18 d4 bd e5 3e 5c bd
       0.3559948 0.38777548 -0.10356298 -0.05377092
000130 fd 5b 12 3f 05 af 10 bf a6 c4 be 3e bf 64 b5 3d
       0.5717161 -0.5651706 0.37259406 0.088571064
000140 07 48 09 3f 20 39 6d be 83 a4 aa be db 24 87 3e
       0.5362553 -0.23166323 -0.33328637 0.26395306
000150 29 30 e6 3e a2 2f c5 bc d3 e7 62 3e 9e 05 8f be
       0.44958618 -0.024070565 0.22158746 -0.27933973
000160 9e bc 90 be d2 32 38 be fb a7 c5 bc fd c8 7d be
       -0.28268903 -0.17988136 -0.02412795 -0.24783702
000170 1e e8 a8 3e af 69 58 be 61 cb ec be 0c 12 ee 3e
       0.3298959 -0.21134065 -0.46248916 0.46498144
000180 4a 53 c4 be a6 b7 11 bf 0d 92 65 be 96 8a a7 3b
       -0.38344795 -0.5692085 -0.22418995 0.0051129563
000190 0a 34 8c be e9 36 12 3d 0e 5f 3e be b4 a4 d7 3d
       -0.27383453 0.035696898 -0.18590948 0.105294615
0001a0 48 fd a1 be 1b 37 ac 3e 66 6e e3 be b7 ad d6 bd
       -0.3163855 0.33635792 -0.44420165 -0.10482352
0001b0 79 e4 a9 3e 50 02 eb be c8 b9 ad 3d 97 2b 3a bc
       0.33182123 -0.45900202 0.084827006 -0.011362932
0001c0 4a 17 24 3d 76 71 85 be 22 f8 39 be 98 9a 97 be
       0.040061273 -0.26063126 -0.18161061 -0.29610133
0001d0 92 df 06 bf f4 9c b4 3e e4 d4 e1 be a4 60 3c be
       -0.5268489 0.35275996 -0.44107735 -0.1839624
0001e0 93 2d 88 3e d2 eb 0a 3c b1 55 b5 be 38 c0 d8 3e
       0.2659727 0.0084790755 -0.3541694 0.4233415
0001f0 dd 88 15 3f 7f 3f 71 be ae 46 ac be 93 d3 6a be
       0.5841196 -0.23559378 -0.33647674 -0.22932272
000200 3e 24 f2 3e 2d ec 32 be 98 9d 96 3e 21 c4 ae 3e
       0.47293276 -0.17472906 0.2941711 0.3413401
000210 72 80 f7 be 8e 9f 10 bf c9 e7 10 3d f3 d9 df bd
       -0.48340183 -0.5649346 0.035377298 -0.109302424
000220 e6 65 8c 3e 5e de 12 3e 49 47 50 be 5b 3f f3 3e
       0.27421492 0.14342639 -0.20339693 0.47509274
000230 5e 83 38 be fe 1e 99 3e 6b 91 d9 3e 9f e1 9e be
       -0.18018863 0.29906458 0.42493758 -0.3103151
000240 0f 78 a2 be 8f 97 0c bf 2b be 25 3e bb 3b 59 be
       -0.31732222 -0.5491876 0.16185825 -0.21214192
000250 0e 5b 13 be 70 e2 d7 3d 95 a7 ff 3d 20 7b b5 3e
       -0.14390203 0.105412364 0.124831356 0.354455
000260 2d c5 19 3e d0 f7 14 bf 8a f6 8a be f5 ae 45 3e
       0.15016623 -0.5819063 -0.2714122 0.19305022
000270 c9 72 02 3f 9b e3 61 be cb 80 03 3f 40 c7 de 3e
       0.509564 -0.22059481 0.513684 0.4351139
000280 50 31 9c 3e d1 1a 99 3e 79 b2 e2 bc ea be 42 3e
       0.30506372 0.29903272 -0.027672993 0.1901814
000290 9d 99 fb 3b b5 86 b7 3e d6 4e aa be 69 79 59 be
       0.0076782242 0.3584496 -0.33263272 -0.2123772
0002a0 85 19 b5 be 28 3b 64 3e 09 e3 b2 bd 64 43 99 3c
       -0.35371032 0.22288191 -0.0873471 0.018708892
0002b0 8f ad 08 3f 5e af ff be 1a 4e 42 be 19 69 1a be
       0.5338983 -0.49938482 -0.18975106 -0.15079154
0002c0 98 88 cc 3e 5f de e6 be 6a b0 d2 3e 2f 93 7b 3e
       0.39947963 -0.4509153 0.41150218 0.24567865
0002d0 eb f3 03 3e e7 11 d6 3e 32 13 78 bd 42 d9 9f 3e
       0.12886016 0.41810533 -0.06056518 0.31220442
0002e0 b9 1c 54 3e d4 83 0d bf 95 50 9f bd 86 3e 00 bf
       0.20714082 -0.5527928 -0.07779042 -0.50095403
0002f0 e5 d8 7b 3e 59 9d 2b be 95 0a 95 3d 21 dd 62 3e
       0.24594457 -0.16759242 0.07277409 0.22154666
000300 39 4b b5 be 02 97 e5 3e 97 a3 93 be c4 55 99 bd
       -0.35408953 0.44841772 -0.28835747 -0.074870616
000310 a6 49 7d 3e 2b cf 01 3f fa 19 c5 be 4d bf 29 3e
       0.24735126 0.5070674 -0.3849638 0.16576882
000320 48 96 ba 3e 69 71 37 3e 3c cd d6 3e c9 6d b7 be
       0.3644278 0.17914356 0.41953456 -0.35825947
000330 16 d5 ef 3e 1e 34 f8 3e 87 32 80 3e 71 15 69 3e
       0.4684226 0.48477262 0.2503855 0.22762085
000340 dd 88 d7 be 53 48 01 3f 22 07 fe be da dc 62 3e
       -0.42096606 0.50500983 -0.49614817 0.2215456
000350 a9 65 f5 be 07 b2 fa bb 27 b0 5e 3d 1d ec dd be
       -0.47929123 -0.007650617 0.05436721 -0.43344203
000360 9b 28 f8 bd ea b1 8a be f4 e0 5c be eb 7d 39 be
       -0.1211712 -0.27088863 -0.21570188 -0.1811444
000370 89 b7 13 bf 1b 15 a6 3d e5 b1 28 bd f8 20 0a be
       -0.5770193 0.08109494 -0.04118528 -0.13489139
000380 94 b3 5e 3d b4 2c f5 3e 2a 02 a9 3e 31 d8 01 3e
       0.054370478 0.47885668 0.33009464 0.12680127
000390 5f d9 49 be 09 e6 0f bf 7b 34 ab be ab 49 8b 3e
       -0.19711827 -0.5621038 -0.33438477 0.27204642
0003a0 bd e7 c2 3e 0f 74 be bd 77 72 ec be a6 50 16 3e
       0.38067427 -0.0929948 -0.4618108 0.14679202
0003b0 4c 2e ef be 2e 81 df be d7 e2 c5 3e fa 1d 3c 3e
       -0.4671501 -0.43653244 0.38649628 0.1837081
0003c0 04 e8 b4 3e 1e 4e ee be c6 9a bd be 86 82 9b 3e
       0.35333264 -0.46543974 -0.37032145 0.3037302
0003d0 2e 7d 0a bf 56 cf 4f bd c5 20 c7 be da cf f5 be
       -0.5409726 -0.05073484 -0.3889219 -0.4801014
0003e0 c3 84 66 bd 09 f2 49 3d 50 7d ea be 51 de da 3e
       -0.056278955 0.04930309 -0.4579873 0.4274774
0003f0 ad 58 8b be 6c 0e a0 3e b9 4f 05 be b3 52 74 3e
       -0.27216092 0.31261003 -0.13018693 0.23859672

decoder.fc.bias f4 [2048]
000000 e5 a4 ee be 58 a5 19 be 36 a9 f8 bd 0d 1e 79 be
       -0.4661018 -0.1500448 -0.121416494 -0.2432787
000010 dd 59 4a be fb 26 e8 bd 8b 3a 9d 3c d2 a6 23 3d
       -0.19760843 -0.1133556 0.019192955 0.039954014
000020 e7 f6 a3 3c 98 d8 a1 3e ff 82 db 3e 2f 94 d8 be
       0.020015193 0.3161056 0.4287338 -0.42300555
000030 0b 53 b1 be f3 46 84 3e 04 56 99 bd bb 10 61 3e
       -0.3463367 0.2583538 -0.07487109 0.21979038
000040 0a 8b b0 be 64 db 09 3f 42 26 db 3e bd 19 84 3e
       -0.34481078 0.5385039 0.42802626 0.25800887
000050 a2 34 18 3f 47 4a 98 3e d3 d2 97 bd 08 79 ac 3d
       0.5945531 0.2974417 -0.074132584 0.084215224
000060 fe a7 ac 3e 4c ae fd be 91 ea bb be ec c2 97 bc
       0.33721918 -0.4954704 -0.36702397 -0.018525563
000070 bb 1a 87 3e fe dc 7e 3e 51 14 5e 3e c9 b4 10 3f
       0.2638758 0.2488899 0.21687438 0.56525856
000080 19 c3 e6 be 62 a3 09 bf 8a ce c6 be 63 0a e3 be
       -0.45070723 -0.5376493 -0.38829452 -0.44343862
000090 72 fe 02 3e 0e d8 cc be 5d c6 bf 3e 01 fc cf be
       0.12792376 -0.40008587 0.37456027 -0.4062195
0000a0 68 90 65 3e 61 f9 f7 3e e1 43 87 3e bb 76 2c be
       0.22418368 0.48432449 0.26418975 -0.16842167
0000b0 d5 65 54 3e 14 60 f0 be 58 49 4b 3e c1 43 f6 be
       0.20741971 -0.46948302 0.19852197 -0.48098567
0000c0 33 f8 53 be a2 c4 c6 be be c6 5b be 02 b2 a4 3e
       -0.20700149 -0.38821894 -0.21462533 0.3216706
0000d0 ef 94 05 3f 02 39 10 3b 7b 0b 9f bd df 43 d0 3e
       0.5218038 0.0022006636 -0.077658616 0.40676782
0000e0 70 0b 0d be d9 ec 19 3f 62 0b 5b 3e 99 e5 09 3f
       -0.13773894 0.60127026 0.21391061 0.53865963
0000f0 ec 43 45 3e 2b b1 e6 be 76 e0 f3 3e 95 38 dc be
       0.19264191 -0.45057043 0.47632188 -0.4301192
000100 b5 c9 86 be 07 87 b1 be 8a af 70 be 3a c1 a3 be
       -0.26325765 -0.3467333 -0.23504463 -0.31983358
000110 83 73 65 3e ec 0c 2d be 8b a4 b6 3e ac ef 07 3f
       0.22407345 -0.1689946 0.3567241 0.53100085
000120 e3 19 f9 be 8d 7a e9 be 67 67 3a be 75 3a d3 be
       -0.48652562 -0.4560131 -0.18203507 -0.41255537
000130 14 29 24 be 2e 74 e8 3e 65 d3 e5 3e ae 75 f5 3d
       -0.16031295 0.45401138 0.44887844 0.11985336
000140 b1 38 6e 3e 80 05 83 3e 57 cf 67 be 05 3e a5 be
       0.23263814 0.25590134 -0.22637688 -0.3227388
000150 92 88 f4 3d 64 07 80 be 61 8d 9f be 00 bf 92 be
       0.11940111 -0.2500564 -0.3116255 -0.28661346
000160 87 9e 74 bd d2 50 ae 3e 19 f5 85 bd 86 b8 0b 3f
       -0.059721496 0.34046036 -0.06540889 0.54578435
000170 05 c7 ef be 93 99 95 be 5c 34 0c bf fa 4c df 3e
       -0.46831527 -0.2921873 -0.54767394 0.43613416
000180 a6 32 87 be d0 eb 15 bd 79 79 31 be 3a 9e 4b 3e
       -0.2640583 -0.03660184 -0.17331494 0.19884577
000190 14 8f e1 be 4c 7f 57 3e cf 6b 93 be 31 7e a2 3e
       -0.44054472 0.21044654 -0.2879319 0.317369
0001a0 19 fa 07 3f 39 8d 09 bf f5 36 d7 3e 94 ad a0 3e
       0.53115994 -0.53731114 0.42034116 0.3138243
0001b0 ac 70 cf 3e 4b bc 60 bc a4 e3 a8 3d 17 29 fb 3e
       0.4051565 -0.013716768 0.08246544 0.49054787
0001c0 18 b4 bd bd 0b e7 b9 3e b7 67 dd 3e 00 e4 1e be
       -0.09262866 0.36309084 0.4324319 -0.15516663
0001d0 5f 98 0b be be 63 58 ba fa 3a 06 be 5c ec 97 3e
       -0.13632344 -0.0008254609 -0.13108435 0.29672515
0001e0 1b 9a bd be 2e 69 7b bb 38 ba ae 3e 16 d1 07 bf
       -0.37031636 -0.0038362253 0.3412645 -0.53053415
0001f0 16 4b a8 be 24 af cf 3e f4 5d 15 bf 98 58 f3 bd
       -0.32869786 0.4056331 -0.58346486 -0.11882132
000200 fd 12 16 3e 14 e7 bd be 9e a4 ae be a0 c6 ca 3e
       0.14655681 -0.3709036 -0.34109968 0.39604664
000210 42 78 9a 3e 48 76 cb 3e 1f 93 19 3e ed e0 c1 bd
       0.30169874 0.3973868 0.14997528 -0.09466729
000220 ed 7f 08 3d 1a 64 54 3e 47 71 95 3d 4e dd 06 bb
       0.033325125 0.2074131 0.072969966 -0.0020578685
000230 cc c4 a8 3e 74 3d a1 3d fd cb 7b be c0 48 54 3d
       0.32962644 0.078730494 -0.24589534 0.051827192
000240 f7 4d dd be e6 7b 9c bd e8 4f d4 3e 84 be 01 bf
       -0.43223545 -0.07640819 0.41467214 -0.5068133
000250 48 42 55 3d 37 1e 94 be a6 e6 11 3d be f2 74 be
       0.052065164 -0.28929302 0.035620354 -0.23920724
000260 01 68 d8 3e fc 07 0f bf b6 5a 48 be 29 1e d7 3e
       0.4226685 -0.5587156 -0.19565853 0.42015198
000270 97 30 fd 3d 4c a4 dc 3e a2 bc c9 be 76 b8 fa be
       0.123627834 0.430941 -0.39401728 -0.48968858
000280 2e 40 7d be a4 80 4f be af 42 c5 be b8 bc 1f 3d
       -0.24731514 -0.20263916 -0.38527438 0.038998336
000290 ce f1 80 be 43 4e a6 bd fc f3 ff be 18 16 ca be
       -0.25184482 -0.08120396 -0.49990833 -0.3946998
0002a0 bb 0f f3 be b9 15 21 be e6 ce 60 3b ee 01 97 bd
       -0.4747294 -0.15730943 0.0034303009 -0.07373415
0002b0 ef 28 92 be f0 05 01 3f cd 99 6a 3e 13 d0 83 be
       -0.28546855 0.50399685 0.22910233 -0.25744686
0002c0 58 e6 c4 3d 91 6d 94 3e ef 8a bb 3e 85 71 fa 3b
       0.09614247 0.28989843 0.36629435 0.007642927
0002d0 8a 9f b3 bd 52 f4 4d 3e cf f1 e7 be 8e e6 02 3e
       -0.08770664 0.20112732 -0.45301673 0.12783262
0002e0 eb 1e 67 be a0 9e 29 be d3 88 cb 3e ad 84 6f bc
       -0.22570388 -0.16564417 0.39752826 -0.014619035
0002f0 42 44 14 3d 33 d1 4a be cd 50 d4 be b3 83 fd be
       0.03619791 -0.19806366 -0.41467896 -0.4951454
000300 bb 1b 03 bf 6c ca e4 be f6 72 84 3e 52 55 e9 bd
       -0.5121419 -0.44685686 0.25868958 -0.11393227
000310 0c 89 9f 3e 0a 5a d3 3e ac 67 8d be 76 ab ca 3e
       0.31159246 0.41279632 -0.27618158 0.3958394
000320 7a d7 07 bf 35 0b a1 3e e1 9a 4b be 6b de 1e bf
       -0.53063166 0.31453863 -0.198833 -0.6205813
000330 7d cf 86 3e 83 a1 a1 be 45 0f b9 be 0d 59 d1 3e
       0.26330176 -0.31568536 -0.36144462 0.40888253
000340 13 d2 14 3f 88 0e f3 3e 1d be b4 bd c9 a4 b9 be
       0.5813305 0.47472024 -0.08825324 -0.36258534
000350 82 cb bd be 33 81 b4 3d 55 90 a3 be 95 3b 0d 3f
       -0.37069327 0.08813705 -0.31946054 0.5516904
000360 e5 a8 03 3f 7b 77 67 3b de 86 bc 3d 84 5a 67 3e
       0.5142959 0.0035319019 0.092054114 0.22593123
000370 b9 78 2c be 09 dd ae 3d 7e 08 0d 3e 9e db 21 be
       -0.16842927 0.08538253 0.13772771 -0.15806434
000380 86 b1 70 be 38 69 63 be 58 38 40 be 15 93 5c be
       -0.2350522 -0.22208107 -0.18771493 -0.21540482
000390 f4 54 c3 3d 5e 02 bd 3e 1b fe 83 be 45 96 e8 3e
       0.09537688 0.3691587 -0.25779805 0.45427147
0003a0 ca 69 1e be e8 79 b0 be 4c d2 9a 3e e4 39 17 be
       -0.15470043 -0.34468007 0.3023857 -0.14768177
0003b0 0e b9 c4 be ac 8b f1 bd 29 97 d3 bc a7 00 8b be
       -0.38422436 -0.117942184 -0.025828915 -0.27148935
0003c0 a5 ca 3c 3e 01 e2 86 be ee 33 82 ba 3b a8 e1 bd
       0.18436678 -0.26344302 -0.0009933689 -0.110184155
0003d0 f3 db 04 be 03 09 e7 be f9 4d e0 be 33 c0 33 bd
       -0.12974529 -0.45124063 -0.43809488 -0.043884467
0003e0 03 56 d6 be 2c 3f bb 3d a0 52 eb 3d 8a 0a cf 3e
       -0.41862497 0.091429085 0.11490369 0.40437728
0003f0 29 ba 07 bf ed 40 0f be 73 34 a0 bd d0 47 0c 3e
       -0.5301843 -0.13989611 -0.07822504 0.1369927

decoder.conv2.weight f4 [32, 16, 4]
000000 1f bd 51 3d 4b b8 b0 bd 6d 7e 0b 3d 69 de 9f bd
       0.05120575 -0.08628901 0.034056116 -0.07806093
000010 71 cd 80 3d 6c 13 6d bd 54 71 9f bd 59 62 40 bd
       0.06289185 -0.05787985 -0.077852875 -0.04696879
000020 25 db 0a bd af dc fa 3c 79 ae 0c be 2a 5f 85 bd
       -0.0339004 0.030622808 -0.13738431 -0.06512292
000030 dd 91 69 3b 16 2a cd bd 00 3f be bd 94 18 59 bc
       0.003563992 -0.10017793 -0.0928936 -0.013250489
000040 61 c8 90 3d 0a a4 7a 3c 8e 62 d3 3d 28 88 1b 3c
       0.07069469 0.015297899 0.10321532 0.009492911
000050 4a c5 a8 3d 89 e2 46 3d 8f d9 c7 3d d3 d6 07 3d
       0.08240755 0.048555885 0.09758293 0.033163857
000060 bd ee 49 3d a7 a6 4b 3d c3 55 c4 bd 6f a8 89 3c
       0.049299944 0.04971948 -0.0958667 0.016803948
000070 91 3d cf bd bd a6 25 bc 7e be 01 3e 1d 85 e0 3d
       -0.10119165 -0.010110554 0.12670323 0.10962889
000080 21 97 84 bd 4d 08 13 bd a3 e8 c8 3d b1 43 31 bd
       -0.06474138 -0.035896588 0.09809997 -0.043277446
000090 df f7 bc 3c 5b cd dc bc b8 66 8f 3d db d1 30 3d
       0.023067413 -0.02695339 0.07002014 0.043168884
0000a0 f4 db 4f be f0 fd d7 bc fb 76 7f 3d 87 24 01 bd
       -0.20298749 -0.026366204 0.062369328 -0.031528976
0000b0 ba bb 71 bd 83 8a ca bd 0d df c4 3d 62 2d a2 bd
       -0.05901692 -0.098897 0.09612856 -0.07918812
0000c0 04 eb 2c 3d f3 07 0d bd 36 69 87 bd 3b b9 75 3d
       0.042216316 -0.03443141 -0.06611864 0.059991103
0000d0 01 a0 91 bd 82 ee 2f bd 23 77 d4 bd df e8 ba bd
       -0.071105964 -0.04295207 -0.10374286 -0.09126448
0000e0 11 52 1b bb b9 17 c7 bd 69 bf 7b 3d 64 83 0a be
       -0.0023700038 -0.097213216 0.06146184 -0.13526684
0000f0 b0 05 c4 bd cd 4a ae bd 0d 20 41 3b 68 56 b0 3c
       -0.09571397 -0.08510361 0.0029468567 0.021525577
000100 b4 5c b6 bd e1 9b 9d 3b 4c 78 c1 3d ed 78 b6 bb
       -0.089044005 0.004809842 0.09446773 -0.0055686147
000110 d7 f3 31 bc 3a eb fa 3c 5b d5 55 3d e8 7a d9 3c
       -0.010861359 0.030629743 0.052205425 0.026547864
000120 84 20 87 3d 6f 3e c8 3d 65 59 b6 bd 6c c1 f7 bd
       0.06597999 0.09777533 -0.089037694 -0.12097439
000130 ab b1 93 3d 9f ed 32 bd 47 d0 40 bd dc ec b5 3d
       0.07211622 -0.043683644 -0.04707363 0.08883068
000140 1b 8f bf bc 96 2e 6d bd 7b 99 8b 3d 4f f9 5a 3d
       -0.023383668 -0.057905756 0.068163835 0.053460415
000150 7b f6 10 3d 2b db a7 bd 9f ed de bc 55 0a 8b 3d
       0.035391312 -0.081961 -0.027212916 0.0678908
000160 da cb 6c bc b3 11 31 3d 84 31 56 3d ab 3d af 3d
       -0.014452899 0.04322977 0.052293316 0.08556684
000170 92 5d af bd 70 c4 26 3d 0f 0c 6f 3d 66 60 87 bc
       -0.08562769 0.04071468 0.05836111 -0.016525459
000180 04 f6 b8 bd f6 f1 89 bd 74 36 af bd 84 6c 79 3d
       -0.09031299 -0.067356035 -0.08555308 0.060894504
000190 55 ea 81 3d d2 db c0 bd bf a6 eb 3c 61 1c 97 bd
       0.063435234 -0.094169274 0.028766034 -0.0737846
0001a0 55 a5 aa 3c 37 17 9b bd c6 62 88 3d 67 38 01 3d
       0.02083079 -0.07572787 0.066594645 0.03154793
0001b0 9a 64 9e 3d c6 af e5 bd 7e e8 89 bc 91 bd a1 3d
       0.07734032 -0.11215167 -0.016834494 0.07897485
0001c0 5c 31 e7 bd 24 1b 4c bd 85 a8 ef 3d 55 7d 4b 3d
       -0.112887114 -0.04983057 0.117020644 0.049680073
0001d0 a6 f5 db 3c bc 46 aa bb ab 7d 8f 3d 8e 60 78 3d
       0.026850533 -0.0051964205 0.07006391 0.060638957
0001e0 f0 da 88 bd aa 29 7f 3d 95 4a f1 bc a1 bd 9f 3d
       -0.06682384 0.062295593 -0.029454509 0.07799841
0001f0 9f d5 4d bd 93 56 94 bd 32 a1 92 3d b5 e2 96 bd
       -0.050252553 -0.07243075 0.07159652 -0.0736746
000200 37 1c 6d bd 8c f7 fd 3c e0 84 7d 3d 4c de 35 3d
       -0.057888236 0.031001829 0.061894298 0.044401452
000210 31 04 10 bd 42 61 93 bd 50 ac 74 bc a0 79 38 3d
       -0.035160247 -0.07196285 -0.014933661 0.045037866
000220 4a f6 04 bd dd 8c b8 3d da cc e6 3d 3a 83 09 3c
       -0.032461442 0.090112425 0.11269541 0.008393103
000230 a3 20 15 3d 98 5a 8f 3d 6d 2d 4c 3d 49 89 43 bc
       0.036408078 0.06999701 0.04984801 -0.011934587
000240 af 81 0b 3e e4 03 8d 3d 5e 6f 40 bd 73 c2 9c bd
       0.13623689 0.06885508 -0.046981208 -0.07654276
000250 8c c0 16 3d 26 5c 3b bd e6 50 91 bd b9 f7 95 3b
       0.03680472 -0.045742176 -0.07095508 0.00457665
000260 38 a4 e1 bc d8 b2 83 bd 18 3c 74 3d d1 e1 94 3d
       -0.027544126 -0.06430596 0.059627622 0.072696336
000270 f0 51 a8 3d 7a 9c 8d bd 7c c9 12 bc 89 f8 1b bd
       0.08218753 -0.06914611 -0.00895917 -0.03807882
000280 67 ff 25 3d a8 8b a2 3d e6 b0 0e 3c a0 fb b0 3d
       0.040526774 0.079367936 0.008709168 0.08641744
000290 21 24 a8 3d 5c 35 02 bc 49 01 36 3d e3 5c ee 3c
       0.08210016 -0.007947292 0.04443482 0.029097026
0002a0 24 81 9f bd df c6 bc bd d7 fb d5 bd 22 f5 99 3c
       -0.077883035 -0.09217619 -0.10448425 0.018793646
0002b0 7c 98 10 be bb dc af bc c8 ae 75 3c 6f 97 96 3d
       -0.14120668 -0.021467557 0.014995284 0.073531024
0002c0 a2 1b ed bd a2 ee cb 3d 77 f4 7c 3d c8 d8 a2 bd
       -0.11577536 0.09957625 0.061756577 -0.07951504
0002d0 56 1c 3c 3c e8 e7 01 bd 43 3d a0 3c e9 c4 8e bd
       0.011481365 -0.031715304 0.019560462 -0.069711514
0002e0 e9 2f 96 bb 89 eb ce 3d c9 da 7f bd bb cd 20 3c
       -0.004583348 0.101035185 -0.06246451 0.009814675
0002f0 4a ea c7 3d a2 b0 1a bd d7 1c e6 3d 85 da 9a bd
       0.09761484 -0.037766106 0.112359695 -0.075612105
000300 02 68 a1 bd f6 dd b5 3d e7 26 cf 3d 9b d7 cb bd
       -0.07881166 0.08880226 0.10114842 -0.09953233
000310 2f 83 7f bc 69 82 67 3d 0a c7 8b bd 3c 8c ce bb
       -0.015595241 0.056520853 -0.06825073 -0.0063033383
000320 d9 d4 0c 3b ca f7 87 3c 56 5f 12 bd 4a d5 a4 bc
       0.0021489172 0.016597647 -0.03573545 -0.020121235
000330 67 14 ef 3c 7d 41 01 be 2f 0b 09 3d fa bb 40 3d
       0.029184533 -0.12622638 0.03345793 0.04705427
000340 9f 32 94 bd 58 42 e0 3d 53 df a2 bd ef b1 96 3c
       -0.07236218 0.10950154 -0.07952752 0.018395392
000350 84 e3 2b bd 27 d2 d4 bc 7f 41 52 bd 5f e5 2c bd
       -0.041965023 -0.025979115 -0.051331993 -0.042210933
000360 03 34 2e bc 15 62 95 bd d8 b0 96 3d d2 57 bc 3c
       -0.010632518 -0.07294098 0.07357949 0.022991095
000370 a9 ee 49 3d 10 b4 9c bd ab b1 8d bd 8a f3 85 bc
       0.04929987 -0.07651532 -0.06918653 -0.01635148
000380 13 b7 c5 3d 92 97 b7 bd e0 09 be 3d 39 8e bc bc
       0.09654059 -0.089644566 0.09279227 -0.023017036
000390 fb 04 0e 3d 76 cc d7 3d ec d2 77 3d ec 47 32 bd
       0.03467272 0.10537045 0.060503885 -0.04352562
0003a0 6d 94 17 bd 92 c6 b3 bd 36 fc 02 3e 05 41 cb 3c
       -0.037006784 -0.08778109 0.12791523 0.024811277
0003b0 69 53 01 be 84 9a 4c bd cc aa 45 bd 9e 5a 94 bc
       -0.12629475 -0.049952045 -0.048258588 -0.018109616
0003c0 af 55 72 3d ef 6b de 3d 20 c5 1d 3d da 8b c7 bc
       0.059163745 0.108604304 0.03851807 -0.024358679
0003d0 10 67 a1 3c b1 a3 9c 3d 38 eb 90 bb aa ce 7f bd
       0.019702464 0.07648409 -0.0044225715 -0.06245295
0003e0 ab f9 5a 3d d3 13 c9 bd ed 69 59 3d b3 ab 3b bd
       0.05346076 -0.09818234 0.053079534 -0.045818042
0003f0 58 3a cf bc 6f 9f 76 3d 7c ff 3c 3d 6c 33 cb 3d
       -0.025296375 0.06021064 0.046142086 0.09921917

decoder.conv2.bias f4 [16]
000000 f0 be ae bd 4a cb 97 bd 5c 45 1e be be 9a 0b 3c
       -0.08532512 -0.07411821 -0.15456146 0.00852078
000010 c5 39 74 3c bc d4 3d 3c d4 93 bd 3d f7 9b 28 3c
       0.014906351 0.011586364 0.092567116 0.010291091
000020 ef 5c aa 3d 11 4a be 3d 43 a1 cf bd ca 61 df bd
       0.08318507 0.09291471 -0.1013818 -0.10907324
000030 7f 9f d2 b9 1a 01 ad bd 52 95 b6 bd 81 ce 23 bd
       -0.00040173155 -0.08447476 -0.08915199 -0.03999186

decoder.conv1.weight f4 [16, 1, 4]
000000 f2 44 8a be c3 bc 4b 3d eb 61 a6 be 8f 88 d7 3e
       -0.27005726 0.049740564 -0.3249658 0.42096373
000010 f6 e2 dc be 7f 05 b4 3e f3 e2 1a be 0c 8b 02 bf
       -0.43141907 0.35160443 -0.15125637 -0.5099342
000020 4f fa 59 be 3e f7 49 3e dc f5 7e bd db a3 ae be
       -0.21286891 0.19723222 -0.06224619 -0.34109387
000030 7a 2b b6 3d a0 b8 e1 3d ae eb cb 3e 12 3b d4 be
       0.08895011 0.110215425 0.39828247 -0.41451317
000040 62 e7 d1 3e 91 cc 32 be 08 25 a1 bc 51 32 63 3e
       0.40996844 -0.17460848 -0.019670978 0.22187163
000050 c4 cd bc bc 91 53 9c be fe bb 80 3e 66 ea b2 be
       -0.023047335 -0.30532506 0.25143427 -0.34944457
000060 f4 64 81 be 37 bd 78 3e a9 f6 d7 be fc b4 ef 3e
       -0.25272334 0.2429093 -0.42180374 0.46817768
000070 1a bb 16 bd 41 35 8b 3e b7 f4 7d 3d 83 71 44 be
       -0.036799528 0.27189067 0.062000956 -0.19183926
000080 9c 6f c9 bd 00 11 1a bd ab db d7 be 4e 60 6a bd
       -0.09835741 -0.03761387 -0.4215978 -0.05722075
000090 9f dc b3 bd e7 5c ed 3e c4 d0 88 3e 94 ec b3 3e
       -0.087823145 0.4635994 0.26721776 0.35141432
0000a0 51 74 c6 be 34 9c ab be 37 d8 3e be 08 e7 04 b9
       -0.38760617 -0.3351761 -0.18637167 -0.00012674567
0000b0 e0 ce dd 3d 34 a5 f5 bc 46 4f 0a be 21 97 99 be
       0.10830474 -0.029986002 -0.13506803 -0.29998115
0000c0 af 33 e2 be 2d fa dc be 1e 21 9f 3e 3b 01 93 be
       -0.44180056 -0.4315962 0.31079954 -0.28711876
0000d0 0f ef 8d be 40 ec 98 3e 91 9e b5 be 63 c7 04 be
       -0.2772145 0.29867744 -0.3547254 -0.12966685
0000e0 6e ce 74 3e 9a 0d 5a 3e 19 44 fb 3e e4 f0 db 3d
       0.23906872 0.21294251 0.49075392 0.107393056
0000f0 4d 4d 86 3d 5d 9a ca be 54 6f 2d 3e 03 45 46 be
       0.06557713 -0.39570895 0.16937 -0.19362263
