wavae_notebooks/WAV/Various-ups-downs/model-relu-500/model-relu-500.onnx (onnx, 68775 bytes, 5 tensors)

fc.weight f4 [2048, 3]
0	0x3d2ed902	0.042687424
1	0xbf02032d	-0.50786096
2	0x3e0fdad0	0.14048314
3	0xbef71973	-0.48261604
4	0xbece74f6	-0.4032361
5	0x3daa03a8	0.083014786
6	0xbebbd12e	-0.3668303
7	0x3f03e359	0.5151878
8	0x3cd9edf3	0.02660272
9	0x3eb5a158	0.35474658
10	0x39493340	0.00019187946
11	0xbe938c0b	-0.28817782
12	0x3e159285	0.14606674
13	0x3c03cbe8	0.0080442205
14	0x3ed45f1c	0.41478813
15	0x3ec39950	0.38202906
16	0x3f06e2a6	0.5268959
17	0x3eec1dd4	0.46116507
18	0xbe545693	-0.2073615
19	0xbef90d43	-0.4864293
20	0x3e2e7c60	0.17039633
21	0x3dfca375	0.123358645
22	0xbe863fb7	-0.26220486
23	0xbd81aafa	-0.06331439
24	0x3e5495d1	0.20760275
25	0x3eb90959	0.36139944
26	0x3e7ca50e	0.24672338
27	0x3e6881d1	0.22705771
28	0xbee468ce	-0.4461121
29	0x3e095a49	0.13413347
30	0x3eefa332	0.46804196
31	0x3e1f8836	0.15579304
32	0xbe8d1a5a	-0.27559167
33	0x3f0247c8	0.5089078
34	0xbe8198b9	-0.2531183
35	0xbd41cfdc	-0.04731737
36	0xbdaa446b	-0.08313831
37	0x3ecd160d	0.40055886
38	0xbf0ab120	-0.5417652
39	0x3db97c93	0.09056964
40	0x3f080a97	0.5314116
41	0x3cf43a30	0.029812902
42	0x3ebb2dd1	0.36558393
43	0xbce84f25	-0.028358052
44	0x3e647278	0.22309291
45	0xbd371d6e	-0.0447058
46	0xbe85e6c2	-0.26152617
47	0x3e59b075	0.2125872
48	0xbed2429c	-0.41066444
49	0xbe12c078	-0.14331234
50	0xbd5833fe	-0.05278396
51	0xbf117e12	-0.56832993
52	0x3c8438cf	0.01614037
53	0x3ee43c4f	0.44577262
54	0xbee5172a	-0.44744235
55	0xbe5509d0	-0.20804524
56	0xbf05936a	-0.5217806
57	0x3ef2da21	0.47432044
58	0xbee56d94	-0.44810164
59	0xbea565d0	-0.3230424
60	0xbeaff545	-0.34366813
61	0xbe9e4171	-0.30909303
62	0xbe915e58	-0.2839229
63	0x3deba956	0.11506908
64	0xbf05ea62	-0.52310765
65	0x3ed3e115	0.4138266
66	0x3ef3368d	0.47502556
67	0xbec8fac8	-0.3925383
68	0xbdd71f84	-0.10504058
69	0xbe9f567a	-0.31120664
70	0xbecc7a87	-0.3993723
71	0xbe6e2586	-0.23256502
72	0x3eb644f3	0.3559948
73	0x3ec68a82	0.38777548
74	0xbdd418d4	-0.10356298
75	0xbd5c3ee5	-0.05377092
76	0x3f125bfd	0.5717161
77	0xbf10af05	-0.5651706
78	0x3ebec4a6	0.37259406
79	0x3db564bf	0.088571064
80	0x3f094807	0.5362553
81	0xbe6d3920	-0.23166323
82	0xbeaaa483	-0.33328637
83	0x3e8724db	0.26395306
84	0x3ee63029	0.44958618
85	0xbcc52fa2	-0.024070565
86	0x3e62e7d3	0.22158746
87	0xbe8f059e	-0.27933973
88	0xbe90bc9e	-0.28268903
89	0xbe3832d2	-0.17988136
90	0xbcc5a7fb	-0.02412795
91	0xbe7dc8fd	-0.24783702
92	0x3ea8e81e	0.3298959
93	0xbe5869af	-0.21134065
94	0xbeeccb61	-0.46248916
95	0x3eee120c	0.46498144
96	0xbec4534a	-0.38344795
97	0xbf11b7a6	-0.5692085
98	0xbe65920d	-0.22418995
99	0x3ba78a96	0.0051129563
100	0xbe8c340a	-0.27383453
101	0x3d1236e9	0.035696898
102	0xbe3e5f0e	-0.18590948
103	0x3dd7a4b4	0.105294615
104	0xbea1fd48	-0.3163855
105	0x3eac371b	0.33635792
106	0xbee36e66	-0.44420165
107	0xbdd6adb7	-0.10482352
108	0x3ea9e479	0.33182123
109	0xbeeb0250	-0.45900202
110	0x3dadb9c8	0.084827006
111	0xbc3a2b97	-0.011362932
112	0x3d24174a	0.040061273
113	0xbe857176	-0.26063126
114	0xbe39f822	-0.18161061
115	0xbe979a98	-0.29610133
116	0xbf06df92	-0.5268489
117	0x3eb49cf4	0.35275996
118	0xbee1d4e4	-0.44107735
119	0xbe3c60a4	-0.1839624
120	0x3e882d93	0.2659727
121	0x3c0aebd2	0.0084790755
122	0xbeb555b1	-0.3541694
123	0x3ed8c038	0.4233415
124	0x3f1588dd	0.5841196
125	0xbe713f7f	-0.23559378
126	0xbeac46ae	-0.33647674
127	0xbe6ad393	-0.22932272
128	0x3ef2243e	0.47293276
129	0xbe32ec2d	-0.17472906
130	0x3e969d98	0.2941711
131	0x3eaec421	0.3413401
132	0xbef78072	-0.48340183
133	0xbf109f8e	-0.5649346
134	0x3d10e7c9	0.035377298
135	0xbddfd9f3	-0.109302424
136	0x3e8c65e6	0.27421492
137	0x3e12de5e	0.14342639
138	0xbe504749	-0.20339693
139	0x3ef33f5b	0.47509274
140	0xbe38835e	-0.18018863
141	0x3e991efe	0.29906458
142	0x3ed9916b	0.42493758
143	0xbe9ee19f	-0.3103151
144	0xbea2780f	-0.31732222
145	0xbf0c978f	-0.5491876
146	0x3e25be2b	0.16185825
147	0xbe593bbb	-0.21214192
148	0xbe135b0e	-0.14390203
149	0x3dd7e270	0.105412364
150	0x3dffa795	0.124831356
151	0x3eb57b20	0.354455
152	0x3e19c52d	0.15016623
153	0xbf14f7d0	-0.5819063
154	0xbe8af68a	-0.2714122
155	0x3e45aef5	0.19305022
156	0x3f0272c9	0.509564
157	0xbe61e39b	-0.22059481
158	0x3f0380cb	0.513684
159	0x3edec740	0.4351139
160	0x3e9c3150	0.30506372
161	0x3e991ad1	0.29903272
162	0xbce2b279	-0.027672993
163	0x3e42beea	0.1901814
164	0x3bfb999d	0.0076782242
165	0x3eb786b5	0.3584496
166	0xbeaa4ed6	-0.33263272
167	0xbe597969	-0.2123772
168	0xbeb51985	-0.35371032
169	0x3e643b28	0.22288191
170	0xbdb2e309	-0.0873471
171	0x3c994364	0.018708892
172	0x3f08ad8f	0.5338983
173	0xbeffaf5e	-0.49938482
174	0xbe424e1a	-0.18975106
175	0xbe1a6919	-0.15079154
176	0x3ecc8898	0.39947963
177	0xbee6de5f	-0.4509153
178	0x3ed2b06a	0.41150218
179	0x3e7b932f	0.24567865
180	0x3e03f3eb	0.12886016
181	0x3ed611e7	0.41810533
182	0xbd781332	-0.06056518
183	0x3e9fd942	0.31220442
184	0x3e541cb9	0.20714082
185	0xbf0d83d4	-0.5527928
186	0xbd9f5095	-0.07779042
187	0xbf003e86	-0.50095403
188	0x3e7bd8e5	0.24594457
189	0xbe2b9d59	-0.16759242
190	0x3d950a95	0.07277409
191	0x3e62dd21	0.22154666
192	0xbeb54b39	-0.35408953
193	0x3ee59702	0.44841772
194	0xbe93a397	-0.28835747
195	0xbd9955c4	-0.074870616
196	0x3e7d49a6	0.24735126
197	0x3f01cf2b	0.5070674
198	0xbec519fa	-0.3849638
199	0x3e29bf4d	0.16576882
200	0x3eba9648	0.3644278
201	0x3e377169	0.17914356
202	0x3ed6cd3c	0.41953456
203	0xbeb76dc9	-0.35825947
204	0x3eefd516	0.4684226
205	0x3ef8341e	0.48477262
206	0x3e803287	0.2503855
207	0x3e691571	0.22762085
208	0xbed788dd	-0.42096606
209	0x3f014853	0.50500983
210	0xbefe0722	-0.49614817
211	0x3e62dcda	0.2215456
212	0xbef565a9	-0.47929123
213	0xbbfab207	-0.007650617
214	0x3d5eb027	0.05436721
215	0xbeddec1d	-0.43344203
216	0xbdf8289b	-0.1211712
217	0xbe8ab1ea	-0.27088863
218	0xbe5ce0f4	-0.21570188
219	0xbe397deb	-0.1811444
220	0xbf13b789	-0.5770193
221	0x3da6151b	0.08109494
222	0xbd28b1e5	-0.04118528
223	0xbe0a20f8	-0.13489139
224	0x3d5eb394	0.054370478
225	0x3ef52cb4	0.47885668
226	0x3ea9022a	0.33009464
227	0x3e01d831	0.12680127
228	0xbe49d95f	-0.19711827
229	0xbf0fe609	-0.5621038
230	0xbeab347b	-0.33438477
231	0x3e8b49ab	0.27204642
232	0x3ec2e7bd	0.38067427
233	0xbdbe740f	-0.0929948
234	0xbeec7277	-0.4618108
235	0x3e1650a6	0.14679202
236	0xbeef2e4c	-0.4671501
237	0xbedf812e	-0.43653244
238	0x3ec5e2d7	0.38649628
239	0x3e3c1dfa	0.1837081
240	0x3eb4e804	0.35333264
241	0xbeee4e1e	-0.46543974
242	0xbebd9ac6	-0.37032145
243	0x3e9b8286	0.3037302
244	0xbf0a7d2e	-0.5409726
245	0xbd4fcf56	-0.05073484
246	0xbec720c5	-0.3889219
247	0xbef5cfda	-0.4801014
248	0xbd6684c3	-0.056278955
249	0x3d49f209	0.04930309
250	0xbeea7d50	-0.4579873
251	0x3edade51	0.4274774
252	0xbe8b58ad	-0.27216092
253	0x3ea00e6c	0.31261003
254	0xbe054fb9	-0.13018693
255	0x3e7452b3	0.23859672

fc.bias f4 [2048]
0	0xbeeea4e5	-0.4661018
1	0xbe19a558	-0.1500448
2	0xbdf8a936	-0.121416494
3	0xbe791e0d	-0.2432787
4	0xbe4a59dd	-0.19760843
5	0xbde826fb	-0.1133556
6	0x3c9d3a8b	0.019192955
7	0x3d23a6d2	0.039954014
8	0x3ca3f6e7	0.020015193
9	0x3ea1d898	0.3161056
10	0x3edb82ff	0.4287338
11	0xbed8942f	-0.42300555
12	0xbeb1530b	-0.3463367
13	0x3e8446f3	0.2583538
14	0xbd995604	-0.07487109
15	0x3e6110bb	0.21979038
16	0xbeb08b0a	-0.34481078
17	0x3f09db64	0.5385039
18	0x3edb2642	0.42802626
19	0x3e8419bd	0.25800887
20	0x3f1834a2	0.5945531
21	0x3e984a47	0.2974417
22	0xbd97d2d3	-0.074132584
23	0x3dac7908	0.084215224
24	0x3eaca7fe	0.33721918
25	0xbefdae4c	-0.4954704
26	0xbebbea91	-0.36702397
27	0xbc97c2ec	-0.018525563
28	0x3e871abb	0.2638758
29	0x3e7edcfe	0.2488899
30	0x3e5e1451	0.21687438
31	0x3f10b4c9	0.56525856
32	0xbee6c319	-0.45070723
33	0xbf09a362	-0.5376493
34	0xbec6ce8a	-0.38829452
35	0xbee30a63	-0.44343862
36	0x3e02fe72	0.12792376
37	0xbeccd80e	-0.40008587
38	0x3ebfc65d	0.37456027
39	0xbecffc01	-0.4062195
40	0x3e659068	0.22418368
41	0x3ef7f961	0.48432449
42	0x3e8743e1	0.26418975
43	0xbe2c76bb	-0.16842167
44	0x3e5465d5	0.20741971
45	0xbef06014	-0.46948302
46	0x3e4b4958	0.19852197
47	0xbef643c1	-0.48098567
48	0xbe53f833	-0.20700149
49	0xbec6c4a2	-0.38821894
50	0xbe5bc6be	-0.21462533
51	0x3ea4b202	0.3216706
52	0x3f0594ef	0.5218038
53	0x3b103902	0.0022006636
54	0xbd9f0b7b	-0.077658616
55	0x3ed043df	0.40676782
56	0xbe0d0b70	-0.13773894
57	0x3f19ecd9	0.60127026
58	0x3e5b0b62	0.21391061
59	0x3f09e599	0.53865963
60	0x3e4543ec	0.19264191
61	0xbee6b12b	-0.45057043
62	0x3ef3e076	0.47632188
63	0xbedc3895	-0.4301192
64	0xbe86c9b5	-0.26325765
65	0xbeb18707	-0.3467333
66	0xbe70af8a	-0.23504463
67	0xbea3c13a	-0.31983358
68	0x3e657383	0.22407345
69	0xbe2d0cec	-0.1689946
70	0x3eb6a48b	0.3567241
71	0x3f07efac	0.53100085
72	0xbef919e3	-0.48652562
73	0xbee97a8d	-0.4560131
74	0xbe3a6767	-0.18203507
75	0xbed33a75	-0.41255537
76	0xbe242914	-0.16031295
77	0x3ee8742e	0.45401138
78	0x3ee5d365	0.44887844
79	0x3df575ae	0.11985336
80	0x3e6e38b1	0.23263814
81	0x3e830580	0.25590134
82	0xbe67cf57	-0.22637688
83	0xbea53e05	-0.3227388
84	0x3df48892	0.11940111
85	0xbe800764	-0.2500564
86	0xbe9f8d61	-0.3116255
87	0xbe92bf00	-0.28661346
88	0xbd749e87	-0.059721496
89	0x3eae50d2	0.34046036
90	0xbd85f519	-0.06540889
91	0x3f0bb886	0.54578435
92	0xbeefc705	-0.46831527
93	0xbe959993	-0.2921873
94	0xbf0c345c	-0.54767394
95	0x3edf4cfa	0.43613416
96	0xbe8732a6	-0.2640583
97	0xbd15ebd0	-0.03660184
98	0xbe317979	-0.17331494
99	0x3e4b9e3a	0.19884577
100	0xbee18f14	-0.44054472
101	0x3e577f4c	0.21044654
102	0xbe936bcf	-0.2879319
103	0x3ea27e31	0.317369
104	0x3f07fa19	0.53115994
105	0xbf098d39	-0.53731114
106	0x3ed736f5	0.42034116
107	0x3ea0ad94	0.3138243
108	0x3ecf70ac	0.4051565
109	0xbc60bc4b	-0.013716768
110	0x3da8e3a4	0.08246544
111	0x3efb2917	0.49054787
112	0xbdbdb418	-0.09262866
113	0x3eb9e70b	0.36309084
114	0x3edd67b7	0.4324319
115	0xbe1ee400	-0.15516663
116	0xbe0b985f	-0.13632344
117	0xba5863be	-0.0008254609
118	0xbe063afa	-0.13108435
119	0x3e97ec5c	0.29672515
120	0xbebd9a1b	-0.37031636
121	0xbb7b692e	-0.0038362253
122	0x3eaeba38	0.3412645
123	0xbf07d116	-0.53053415
124	0xbea84b16	-0.32869786
125	0x3ecfaf24	0.4056331
126	0xbf155df4	-0.58346486
127	0xbdf35898	-0.11882132
128	0x3e1612fd	0.14655681
129	0xbebde714	-0.3709036
130	0xbeaea49e	-0.34109968
131	0x3ecac6a0	0.39604664
132	0x3e9a7842	0.30169874
133	0x3ecb7648	0.3973868
134	0x3e19931f	0.14997528
135	0xbdc1e0ed	-0.09466729
136	0x3d087fed	0.033325125
137	0x3e54641a	0.2074131
138	0x3d957147	0.072969966
139	0xbb06dd4e	-0.0020578685
140	0x3ea8c4cc	0.32962644
141	0x3da13d74	0.078730494
142	0xbe7bcbfd	-0.24589534
143	0x3d5448c0	0.051827192
144	0xbedd4df7	-0.43223545
145	0xbd9c7be6	-0.07640819
146	0x3ed44fe8	0.41467214
147	0xbf01be84	-0.5068133
148	0x3d554248	0.052065164
149	0xbe941e37	-0.28929302
150	0x3d11e6a6	0.035620354
151	0xbe74f2be	-0.23920724
152	0x3ed86801	0.4226685
153	0xbf0f07fc	-0.5587156
154	0xbe485ab6	-0.19565853
155	0x3ed71e29	0.42015198
156	0x3dfd3097	0.123627834
157	0x3edca44c	0.430941
158	0xbec9bca2	-0.39401728
159	0xbefab876	-0.48968858
160	0xbe7d402e	-0.24731514
161	0xbe4f80a4	-0.20263916
162	0xbec542af	-0.38527438
163	0x3d1fbcb8	0.038998336
164	0xbe80f1ce	-0.25184482
165	0xbda64e43	-0.08120396
166	0xbefff3fc	-0.49990833
167	0xbeca1618	-0.3946998
168	0xbef30fbb	-0.4747294
169	0xbe2115b9	-0.15730943
170	0x3b60cee6	0.0034303009
171	0xbd9701ee	-0.07373415
172	0xbe9228ef	-0.28546855
173	0x3f0105f0	0.50399685
174	0x3e6a99cd	0.22910233
175	0xbe83d013	-0.25744686
176	0x3dc4e658	0.09614247
177	0x3e946d91	0.28989843
178	0x3ebb8aef	0.36629435
179	0x3bfa7185	0.007642927
180	0xbdb39f8a	-0.08770664
181	0x3e4df452	0.20112732
182	0xbee7f1cf	-0.45301673
183	0x3e02e68e	0.12783262
184	0xbe671eeb	-0.22570388
185	0xbe299ea0	-0.16564417
186	0x3ecb88d3	0.39752826
187	0xbc6f84ad	-0.014619035
188	0x3d144442	0.03619791
189	0xbe4ad133	-0.19806366
190	0xbed450cd	-0.41467896
191	0xbefd83b3	-0.4951454
192	0xbf031bbb	-0.5121419
193	0xbee4ca6c	-0.44685686
194	0x3e8472f6	0.25868958
195	0xbde95552	-0.11393227
196	0x3e9f890c	0.31159246
197	0x3ed35a0a	0.41279632
198	0xbe8d67ac	-0.27618158
199	0x3ecaab76	0.3958394
200	0xbf07d77a	-0.53063166
201	0x3ea10b35	0.31453863
202	0xbe4b9ae1	-0.198833
203	0xbf1ede6b	-0.6205813
204	0x3e86cf7d	0.26330176
205	0xbea1a183	-0.31568536
206	0xbeb90f45	-0.36144462
207	0x3ed1590d	0.40888253
208	0x3f14d213	0.5813305
209	0x3ef30e88	0.47472024
210	0xbdb4be1d	-0.08825324
211	0xbeb9a4c9	-0.36258534
212	0xbebdcb82	-0.37069327
213	0x3db48133	0.08813705
214	0xbea39055	-0.31946054
215	0x3f0d3b95	0.5516904
216	0x3f03a8e5	0.5142959
217	0x3b67777b	0.0035319019
218	0x3dbc86de	0.092054114
219	0x3e675a84	0.22593123
220	0xbe2c78b9	-0.16842927
221	0x3daedd09	0.08538253
222	0x3e0d087e	0.13772771
223	0xbe21db9e	-0.15806434
224	0xbe70b186	-0.2350522
225	0xbe636938	-0.22208107
226	0xbe403858	-0.18771493
227	0xbe5c9315	-0.21540482
228	0x3dc354f4	0.09537688
229	0x3ebd025e	0.3691587
230	0xbe83fe1b	-0.25779805
231	0x3ee89645	0.45427147
232	0xbe1e69ca	-0.15470043
233	0xbeb079e8	-0.34468007
234	0x3e9ad24c	0.3023857
235	0xbe1739e4	-0.14768177
236	0xbec4b90e	-0.38422436
237	0xbdf18bac	-0.117942184
238	0xbcd39729	-0.025828915
239	0xbe8b00a7	-0.27148935
240	0x3e3ccaa5	0.18436678
241	0xbe86e201	-0.26344302
242	0xba8233ee	-0.0009933689
243	0xbde1a83b	-0.110184155
244	0xbe04dbf3	-0.12974529
245	0xbee70903	-0.45124063
246	0xbee04df9	-0.43809488
247	0xbd33c033	-0.043884467
248	0xbed65603	-0.41862497
249	0x3dbb3f2c	0.091429085
250	0x3deb52a0	0.11490369
251	0x3ecf0a8a	0.40437728
252	0xbf07ba29	-0.5301843
253	0xbe0f40ed	-0.13989611
254	0xbda03473	-0.07822504
255	0x3e0c47d0	0.1369927

conv2.weight f4 [32, 16, 4]
0	0x3d51bd1f	0.05120575
1	0xbdb0b84b	-0.08628901
2	0x3d0b7e6d	0.034056116
3	0xbd9fde69	-0.07806093
4	0x3d80cd71	0.06289185
5	0xbd6d136c	-0.05787985
6	0xbd9f7154	-0.077852875
7	0xbd406259	-0.04696879
8	0xbd0adb25	-0.0339004
9	0x3cfadcaf	0.030622808
10	0xbe0cae79	-0.13738431
11	0xbd855f2a	-0.06512292
12	0x3b6991dd	0.003563992
13	0xbdcd2a16	-0.10017793
14	0xbdbe3f00	-0.0928936
15	0xbc591894	-0.013250489
16	0x3d90c861	0.07069469
17	0x3c7aa40a	0.015297899
18	0x3dd3628e	0.10321532
19	0x3c1b8828	0.009492911
20	0x3da8c54a	0.08240755
21	0x3d46e289	0.048555885
22	0x3dc7d98f	0.09758293
23	0x3d07d6d3	0.033163857
24	0x3d49eebd	0.049299944
25	0x3d4ba6a7	0.04971948
26	0xbdc455c3	-0.0958667
27	0x3c89a86f	0.016803948
28	0xbdcf3d91	-0.10119165
29	0xbc25a6bd	-0.010110554
30	0x3e01be7e	0.12670323
31	0x3de0851d	0.10962889
32	0xbd849721	-0.06474138
33	0xbd13084d	-0.035896588
34	0x3dc8e8a3	0.09809997
35	0xbd3143b1	-0.043277446
36	0x3cbcf7df	0.023067413
37	0xbcdccd5b	-0.02695339
38	0x3d8f66b8	0.07002014
39	0x3d30d1db	0.043168884
40	0xbe4fdbf4	-0.20298749
41	0xbcd7fdf0	-0.026366204
42	0x3d7f76fb	0.062369328
43	0xbd012487	-0.031528976
44	0xbd71bbba	-0.05901692
45	0xbdca8a83	-0.098897
46	0x3dc4df0d	0.09612856
47	0xbda22d62	-0.07918812
48	0x3d2ceb04	0.042216316
49	0xbd0d07f3	-0.03443141
50	0xbd876936	-0.06611864
51	0x3d75b93b	0.059991103
52	0xbd91a001	-0.071105964
53	0xbd2fee82	-0.04295207
54	0xbdd47723	-0.10374286
55	0xbdbae8df	-0.09126448
56	0xbb1b5211	-0.0023700038
57	0xbdc717b9	-0.097213216
58	0x3d7bbf69	0.06146184
59	0xbe0a8364	-0.13526684
60	0xbdc405b0	-0.09571397
61	0xbdae4acd	-0.08510361
62	0x3b41200d	0.0029468567
63	0x3cb05668	0.021525577
64	0xbdb65cb4	-0.089044005
65	0x3b9d9be1	0.004809842
66	0x3dc1784c	0.09446773
67	0xbbb678ed	-0.0055686147
68	0xbc31f3d7	-0.010861359
69	0x3cfaeb3a	0.030629743
70	0x3d55d55b	0.052205425
71	0x3cd97ae8	0.026547864
72	0x3d872084	0.06597999
73	0x3dc83e6f	0.09777533
74	0xbdb65965	-0.089037694
75	0xbdf7c16c	-0.12097439
76	0x3d93b1ab	0.07211622
77	0xbd32ed9f	-0.043683644
78	0xbd40d047	-0.04707363
79	0x3db5ecdc	0.08883068
80	0xbcbf8f1b	-0.023383668
81	0xbd6d2e96	-0.057905756
82	0x3d8b997b	0.068163835
83	0x3d5af94f	0.053460415
84	0x3d10f67b	0.035391312
85	0xbda7db2b	-0.081961
86	0xbcdeed9f	-0.027212916
87	0x3d8b0a55	0.0678908
88	0xbc6ccbda	-0.014452899
89	0x3d3111b3	0.04322977
90	0x3d563184	0.052293316
91	0x3daf3dab	0.08556684
92	0xbdaf5d92	-0.08562769
93	0x3d26c470	0.04071468
94	0x3d6f0c0f	0.05836111
95	0xbc876066	-0.016525459
96	0xbdb8f604	-0.09031299
97	0xbd89f1f6	-0.067356035
98	0xbdaf3674	-0.08555308
99	0x3d796c84	0.060894504
100	0x3d81ea55	0.063435234
101	0xbdc0dbd2	-0.094169274
102	0x3ceba6bf	0.028766034
103	0xbd971c61	-0.0737846
104	0x3caaa555	0.02083079
105	0xbd9b1737	-0.07572787
106	0x3d8862c6	0.066594645
107	0x3d013867	0.03154793
108	0x3d9e649a	0.07734032
109	0xbde5afc6	-0.11215167
110	0xbc89e87e	-0.016834494
111	0x3da1bd91	0.07897485
112	0xbde7315c	-0.112887114
113	0xbd4c1b24	-0.04983057
114	0x3defa885	0.117020644
115	0x3d4b7d55	0.049680073
116	0x3cdbf5a6	0.026850533
117	0xbbaa46bc	-0.0051964205
118	0x3d8f7dab	0.07006391
119	0x3d78608e	0.060638957
120	0xbd88daf0	-0.06682384
121	0x3d7f29aa	0.062295593
122	0xbcf14a95	-0.029454509
123	0x3d9fbda1	0.07799841
124	0xbd4dd59f	-0.050252553
125	0xbd945693	-0.07243075
126	0x3d92a132	0.07159652
127	0xbd96e2b5	-0.0736746
128	0xbd6d1c37	-0.057888236
129	0x3cfdf78c	0.031001829
130	0x3d7d84e0	0.061894298
131	0x3d35de4c	0.044401452
132	0xbd100431	-0.035160247
133	0xbd936142	-0.07196285
134	0xbc74ac50	-0.014933661
135	0x3d3879a0	0.045037866
136	0xbd04f64a	-0.032461442
137	0x3db88cdd	0.090112425
138	0x3de6ccda	0.11269541
139	0x3c09833a	0.008393103
140	0x3d1520a3	0.036408078
141	0x3d8f5a98	0.06999701
142	0x3d4c2d6d	0.04984801
143	0xbc438949	-0.011934587
144	0x3e0b81af	0.13623689
145	0x3d8d03e4	0.06885508
146	0xbd406f5e	-0.046981208
147	0xbd9cc273	-0.07654276
148	0x3d16c08c	0.03680472
149	0xbd3b5c26	-0.045742176
150	0xbd9150e6	-0.07095508
151	0x3b95f7b9	0.00457665
152	0xbce1a438	-0.027544126
153	0xbd83b2d8	-0.06430596
154	0x3d743c18	0.059627622
155	0x3d94e1d1	0.072696336
156	0x3da851f0	0.08218753
157	0xbd8d9c7a	-0.06914611
158	0xbc12c97c	-0.00895917
159	0xbd1bf889	-0.03807882
160	0x3d25ff67	0.040526774
161	0x3da28ba8	0.079367936
162	0x3c0eb0e6	0.008709168
163	0x3db0fba0	0.08641744
164	0x3da82421	0.08210016
165	0xbc02355c	-0.007947292
166	0x3d360149	0.04443482
167	0x3cee5ce3	0.029097026
168	0xbd9f8124	-0.077883035
169	0xbdbcc6df	-0.09217619
170	0xbdd5fbd7	-0.10448425
171	0x3c99f522	0.018793646
172	0xbe10987c	-0.14120668
173	0xbcafdcbb	-0.021467557
174	0x3c75aec8	0.014995284
175	0x3d96976f	0.073531024
176	0xbded1ba2	-0.11577536
177	0x3dcbeea2	0.09957625
178	0x3d7cf477	0.061756577
179	0xbda2d8c8	-0.07951504
180	0x3c3c1c56	0.011481365
181	0xbd01e7e8	-0.031715304
182	0x3ca03d43	0.019560462
183	0xbd8ec4e9	-0.069711514
184	0xbb962fe9	-0.004583348
185	0x3dceeb89	0.101035185
186	0xbd7fdac9	-0.06246451
187	0x3c20cdbb	0.009814675
188	0x3dc7ea4a	0.09761484
189	0xbd1ab0a2	-0.037766106
190	0x3de61cd7	0.112359695
191	0xbd9ada85	-0.075612105
192	0xbda16802	-0.07881166
193	0x3db5ddf6	0.08880226
194	0x3dcf26e7	0.10114842
195	0xbdcbd79b	-0.09953233
196	0xbc7f832f	-0.015595241
197	0x3d678269	0.056520853
198	0xbd8bc70a	-0.06825073
199	0xbbce8c3c	-0.0063033383
200	0x3b0cd4d9	0.0021489172
201	0x3c87f7ca	0.016597647
202	0xbd125f56	-0.03573545
203	0xbca4d54a	-0.020121235
204	0x3cef1467	0.029184533
205	0xbe01417d	-0.12622638
206	0x3d090b2f	0.03345793
207	0x3d40bbfa	0.04705427
208	0xbd94329f	-0.07236218
209	0x3de04258	0.10950154
210	0xbda2df53	-0.07952752
211	0x3c96b1ef	0.018395392
212	0xbd2be384	-0.041965023
213	0xbcd4d227	-0.025979115
214	0xbd52417f	-0.051331993
215	0xbd2ce55f	-0.042210933
216	0xbc2e3403	-0.010632518
217	0xbd956215	-0.07294098
218	0x3d96b0d8	0.07357949
219	0x3cbc57d2	0.022991095
220	0x3d49eea9	0.04929987
221	0xbd9cb410	-0.07651532
222	0xbd8db1ab	-0.06918653
223	0xbc85f38a	-0.01635148
224	0x3dc5b713	0.09654059
225	0xbdb79792	-0.089644566
226	0x3dbe09e0	0.09279227
227	0xbcbc8e39	-0.023017036
228	0x3d0e04fb	0.03467272
229	0x3dd7cc76	0.10537045
230	0x3d77d2ec	0.060503885
231	0xbd3247ec	-0.04352562
232	0xbd17946d	-0.037006784
233	0xbdb3c692	-0.08778109
234	0x3e02fc36	0.12791523
235	0x3ccb4105	0.024811277
236	0xbe015369	-0.12629475
237	0xbd4c9a84	-0.049952045
238	0xbd45aacc	-0.048258588
239	0xbc945a9e	-0.018109616
240	0x3d7255af	0.059163745
241	0x3dde6bef	0.108604304
242	0x3d1dc520	0.03851807
243	0xbcc78bda	-0.024358679
244	0x3ca16710	0.019702464
245	0x3d9ca3b1	0.07648409
246	0xbb90eb38	-0.0044225715
247	0xbd7fceaa	-0.06245295
248	0x3d5af9ab	0.05346076
249	0xbdc913d3	-0.09818234
250	0x3d5969ed	0.053079534
251	0xbd3babb3	-0.045818042
252	0xbccf3a58	-0.025296375
253	0x3d769f6f	0.06021064
254	0x3d3cff7c	0.046142086
255	0x3dcb336c	0.09921917

conv2.bias f4 [16]
0	0xbdaebef0	-0.08532512
1	0xbd97cb4a	-0.07411821
2	0xbe1e455c	-0.15456146
3	0x3c0b9abe	0.00852078
4	0x3c7439c5	0.014906351
5	0x3c3dd4bc	0.011586364
6	0x3dbd93d4	0.092567116
7	0x3c289bf7	0.010291091
8	0x3daa5cef	0.08318507
9	0x3dbe4a11	0.09291471
10	0xbdcfa143	-0.1013818
11	0xbddf61ca	-0.10907324
12	0xb9d29f7f	-0.00040173155
13	0xbdad011a	-0.08447476
14	0xbdb69552	-0.08915199
15	0xbd23ce81	-0.03999186

conv1.weight f4 [16, 1, 4]
0	0xbe8a44f2	-0.27005726
1	0x3d4bbcc3	0.049740564
2	0xbea661eb	-0.3249658
3	0x3ed7888f	0.42096373
4	0xbedce2f6	-0.43141907
5	0x3eb4057f	0.35160443
6	0xbe1ae2f3	-0.15125637
7	0xbf028b0c	-0.5099342
8	0xbe59fa4f	-0.21286891
9	0x3e49f73e	0.19723222
10	0xbd7ef5dc	-0.06224619
11	0xbeaea3db	-0.34109387
12	0x3db62b7a	0.08895011
13	0x3de1b8a0	0.110215425
14	0x3ecbebae	0.39828247
15	0xbed43b12	-0.41451317
16	0x3ed1e762	0.40996844
17	0xbe32cc91	-0.17460848
18	0xbca12508	-0.019670978
19	0x3e633251	0.22187163
20	0xbcbccdc4	-0.023047335
21	0xbe9c5391	-0.30532506
22	0x3e80bbfe	0.25143427
23	0xbeb2ea66	-0.34944457
24	0xbe8164f4	-0.25272334
25	0x3e78bd37	0.2429093
26	0xbed7f6a9	-0.42180374
27	0x3eefb4fc	0.46817768
28	0xbd16bb1a	-0.036799528
29	0x3e8b3541	0.27189067
30	0x3d7df4b7	0.062000956
31	0xbe447183	-0.19183926
32	0xbdc96f9c	-0.09835741
33	0xbd1a1100	-0.03761387
34	0xbed7dbab	-0.4215978
35	0xbd6a604e	-0.05722075
36	0xbdb3dc9f	-0.087823145
37	0x3eed5ce7	0.4635994
38	0x3e88d0c4	0.26721776
39	0x3eb3ec94	0.35141432
40	0xbec67451	-0.38760617
41	0xbeab9c34	-0.3351761
42	0xbe3ed837	-0.18637167
43	0xb904e708	-0.00012674567
44	0x3dddcee0	0.10830474
45	0xbcf5a534	-0.029986002
46	0xbe0a4f46	-0.13506803
47	0xbe999721	-0.29998115
48	0xbee233af	-0.44180056
49	0xbedcfa2d	-0.4315962
50	0x3e9f211e	0.31079954
51	0xbe93013b	-0.28711876
52	0xbe8def0f	-0.2772145
53	0x3e98ec40	0.29867744
54	0xbeb59e91	-0.3547254
55	0xbe04c763	-0.12966685
56	0x3e74ce6e	0.23906872
57	0x3e5a0d9a	0.21294251
58	0x3efb4419	0.49075392
59	0x3ddbf0e4	0.107393056
60	0x3d864d4d	0.06557713
61	0xbeca9a5d	-0.39570895
62	0x3e2d6f54	0.16937
63	0xbe464503	-0.19362263
