variational_autoencoder/torch_vae_models/torch_vae_model_1500.pth (torch, 423435 bytes, 13 tensors)

encoder.conv1.weight f4 [16, 1, 4]
00000000: 7961 1dbd 70f4 773e 6d4b 463e 8ce0 d63e
00000010: b2c6 953e 1a0f 0fbe 855f 873e f481 483e
00000020: bedd e83e fa72 263d c8b0 a1be 3e51 65be
00000030: e8da 0abf aab7 1f3e dfc9 84bd 4f5b a93e
00000040: b150 d2bd 09a6 9a3e 507f 5bbe ec95 a1bd
00000050: 7bd0 24bf f20c 73bd c43f 55bf 117b efbe
00000060: bbfe 8c88 288f c389 475f 780a b0d8 8189
00000070: de48 5d3e d039 c13c dcfd 48be e112 8f3e
00000080: 6c21 52be 75d9 6bbd e791 cfbe 6f32 f7bd
00000090: 3700 80bc 2a00 80bc 1e00 80bc 0900 80bc
000000a0: 8051 7ebe 7b3f f2bd df22 16be 434b cdbb
000000b0: 9c8b 093f b536 ae3e f38c 29bd 2ad6 ff3e
000000c0: 0eac 193e b4c5 09be e102 6fbd 4622 76bc
000000d0: 7082 8d3e 4c99 4c3d 74fb 42be dcce f23e
000000e0: 8f14 b13e dc93 89be 1659 5ebe 5684 533d
000000f0: 3be6 df3e 18df 0a3e be7b e9bd ffa6 bcbe
-0.038423035 0.2421434 0.1936471 0.4196819 0.29253155 -0.13970605 0.26440063 0.19580823
0.45481676 0.040636994 -0.31580186 -0.22394273 -0.54240274 0.15597406 -0.06483816 0.33077475
-0.10269297 0.302048 -0.21435285 -0.078899235 -0.64380616 -0.059338517 -0.83300424 -0.4677358
-8.48583e-34 -4.7079166e-33 1.1958685e-32 -3.1259392e-33 0.21609828 0.023587137 -0.1962809 0.2794409
-0.20520562 -0.05758043 -0.40541002 -0.12070166 -0.015625102 -0.015625078 -0.015625056 -0.015625017
-0.24835777 -0.11828514 -0.1466174 -0.0062650754 0.5372865 0.34026113 -0.041394185 0.49968082
0.1500704 -0.13454324 -0.058352355 -0.01502282 0.27638578 0.049950883 -0.19041234 0.47423446
0.34585997 -0.2687062 -0.21713671 0.051639877 0.4373034 0.13561666 -0.11400555 -0.36846158

encoder.conv1.bias f4 [16]
00000000: 609c 3d3e 2faf b63e e92a 443d c021 413e
00000010: e2ab b039 7c19 003e e925 89af 9a39 c23e
00000020: 87fc 143e cb02 80bc 46ca dfbb 6b42 d1be
00000030: 7216 ebbd 326c b53d def2 ce3c 35e8 37bb
0.18516684 0.3568053 0.047892485 0.18860531 0.000336974 0.12509722 -2.4947092e-10 0.37934572
0.14549457 -0.015626332 -0.006829533 -0.40870985 -0.114788905 0.08858527 0.025262292 -0.002806199

encoder.conv2.weight f4 [32, 16, 4]
00000000: 55d0 47bb 741b 4ebb 9cd7 4abb 0776 46bb
00000010: d5b4 0fba 7881 95bb fb1f 95bb 5410 94bb
00000020: 5f27 e4bb 6c90 31bc 3be2 d1bb 39d5 34bc
00000030: dc7f 6ebb 22d3 f6bb 7846 8cbb 65c9 68bb
00000040: 3bb5 1cbc 2341 14bc 71d2 2dbc ec74 15bc
00000050: 8842 0ebc 6b69 0dbc ec17 0dbc 2a3d 0abc
00000060: 97a7 0f00 c4ca 0e80 daa3 1500 0d21 1380
00000070: 54cc 9cba 88fa a9bb 94d8 a9bb 6187 a9bb
00000080: bd2b 3cbc 63b1 1abc 2988 1abc a38c 39bc
00000090: 710a 0c80 4b19 0600 b6d6 0e00 ce0d 0e00
000000a0: 3af7 1000 b631 0f00 3666 1580 f895 1300
000000b0: 6635 8b3b d0c8 953b 5f68 8d3b 0d30 9b3b
000000c0: c4ec 0780 dc6d 1400 3688 0e80 7adc 1200
000000d0: cdb5 1cbb c415 26bb 4c74 1fbb 291b 20bb
000000e0: 9225 a1bb a024 32bc a7b9 32bc 65b0 32bc
000000f0: 8c53 66bc bd2d 86bc 7591 86bc f4ec 95bc
00000100: dbe2 dd3c 6d2c ec3d 73c9 8d3d ca46 4ebd
00000110: 3aae eebd 9cc0 523d f5d3 f33c 9313 b73c
00000120: d9e1 26bd f4f7 f03b f21c e93d a80d d03d
00000130: 0a61 4fbc 074c e43d 55bc 49bd 9101 013e
00000140: cd95 5e3e 8adf d43d 337d 7a3d 4d58 0c3d
00000150: 919c 2cbe 93e0 a4be 5a1c 3bbe 0d90 46be
00000160: b939 543b 8f02 283b 2669 7c3b 8a49 253b
00000170: b515 9f3d 5c21 f23d 1b08 8f3d 31dd 6fbc
00000180: 4358 afbd 0501 72bb 8410 343d 76fb e73c
00000190: c428 9219 e080 8119 22e7 2819 fa54 431d
000001a0: 4111 bd03 63c3 9c04 1626 64b5 c313 153c
000001b0: ddc6 52be 5783 15be 9690 463b 0e9d 393d
000001c0: a16a 833c d43e 1400 091d 9737 f21b 1200
000001d0: 04c9 86bd 4259 c5bd 310f 923d 00d1 ab3d
000001e0: d700 f3bd 0b6b 2abc 3383 c9bc a662 bd39
000001f0: fa03 77bd 3775 44bc 9210 b93d 2e04 cdbb
00000200: e2b1 3f3d b14c 2c3d fdd1 d8bb 9c25 ff3d
00000210: 634f e93d 14df d63d 1f75 683d 9c1a a63d
00000220: 5080 7b3d 853c aa3c ed7b e9bd 6a2c bd3d
00000230: f8cd a3bc 7a53 e9bd da3c 34bc 33a6 ddbd
00000240: d04c fa3c 6b52 c33d ea6e 6d3d 7361 163d
00000250: c33f 42be be17 9cbe ef86 9fbe efce 8abe
00000260: 6638 923b 9512 8b3b a518 983b 361b 853b
00000270: ee1c b13d 14c9 fb3d 9b95 eabd 5f5c 683d
00000280: e9d4 7cbd 86fa 14be ea43 1d3d 09fb 9fbd
00000290: 6958 5a31 310b c831 906f c231 a01e af31
000002a0: c2f2 ffba f217 afbc bdd6 38bd bc65 28bb
000002b0: 20cd 8fbd 5eca 213d 2c78 d8bd 03e8 7d3d
000002c0: 42b1 753c 587b 0700 aa08 81ad b493 0500
000002d0: 0e21 613d 9a46 34bc 7ceb d2bd d576 093d
000002e0: 455a 25be 65cc 12be d063 00be ccde 833d
000002f0: 6b23 c1bd 7ca8 853d 1fb2 1bbd c84a e7bd
00000300: 5be2 c6bd fe4c aa3d 4596 96bd 7eab 03be
00000310: bd1e f23b 2699 433d 35b7 623d 003c ac3d
00000320: 3b26 37bd 59bb a2bd 1b2b b9bd 4822 bbbd
00000330: 665f 31bd 3b35 36bd c858 cbbd 7d14 f6b9
00000340: aecd 573d 6f44 8c3d 0348 473d 7e4b a6bc
00000350: 2b14 d6bd 8adf 87be cbfe 58be 4432 eebd
00000360: ef58 8a3b a189 7c3b 63a7 963b d2cf 703b
00000370: f674 153d f4d8 b43d 6b98 5e3c 7d38 1bbd
00000380: d3db c53d 50bc 0d3c 9c98 dcbd 0872 a5bd
00000390: 7e37 3c2d 7f95 132c 009c e12b 7f5d 562c
000003a0: eecc bfbb 55f9 31ba 10ca 3607 dd23 8f3b
000003b0: 06d9 833c 1465 813d 877c 3fbd 8760 523d
000003c0: 8b37 93ab d863 0600 fafa 80bc cfa0 1000
000003d0: 07fc a6bc 6cb6 f63c 3bd0 043d 3f45 3cbd
000003e0: b136 2abe e8e1 373c 0ee5 07be 1a7a 89bd
000003f0: a670 39be 4be0 d93b 5f15 d3bd fbb1 adbc
-0.0030489166 -0.0031449469 -0.0030951267 -0.0030282752 -0.0005481963 -0.004562553 -0.0045509315 -0.004518548
-0.006962701 -0.0108376555 -0.0064051426 -0.011037164 -0.0036392128 -0.007532493 -0.0042808615 -0.003552043
-0.009564693 -0.009048733 -0.010609255 -0.009122115 -0.0086828545 -0.008631091 -0.00861166 -0.008437434
1.437652e-39 -1.358436e-39 1.987324e-39 -1.756731e-39 -0.001196275 -0.0051873364 -0.005183289 -0.005173609
-0.011485037 -0.009441706 -0.009431877 -0.011325034 -1.105772e-39 5.60086e-40 1.362721e-39 1.290649e-39
1.558056e-39 1.395365e-39 -1.965212e-39 1.798673e-39 0.004248309 0.004571058 0.0043154205 0.0047359527
-7.27784e-40 1.87612e-39 -1.33456e-39 1.732131e-39 -0.0023912073 -0.0025342563 -0.0024330793 -0.0024430251
-0.004917809 -0.01087299 -0.010908521 -0.010906314 -0.014058005 -0.016379232 -0.016426781 -0.018301465
0.027085712 0.11531911 0.06923189 -0.05036048 -0.11654325 0.051453218 0.029764155 0.0223482
-0.04074273 0.007353777 0.11382474 0.10158855 -0.012657413 0.111473136 -0.049251873 0.12598254
0.21736832 0.10394199 0.061154556 0.034263898 -0.168566 -0.32202587 -0.18272534 -0.19390889
0.0032383038 0.002563629 0.0038514822 0.0025220835 0.07767812 0.11822769 0.06983968 -0.0146401385
-0.085617565 -0.0036926877 0.043961063 0.028318148 1.5112511e-23 1.339034e-23 8.732073e-24 2.5851967e-21
1.1112383e-36 3.6854858e-36 -8.499204e-07 0.00909895 -0.20583673 -0.14600883 0.0030298582 0.045315795
0.016042056 1.859248e-39 1.8014123e-05 1.663064e-39 -0.065813094 -0.09636165 0.07131804 0.08389473
-0.118653946 -0.010401498 -0.024598693 0.00036122388 -0.060306527 -0.011990837 0.09036364 -0.006256602
0.0468005 0.042065326 -0.0066168294 0.12458345 0.11392095 0.104917675 0.05675232 0.08110544
0.061401665 0.020780811 -0.1140059 0.09236987 -0.019995674 -0.11392875 -0.011000836 -0.108227156
0.030554205 0.09537204 0.057967104 0.03671403 -0.18969636 -0.30486864 -0.31157634 -0.27111003
0.0044622896 0.0042441585 0.0046416097 0.0040620817 0.08648096 0.12294212 -0.11454316 0.056728717
-0.061726484 -0.14548692 0.038394846 -0.07811553 3.177343e-09 5.8220384e-09 5.6588263e-09 5.096652e-09
-0.0019527304 -0.021373723 -0.045126665 -0.0025695404 -0.07021546 0.039499633 -0.10569796 0.06198884
0.014995875 6.87096e-40 -1.466945e-11 5.12163e-40 0.054963164 -0.011003161 -0.10298821 0.033560593
-0.16147716 -0.14335783 -0.12538075 0.064389795 -0.094305836 0.065262765 -0.038011666 -0.1129356
-0.09711143 0.08315466 -0.073528804 -0.12858388 0.007388918 0.047753476 0.0553505 0.084098816
-0.044714194 -0.0794589 -0.09041425 -0.09137398 -0.04330387 -0.04448436 -0.09929043 -0.0004693604
0.052686386 0.0684899 0.04865266 -0.02029967 -0.104530655 -0.26537734 -0.21190946 -0.11630681
0.0042220275 0.0038534182 0.004597591 0.0036744964 0.036488496 0.08830443 0.013586144 -0.03789567
0.09661069 0.008650854 -0.107712954 -0.0807839 1.06988845e-11 2.0972943e-12 1.603051e-12 3.046313e-12
-0.005853287 -0.00067891675 1.3751539e-34 0.004368289 0.016094696 0.06318107 -0.046749618 0.051361587
-1.0460394e-12 5.8683e-40 -0.015744675 1.527055e-39 -0.020383848 0.030116282 0.032425147 -0.045964476
-0.16622426 0.011223294 -0.13270971 -0.06712742 -0.18109378 0.0066490523 -0.103068106 -0.021203032

encoder.conv2.bias f4 [32]
00000000: f4a4 23bb fa6e 7fbd ac7c 07bc 48df 863d
00000010: 3338 06bc 2353 de3d d2be cdbb 3e9f 76bc
00000020: 631a b1bb ce1c 6f3d 52d0 b6bb 4b4f a8bb
00000030: 8edd ff3d 88c4 51bd 426f 5c3b 0150 e13d
00000040: 78bf 5cbb 5a5d 06bc 0d0a 42bc b10f 7fbd
00000050: 39fa d03d 3e73 9f3c f7fa 843c 54f8 cd3d
00000060: 9ca0 9abd 6b08 283d 5c36 ebbd fe99 963d
00000070: 6e2f a4bb ae62 c0bb 347f e93c 4d41 92bd
-0.0024970146 -0.062361695 -0.00826947 0.06585556 -0.00819211 0.10855701 -0.006278851 -0.015052615
-0.005404757 0.05837708 -0.005579033 -0.0051364056 0.1249343 -0.051212817 0.003363565 0.11001588
-0.003368346 -0.008200968 -0.011843217 -0.062270824 0.10203976 0.019464131 0.01623295 0.100571305
-0.07550165 0.041023653 -0.114849776 0.073535904 -0.005010537 -0.0058711385 0.028503038 -0.071413614

encoder.fc_mu.weight f4 [16, 2048]
00000000: 2029 d7bb 4bca 1abb ef0f 8aba 69e6 75ba
00000010: 9e45 41ba 1710 83ba 3231 53ba a98c f8b9
00000020: 2c9e 71ba 2476 8aba 7a1c 92ba dad1 81ba
00000030: 5dd4 5eba 383d b6ba b6ed a0ba f315 aeba
00000040: 7c97 bcba 9189 9eba 2f59 a8ba e5b8 6aba
00000050: 39fc b3ba 4c5d cbba de51 9bba b07c 42ba
00000060: a33c 13ba 8c7a 8bba e827 92ba 66c4 deb9
00000070: 7f07 8ab9 9987 e3b9 9e7e 5bba b5e3 59ba
00000080: f052 95b9 a5a4 eeb9 84f4 09ba 9b10 40ba
00000090: 1d06 1eba 7d2d 67b9 4b2e acb9 1f3a abb9
000000a0: 82a9 a2b8 b95b 1a39 2787 d039 ae38 f839
000000b0: e7d1 9739 f600 0e39 300c 25b7 b60c 43b9
000000c0: 5c96 08ba 9406 68ba 16f4 a5ba 740a e9ba
000000d0: aebc 23bb 88f9 5bbb 9974 89bb a14c b6bb
000000e0: 5380 a2bb 3b2a a2bb 9636 a2bb 4c4e a0bb
000000f0: 0603 8cbb 06ba e180 9df1 7380 ea5e 9ebb
00000100: 50bd 8f3c 9533 833b 71dd 06bd 24d2 a8bc
00000110: d82e 82bc 12cb e2bc 058c 95bc 30cd 063c
00000120: d47e 2ebd cba7 c0bc 1071 b3bb ecf3 13bb
00000130: f271 4ebc 947e 02bc 1c53 713c cbca 6d3b
00000140: 0f43 593b 7309 9639 17b2 813b a742 0abc
00000150: 1b2e c33c 7a0d d33c cc72 673c adec 533c
00000160: 92b9 923b 1c09 0abc 175c 56bc 9944 d63c
00000170: db07 933b 6cbc af3c b8ec 5bba bf98 be3c
00000180: a531 003d 87bb 413c 33a9 a9bc 3a6d 263c
00000190: 408c b73b 20d7 1fbc e1bc 62bc 1ade 283c
000001a0: d1a8 893b 8e9e 873b b27f a2bb 319f 573c
000001b0: ded2 a7b9 f02f b53b f1cc 82bb 2438 bfba
000001c0: f148 f93c 7f80 013d a2f8 893c d0dd b33c
000001d0: 4df2 c73b 845a 2b3d feea 2e3d 91d9 be3b
000001e0: 491b 953c 54ef 41bc 5b93 243c 47ab a2bc
000001f0: 3bf7 eabc 71b1 10bd 7b21 a03c 29d9 5cbc
00000200: fabe 583c fd15 d83b 44e6 613c 2b02 a6bb
00000210: 32f9 3b3c 35d3 643b 4b89 60bc a862 783c
00000220: e9dc 99bc 5911 8ebb df0f 20bc c76a 73bc
00000230: b82f b5bc 65d9 3d3b c84f d9bc 5bf9 893c
00000240: 4f0c 503c 25a3 18bc 3d8b d23b e414 9c3c
00000250: 48c8 a13c 083a d13c 74ac 013d d094 823b
00000260: adaf 6b3c 5c35 1f3b badf 04bb 0021 b13c
00000270: 8612 a53c d9f7 263c 1867 c53b 8e12 263b
00000280: 1d87 25bb 4efd 2cbc 9f89 60bb 7c71 8dbc
00000290: 6fce b5bb 6872 fe3b c0c3 263b 93b6 4fbc
000002a0: a8ea a3bb b51b b0bc 3dfd 4ebc 4d3b 513c
000002b0: 14e7 75bb 9683 7cbc 9885 bb3c 54c6 7c3c
000002c0: 2dea d73c 4f79 0a3c 9348 cdbb b9a5 8abc
000002d0: 4234 643c bd20 c7bb ceb3 9c3b 9ba2 c0bb
000002e0: 7621 bbb9 bd81 2ebc cc18 bd3b 194a e0bc
000002f0: 89fe 92bc a938 2b3c aa1e 0f3b ef31 9bbc
00000300: a0bf 43bb 7f04 da3b cf74 ed3b 09f8 653c
00000310: 7ce6 49bc fca7 afbc 49f6 263c 7f4a b2bc
00000320: c6fb 583c a7d0 afbc 41fe 09bc 52b8 a73b
00000330: 23e7 13bc 4f26 e8bc 9fad cfbc 04a1 6d3c
00000340: 5bd4 a4bc 6a7b 973c a86f 19ba 2443 0c3c
00000350: d46a a33c d6b0 f63c 2b10 14bc 7826 03bc
00000360: 25d1 833c 0584 4cbc 2ec7 453c ce4d 6bbc
00000370: 7278 4d3b ff0a babc 8335 253b 0c37 d9bc
00000380: ee39 44bc 6d48 c8bb 955e 2dbb 2954 a8bc
00000390: 7400 9abc c4a5 f4bb e125 d5ba 5436 d8bb
000003a0: d65f 0e3c 606e 59bb 162c bcbb f6b9 663c
000003b0: 2007 69b9 31b8 89bb e38d c53a 81fe 783c
000003c0: bb37 1d3c c7fd c53c a18b 073c 965f 4fbc
000003d0: d5a1 5cbc d164 b8bb 2d4e 0bbc 738f 2abc
000003e0: eebb 963b 661d a93c 4fc6 37bc fddc afbb
000003f0: 8104 4cbc dcc9 83bb 727b 8b3c 339e 34bb
-0.006566182 -0.002361911 -0.0010533313 -0.0009380342 -0.00073727395 -0.0009999302 -0.0008056342 -0.00047407046
-0.000921699 -0.0010563773 -0.0011147403 -0.000990446 -0.00085002725 -0.0013903743 -0.0012277875 -0.0013281688
-0.0014388408 -0.0012095441 -0.0012843962 -0.0008953943 -0.0013731784 -0.0015515476 -0.001184996 -0.00074190926
-0.00056166406 -0.001064138 -0.0011150809 -0.00042489468 -0.00026326996 -0.00043397842 -0.00083730544 -0.0008311824
-0.00028481288 -0.00045517567 -0.0005262571 -0.0007326693 -0.00060281326 -0.00022046822 -0.00032840887 -0.00032658965
-7.756335e-05 0.00014720754 0.00039773548 0.00047344476 0.00028957354 0.00013542533 -9.837604e-06 -0.00018601384
-0.00052103936 -0.0008851078 -0.0012661244 -0.0017779605 -0.0024984288 -0.003356548 -0.0041948077 -0.005563334
-0.004959145 -0.004948882 -0.004950355 -0.004892146 -0.0042728214 -2.0729719e-38 -1.0647757e-38 -0.004833092
0.017546326 0.004003952 -0.032926027 -0.020608015 -0.015891477 -0.027684722 -0.018255243 0.008227631
-0.04260142 -0.02351751 -0.0054761246 -0.0022575809 -0.012600409 -0.007964749 0.0147292875 0.0036284204
0.0033151542 0.0002861727 0.0039579975 -0.008438743 0.023825696 0.025763262 0.014126491 0.012934846
0.004477688 -0.008425023 -0.013083479 0.026155757 0.0044870204 0.021452151 -0.0008389461 0.023266194
0.031297345 0.011824495 -0.020710563 0.010157878 0.005601436 -0.00975588 -0.013838978 0.010306859
0.0042010327 0.0041387742 -0.00495907 0.013160513 -0.0003200983 0.0055293962 -0.003991716 -0.0014588875
0.030430289 0.031616684 0.01684219 0.021956354 0.0061018826 0.04183437 0.042704575 0.005824276
0.018201487 -0.011836845 0.010044898 -0.019857062 -0.028682342 -0.03532547 0.019547215 -0.013479509
0.013229126 0.006594418 0.01378781 -0.0050661764 0.011472987 0.0034915928 -0.013704608 0.01516024
-0.018782096 -0.004335564 -0.009769409 -0.014857001 -0.02211748 0.0028968689 -0.0265273 0.016842535
0.012698247 -0.00931624 0.00642529 0.01905293 0.019748822 0.025540367 0.031658605 0.003985025
0.014385146 0.002429328 -0.0020274953 0.021622181 0.020150434 0.010190927 0.0060242526 0.002534065
-0.0025257536 -0.010558439 -0.0034261716 -0.017266028 -0.0055482904 0.007765103 0.0025446266 -0.012677806
-0.0050023384 -0.021497587 -0.012633619 0.012770486 -0.0037521766 -0.015412232 0.02289085 0.0154281445
0.02635678 0.008451774 -0.006264755 -0.016924726 0.013928475 -0.0060769008 0.0047821766 -0.005878759
-0.0003569235 -0.010651049 0.0057707783 -0.027379083 -0.017943637 0.010450521 0.0021838346 -0.018944709
-0.0029868856 0.006653368 0.0072465907 0.014036187 -0.012323018 -0.021442406 0.010190555 -0.021764038
0.013243621 -0.021461798 -0.008422435 0.0051184082 -0.009027275 -0.02833858 -0.025351344 0.014503721
-0.02012079 0.018491466 -0.0005853125 0.008560929 0.0199484 0.030113619 -0.009037058 -0.008004777
0.016090939 -0.012482648 0.012071414 -0.014361812 0.0031352309 -0.022710321 0.0025208897 -0.026515506
-0.011976702 -0.0061121495 -0.002645408 -0.020547943 -0.018799044 -0.00746605 -0.0016261899 -0.0065982733
0.008689841 -0.003317736 -0.00574256 0.0140824225 -0.00022223266 -0.0042028655 0.0015072193 0.015197397
0.009595807 0.024168862 0.008273036 -0.012657067 -0.013466318 -0.0056272526 -0.008502525 -0.0104101775
0.0046000397 0.020643901 -0.011216714 -0.00536692 -0.012452246 -0.0040218662 0.017026637 -0.0027560114

encoder.fc_mu.bias f4 [16]
00000000: 7d81 8c3b b1a8 aa3c 66c6 5e3b ace1 093c
00000010: b825 91bc a5c3 b13b 5d46 83bb 8f62 0b3c
00000020: ef12 ddbb 26e0 bd3b 2566 1e3a 60ca bdbc
00000030: 09d3 813c cf02 a63a e9e8 47ba 20e3 82ba
0.004287897 0.020832391 0.0033992766 0.008415621 -0.017718181 0.005424934 -0.0040061907 0.008507385
-0.006746642 0.005794543 0.00060424424 -0.023167789 0.0158477 0.0012665632 -0.0007625954 -0.0009985901

encoder.fc_logvar.weight f4 [16, 2048]
00000000: 0826 e9bb 4360 babb 9a04 25bc 1283 1abc
00000010: f9b6 14bc c8c6 0cbc 75fb 04bc ce8b 0bbc
00000020: d5b3 edbb fb9f e3bb ffeb e1bb c4d1 ccbb
00000030: 4602 d0bb 5ba1 acbb d927 bbbb 865a bbbb
00000040: 5c33 a5bb d60f c6bb 750d b4bb 154a d1bb
00000050: 6256 cdbb f3c3 c6bb 49f6 d6bb a932 d9bb
00000060: 81eb dfbb 4b52 d5bb 0b10 b9bb ea5a d3bb
00000070: eaeb ccbb 5e0d c2bb 47e5 babb b09e 9dbb
00000080: b006 bdbb 8dc4 9dbb 12ea 99bb ac58 91bb
00000090: 53df 2f3a 6b67 94bb 03f8 3a3a 7284 ce3b
000000a0: 6764 e13b 3d3e fd3b 5608 f93b e989 f93b
000000b0: 3ef9 f73b e6cd e83b 8ccd e43b 202d d93b
000000c0: ed16 d13b 3254 c83b 03d4 be3b 4ee6 b33b
000000d0: 9465 a43b 250e 973b 47be 943b a29c b13b
000000e0: e951 aa3b f2e4 a43b b10f a03b 5b48 973b
000000f0: 121d 3d3b 2a10 1602 4162 8a02 748a 12bc
00000100: 2172 75bc 635e 1fbc e2ac c43b ef3f cbbc
00000110: aadf 4e3c b18b 103c 953b 323c 21ac 83ba
00000120: a381 4c3c 451f 2abc 46e5 dcbb 0128 453c
00000130: 9d71 41bc 8ec9 8bbc ad2b e6bc 5815 1fbc
00000140: 51f9 923b 922d dbbc 27d7 60bc 6e74 24bc
00000150: 9499 fb3b 4911 84bc 8c05 efbb aeb0 9e3c
00000160: be1d bfbc 9114 a9bc d7ac 593c b227 06bd
00000170: a7ac cd3b c141 4ebc 03e3 a7bc a334 92ba
00000180: a4a0 25bc dc16 963c 2673 45bc 0a21 9bbc
00000190: 7a51 6abc 7321 51bc 84d1 e539 631a 813a
000001a0: 2f1f 403c 3dd4 afba 3fb4 bebc cc23 cfbb
000001b0: f5ff adba 9d9b 6cbc 0afc 69bc 6c69 703c
000001c0: 19c5 5dbc 0367 173c 5047 ae3c f463 b33c
000001d0: c143 76bc 78b8 89bc 0216 20bc a895 18bc
000001e0: 5813 58bc 0ce0 283b 55c4 483c 75b5 98bb
000001f0: 6414 98bc ba55 833c 2f3a e43c 2a7e 0f3c
00000200: 5cc5 f1bc 2e25 73bb f8bf e0bc 7a8a 8dbc
00000210: 5f68 393c 2e6c 7c3b 9083 69bb 6c3c cfbc
00000220: 2dfa 213b 9a11 383c 368d d7bc 228e e8bb
00000230: 1e2c 383c 200f f3bb bd0b 433c 1def 123a
00000240: 026b a9bc e720 86bc 8aa2 173c 795b 843c
00000250: e4c5 94bc 8e8a 0dbc 8a14 81bc 027a 843b
00000260: cc09 8b3c d5a9 90bb 88c3 963c 7db9 cebb
00000270: ffa5 b9bc 68e4 feba 9d14 983c 95a3 29bc
00000280: 0a27 6fbb c69e bb3c a58c 593c f59f 0cbc
00000290: cc09 cb3c 6660 7c3c 3f3c 40bc 0057 3dbc
000002a0: 1c93 0f3c 2e60 b0bc 28e0 de3a 477c 8abc
000002b0: fed5 ffba 65c2 bebc 8826 6ebc 2d19 933c
000002c0: 9467 5dbc d5b3 76bb 1d69 adbc 1ab9 a5bc
000002d0: 945e 1c3c adc1 db3b d917 593c 9ca8 9fbc
000002e0: 742e 92bc 76f5 19bc e6db 893c 3696 37bc
000002f0: d19c 6cbb 5850 393c cba3 b4bc 57b0 afbc
00000300: d31f b4bb 7bce d9bc 0152 8bbb b18c aaba
00000310: 3765 01bc 18fd 083c 1ecf 043c 2e57 babc
00000320: ff9b d3bc 209a 433c 5c14 53bc 25ab 103c
00000330: 83ea 84bc 1123 7a38 99b9 08bc f692 8dbc
00000340: 812e 36bc 69e4 67bc 2311 4ebb 4d37 b8bc
00000350: bbc3 bf3a 193a 46bc 0128 7ebc 6c04 7ebc
00000360: 8ab0 e13c f03a 173c cdf5 2ebc c811 59bc
00000370: 37e5 1b3c 18b0 95bc 587c ad3c 870d 5b3c
00000380: 58b2 373c de10 cb3c b36c 733c ac3d 8a3c
00000390: 7862 203c 6a48 693c 07e7 3abb 4b46 56bc
000003a0: b15e cbbc 09b3 acbc 0b67 d0bc 638d f8bb
000003b0: 621b d7bc 7deb b0bc eb5a a73b 59a3 9ebb
000003c0: f9d2 e4bb 333c 173c 652a e8bb 0ecb 4bbc
000003d0: daf3 efbb 01aa 2a3c 5108 923b 3ebc 643c
000003e0: 0876 adbb 5ca8 9fbc ff32 a93c 9c35 4cbc
000003f0: 54ac 73bc c13c 123d d54b 863c e17f 2cbc
-0.0071151294 -0.005687745 -0.010071898 -0.009430664 -0.009076827 -0.008592315 -0.008116593 -0.008517219
-0.0072541037 -0.0069465614 -0.006894588 -0.006250592 -0.0063479273 -0.0052682585 -0.0057115373 -0.0057175783
-0.005041523 -0.0060443683 -0.0054947683 -0.006387005 -0.006266401 -0.0060658394 -0.006560121 -0.0066283536
-0.006833494 -0.006510054 -0.0056476644 -0.006450047 -0.006253709 -0.0059220036 -0.0057036015 -0.004810177
-0.0057686195 -0.0048146904 -0.004697093 -0.0044356193 0.0006708998 -0.00452893 0.00071322935 0.00630241
0.006878424 0.0077283666 0.0075998707 0.007615317 0.007567554 0.007104623 0.006982511 0.006627694
0.006380907 0.0061135525 0.0058236136 0.005490101 0.005016992 0.0046098405 0.0045392844 0.0054202834
0.0051977527 0.005032175 0.004884683 0.0046167797 0.0028856439 1.1024898e-37 2.0333673e-37 -0.008944143
-0.014980824 -0.009727093 0.0060020545 -0.02481076 0.012626568 0.0088223675 0.010878463 -0.0010045805
0.01248208 -0.010383432 -0.0067411987 0.012033463 -0.011806873 -0.017063882 -0.028096998 -0.009709679
0.0044852872 -0.026755128 -0.013723171 -0.010037525 0.00767822 -0.016121523 -0.0072943624 0.019371357
-0.023329612 -0.02063969 0.013285837 -0.0327527 0.0062766853 -0.012588919 -0.02049399 -0.0011154603
-0.0101091005 0.018321447 -0.012051379 -0.018936653 -0.014301652 -0.012764323 0.00043834385 0.0009849783
0.011726185 -0.0013414692 -0.023279307 -0.006321406 -0.0013275134 -0.014441398 -0.014281282 0.014673572
-0.013535761 0.0092408685 0.021274239 0.021898247 -0.015030802 -0.016811594 -0.009770872 -0.009313025
-0.013188206 0.0025768308 0.01225384 -0.0046603032 -0.01856441 0.016032089 0.027859775 0.008758107
-0.029513054 -0.0037101018 -0.027435288 -0.017277945 0.011316388 0.0038516629 -0.0035631396 -0.025297366
0.0024715767 0.011234665 -0.026312452 -0.0070970217 0.011240987 -0.0074175745 0.011904654 0.00056050887
-0.020680908 -0.016373111 0.009255061 0.016156899 -0.018160768 -0.008638991 -0.015756864 0.004042865
0.016972445 -0.004414777 0.018403783 -0.006308733 -0.02266216 -0.0019446732 0.018564517 -0.010353942
-0.0036491775 0.022902858 0.013278161 -0.008583059 0.024784945 0.015403843 -0.011733114 -0.011556387
0.008763101 -0.021530237 0.001700406 -0.016904963 -0.0019518731 -0.023286054 -0.014535554 0.01795634
-0.0135134645 -0.003764381 -0.021168286 -0.020229865 0.009544034 0.0067064376 0.013250315 -0.019489579
-0.017844416 -0.009396901 0.016828489 -0.011205247 -0.0036104212 0.011310659 -0.022050759 -0.02144639
-0.005496958 -0.026587715 -0.004251719 -0.00130119 -0.007897667 0.0083611235 0.008106021 -0.022746649
-0.02583122 0.011938602 -0.012883272 0.008829867 -0.016225105 5.9637303e-05 -0.008345031 -0.01728199
-0.011119486 -0.014153578 -0.003144332 -0.022487307 0.0014630476 -0.0120988125 -0.015512467 -0.015503984
0.02755 0.00923036 -0.010678721 -0.013248868 0.009515098 -0.018272445 0.021177456 0.013369924
0.011211954 0.024788316 0.014857459 0.01687511 0.009789102 0.014238456 -0.002851905 -0.013078283
-0.024825426 -0.021081464 -0.02543976 -0.007585214 -0.026258174 -0.021596665 0.005107274 -0.00484125
-0.0069831577 0.009230661 -0.007085132 -0.012438549 -0.0073227705 0.010416509 0.004456558 0.013960896
-0.0052936114 -0.01948946 0.0206542 -0.012463953 -0.014872629 0.03570247 0.016393581 -0.010528536

encoder.fc_logvar.bias f4 [16]
00000000: 3483 75bc b773 063c 6518 a2bd 957d e43a
00000010: e056 f1ba 06b7 e9bb 2ce9 babc 9465 41bb
00000020: 0245 1bbd 80b4 80ba 397e fdbc 2e10 a8bc
00000030: d7d7 69bb fab1 553a 7bc2 90bc 6ff2 18bc
-0.014984895 0.0082062995 -0.07914809 0.0017432446 -0.0018412732 -0.007132414 -0.022816263 -0.0029510008
-0.037907608 -0.0009819418 -0.030943977 -0.020515528 -0.003568163 0.0008151826 -0.01767086 -0.009335144

decoder.fc.weight f4 [2048, 16]
00000000: 420e 033e df7d 9ebd 4166 353d 7ead 803d
00000010: 7811 de3d 0ac6 10be 58da 51be db22 08be
00000020: 6035 74be 4095 093d a919 7e3e f818 66be
00000030: 40ef 663e f3ba 013e 7b75 a83d 56ba 0fbe
00000040: 0018 8abe 08ec edbd dd49 40bd 4558 4e3e
00000050: 4180 e5bb 0cd4 153e 1466 d83d 7188 b43d
00000060: 1f17 113e c802 5a3d aff1 65bc f26c 6cbe
00000070: 0efb 69bd e3bc 00be f0f5 afbd caa7 893e
00000080: 31b7 26be 1dae 9ebd c665 12be 2b32 ca3d
00000090: 2476 993d e28e bfbd 44be 4cbe 9ffc b8bd
000000a0: 4d23 0d3e 55e0 6cbe 6497 843b c5c6 42be
000000b0: e970 6a3d f8ac 42bd 748c 083e 3b5c b7bc
000000c0: 44b9 9a3c 38c6 0f3d 35d5 0fbd d4f5 a63d
000000d0: b91c 503d 5e47 b23a 8f1a 9c3d 79ed 40be
000000e0: 47e6 143d 7253 8ebd f7c9 723d 86b1 8c3d
000000f0: e942 dfbd b448 17be ff22 3d3d 0647 8fbd
00000100: 2102 153d 890e 923d 8645 3abe cf3e 7e3d
00000110: 25e3 6cbd b4a3 69bc 8cdf c6bb b150 3dbe
00000120: bcf3 48bd c8ca 993d 2638 17be 32cd 903b
00000130: b574 a23d b5e9 b53d 944c d1bc b24f 9b3c
00000140: dbb9 e0bd f035 163d 9531 ca3c d8da e6bc
00000150: 397e 003e b434 ce3d 63d6 ecbd 9bd6 c83d
00000160: c883 e83d 4184 00be 803b 413b f4dc dd3c
00000170: 49a7 92bd d76d 233d 402c 1cbe e35a 223e
00000180: 17a5 afbd 90f8 0dbe 277b 63be c820 6f3e
00000190: da38 dfbd d273 dfbb 6dfd e13c a1f3 ad3c
000001a0: 8937 1b3e 2a28 6a3d 6dd8 82bd 4561 bfbd
000001b0: 870e 40bd 4974 71be 2d23 d83d 94f2 9bbd
000001c0: 1c3f 173d ed65 3ebe 8224 92be 3815 90bc
000001d0: 5b64 bebd ff31 e0bc b861 5f3e 40a2 03be
000001e0: 9572 023c d668 8e3d 51ec 19be 74ab 083c
000001f0: d332 bcbc b868 16bc bea0 673d 79b1 08bd
00000200: 0aa2 6ebd 05e1 f73d c966 82be 1b4c 913c
00000210: ae02 353e 9f49 f2bc 9cd9 dabc 1d57 42be
00000220: de4a b53c 570f 7a3d b8db 103d 1d43 fb3d
00000230: d182 83bd dbf6 f63d 228f a73c 8e1f 21be
00000240: fbaf 273e c331 6abc 31bd bebe 4b86 3ebd
00000250: 99fb 18be 597c 9c3c 2cf5 1ebe 4b47 44bc
00000260: 0594 5a3d c74e bebd cce8 19bc 4724 00be
00000270: 7093 f53d 79df 9cbc a173 413e 4db7 d93d
00000280: 1563 83be 5170 01be 593b 63be 851b 2abe
00000290: a819 4d3e 3004 583d 4947 0fbd 0c2b 46be
000002a0: 673d 2a3e 5a32 38bd ec7f 273d 233e c2bd
000002b0: 4dc5 5abe 168a 023c 03ee 4abd 2eb6 1ebe
000002c0: ae5f 703d 252a ebbd 538f 66be 8aeb ca3c
000002d0: ea6d a2bd 7776 21be e4b4 cebd f0ff 2dbd
000002e0: 6181 b2bd e2fa dfbd a239 2d3d bb97 de3d
000002f0: 0f3e 873d e003 1c3e f7cb 813e f93d 123e
00000300: bbbc 32bd aeb8 163e 0316 e2bd 23a3 b7bd
00000310: b2b2 5dbd e023 3a3e 78c3 22be 4043 21be
00000320: 7ed1 c7bd 97e5 bf3d e357 d13c c852 92bc
00000330: 6f6e ec3d 764f 4a3c f33b 96bc cc89 54bc
00000340: e624 e7bd 6dbb 11bd a262 483d 27d2 033e
00000350: 51fc 223e afa8 22be 5380 d93c fd4c 37be
00000360: b6f0 933d 05d9 84bd cc8d ae3d 80f5 0fbe
00000370: aabc 2fbd aefb c2bd 8b17 2b3d 94cd 343d
00000380: 837a d9bd 3a08 bb3c 6fe7 b2bd 0aec 903d
00000390: d9d9 17be 19df 083e 42c9 5f3d 0207 533d
000003a0: fd98 233e 195c a1bc 1053 823c edcd 633d
000003b0: b108 d73d 6d1d bb3d a1e6 27be 01dc ad3d
000003c0: 3382 fdbb ead1 47be 20e6 39be 9581 28be
000003d0: 1dfb 8c3d 68f1 94bd 6561 5dbd e716 0fbe
000003e0: 1198 cd3d 7bb6 45be 9b5e 023e f4d7 8c3d
000003f0: d81a ef3b cb0a 9abd b72f efbd 1544 1ebe
0.12798408 -0.07738852 0.04428697 0.06283091 0.10843176 -0.14138046 -0.20493448 -0.13294546
-0.23848486 0.0335896 0.24814476 -0.22470462 0.22552204 0.12668972 0.082255326 -0.14035925
-0.26971436 -0.11617285 -0.04694544 0.2015086 -0.0070038144 0.1463167 0.10566345 0.08815087
0.14168976 0.05322531 -0.014034673 -0.23088434 -0.05712419 -0.12572055 -0.08591831 0.26885825
-0.1628082 -0.07748053 -0.14296636 0.0987285 0.07493237 -0.093534246 -0.19994456 -0.09032559
0.13782997 -0.23132451 0.0040463675 -0.19021137 0.057236586 -0.047528237 0.13334829 -0.022382846
0.01888717 0.035101146 -0.03511544 0.08152357 0.050808642 0.0013601591 0.07622253 -0.18840589
0.036352422 -0.0694951 0.05927464 0.068697974 -0.10901434 -0.14773828 0.046175953 -0.069959685
0.036378983 0.071316786 -0.18190584 0.062071618 -0.05783381 -0.014260221 -0.0060691293 -0.18487813
-0.04906057 0.075093806 -0.14767513 0.0044189924 0.07932416 0.08882467 -0.02554921 0.0189589
-0.10972949 0.036672533 0.024681846 -0.028180525 0.1254815 0.10068646 -0.115643285 0.09806558
0.1135326 -0.12550451 0.0029484928 0.027082898 -0.07160813 0.039899673 -0.15251255 0.15854983
-0.0857641 -0.1386435 -0.22214948 0.23352349 -0.108995155 -0.006819227 0.027586663 0.021234335
0.15157904 0.05716721 -0.06388936 -0.093447246 -0.046888854 -0.23579516 0.10553584 -0.076146275
0.03692542 -0.18593569 -0.28543478 -0.017588243 -0.09296485 -0.02736759 0.2181462 -0.12854862
0.007961889 0.069535896 -0.15031554 0.008341659 -0.022973454 -0.00918024 0.05654978 -0.033372376
-0.05826 0.12103466 -0.25469044 0.017736485 0.17676803 -0.02957612 -0.026715092 -0.18978544
0.022130426 0.061049785 0.03536579 0.1226866 -0.064214356 0.12058803 0.020453993 -0.15734693
0.16375725 -0.014294091 -0.37253717 -0.04651479 -0.14939727 0.019102262 -0.15523213 -0.011979888
0.05336382 -0.09292369 -0.009393882 -0.12513839 0.11991012 -0.019149529 0.18891765 0.10630665
-0.2566153 -0.12640502 -0.22190608 -0.1661206 0.20029318 0.05273837 -0.034980092 -0.19352359
0.16624986 -0.044969894 0.04089348 -0.09484508 -0.21364327 0.007967493 -0.049543392 -0.15499184
0.058684997 -0.11482648 -0.22515611 0.024770517 -0.07931121 -0.15767847 -0.10093096 -0.04248041
-0.08716083 -0.10936524 0.04229129 0.10868784 0.066036336 0.15235853 0.25350925 0.14281453
-0.04363702 0.14718887 -0.11039355 -0.08966663 -0.054125495 0.18177748 -0.15894878 -0.1574831
-0.09756754 0.09369963 0.025554603 -0.017861739 0.11544501 0.0123480465 -0.018339133 -0.012972306
-0.11286335 -0.035579134 0.04892219 0.12873136 0.15916564 -0.1588466 0.026550448 -0.17900462
0.07223646 -0.06486706 0.08523139 -0.14058495 -0.042904533 -0.0952066 0.0417705 0.044141367
-0.106190704 0.022831071 -0.08735549 0.07076271 -0.14829196 0.13366355 0.054635294 0.051520355
0.15976329 -0.019697236 0.015908748 0.055616308 0.10499705 0.09136472 -0.16396572 0.08489228
-0.007736468 -0.1951367 -0.18154192 -0.16455682 0.068838336 -0.07272607 -0.05404796 -0.1397358
0.1003877 -0.19307892 0.12731402 0.06877127 0.007296901 -0.0752159 -0.11679023 -0.15455659

decoder.fc.bias f4 [2048]
00000000: bac5 903e 048e f3bd ff05 793e 8c6f 9e3e
00000010: 2ab3 963d 6cde 603e 2154 45bd 45d3 583e
00000020: 8588 743c 3677 d8bc 36d3 043e cc98 95bd
00000030: c2af 00be 69e7 1ebe 1976 b43d 142f 4fbe
00000040: 4f63 193e befb fbbd fcdf 50be 2a32 46be
00000050: c9ec 833c a142 20bd ae98 73be b61c 85be
00000060: 5a43 383c b01c be3d 6955 da3d c7b3 8d3c
00000070: 8703 81be 6120 3dbe 6e06 afbe 2018 44be
00000080: 487d bdbe e451 ddbc bef5 d9bc ff9a 2dbe
00000090: ee9f e9bc 905b acbe b81c 79bd 1951 37be
000000a0: 987e 50be 4557 9bbe 4cad bfbe 66ca edbe
000000b0: a367 c0be e38f d2be 1309 a7be bded cabe
000000c0: aa13 cabe 343a 9ebe bf17 bbbe 6088 f8be
000000d0: c48c 83be 766e 09bf 4998 74be 5d72 f5be
000000e0: d3be 17bf ece8 0ebf 0cdd f2be de40 96be
000000f0: f684 4bbe 5691 05bf fe48 e6bd 91ee 25bf
00000100: d6d9 cbbe 6537 123d aa2f 183e a6d2 a3be
00000110: 7b00 9d3d b209 1cbe c0ee 983d 563d 2ebe
00000120: 8e00 a53d be0d c4bc 3cf7 a8bd 3d86 153c
00000130: 1abc 1fbe 3652 41be 1966 28bd aec9 353d
00000140: fd37 46be d3be 9f3d b7cd b6bd 88ad 533d
00000150: a085 b3bd 8c8f a93c e686 06bd b80a 833e
00000160: cc10 693e 642f 8a3e 4c8e 09bd a26e 09be
00000170: d880 00be 9995 15be 73fc 863e 5acd 643d
00000180: 9cf6 f3bc ca69 243e d449 3b3e 896a 883e
00000190: e8b5 583e b3cb 9e3d 409c 723c b53b 263e
000001a0: f68e f53d efef ce3e da09 9a3e d88b 463e
000001b0: 4d68 fe3e 5148 a6bc b561 013f 33c6 8b3e
000001c0: 637f ea3e fc84 6d3e 5fc9 453e 11f4 063f
000001d0: fa60 813e 568c fe3e 0616 f73e 9162 893e
000001e0: 3749 233e 0e9b bf3e 4b19 e23d 6869 1d3f
000001f0: 0f85 c63e 82aa 053f 2466 85bd 1464 373f
00000200: d022 ac39 e73b c33c e4f7 83be 1d9d 1abe
00000210: a7b4 adbe 3384 45bc 986a 323c 73fd 053e
00000220: d553 f8bd 2d1d 59be a1ff 833a 9037 8ebe
00000230: 2a02 f33d 69aa dc3d 7312 50bd 383c 70be
00000240: 01a7 0dbd c34c 1dbe df34 253e 4a67 1dbe
00000250: 721d 733c f9c2 7cbc 5868 b33b 7434 89bc
00000260: effb 07be 6fc1 12be 3695 c7bc c906 6e3e
00000270: 74e3 8f3e ca81 a03d 5fd6 c93d 436f 1f3e
00000280: fc0e 943e ccce 9a3d 22b3 843e bd4f 223e
00000290: 6d03 983d a088 813d e3c8 1abd ff14 a63d
000002a0: 8aa1 313e f6a7 dd3e 6eae 1e3e 2ea8 e53e
000002b0: 0a50 ca3e ce9f 8b3e 8109 c23e 48f1 063f
000002c0: d72f 053f 9156 fb3e fc44 2d3e cb73 0a3f
000002d0: 558e 223f a19d 183f 2c1d 0e3f b7bb 053e
000002e0: 8cee f93e ae10 843e e6d0 d13e d9dd 173f
000002f0: 5490 b53e 29e1 833e f3ac 06be 934f a43e
00000300: eeec a43e b8ac 0c3f 33c6 2a3e c3c5 a53d
00000310: 587e 453e 4a7b 81bc dc90 823e 6af7 643d
00000320: 7398 173e ca23 983c b7ff c83d 2e62 a63e
00000330: 84d8 543d 891a 1f3e ecf7 b23e e795 3c3e
00000340: 4e93 823d 5989 303e 7823 8a3e 41a1 e73e
00000350: 1eb7 cc3e 279c 5d3e 20ed 673e e211 073f
00000360: a597 c93e 1056 893e ef9c 793e 22b9 943e
00000370: a5da 9f3e 96ee 0e3f fa1d 993e 155e aa3e
00000380: 5588 9f3e df54 e73e e3cd 303f 4436 183f
00000390: 2c64 a23e 4f7c 153f fd16 163f eabf 1f3f
000003a0: 6dec cd3e a87d 043f 0494 243f ca54 f23e
000003b0: 0938 ee3e 67e9 253e 85b3 073f 57e1 393e
000003c0: 3942 843e 4cbc 643e d3a0 d33e c0d2 193e
000003d0: f5a2 cf3e c002 ad3d e333 033f 18b7 d33e
000003e0: 72e7 c43e b311 bf3e f753 153e bacc 6d3e
000003f0: 56c4 b83e 4a05 793b 03ec 0c3f 022e 38bf
0.28275853 -0.11892322 0.24318694 0.3094448 0.073583916 0.21959847 -0.048175935 0.21174343
0.014925127 -0.026424032 0.12971196 -0.07304534 -0.12567046 -0.15517963 0.08811588 -0.20232803
0.1497929 -0.123038754 -0.20397943 -0.19355074 0.016104119 -0.039126042 -0.23788711 -0.25998467
0.011246527 0.092828155 0.10660822 0.017297639 -0.25198004 -0.18469383 -0.34184593 -0.19149828
-0.37009645 -0.027016588 -0.026606437 -0.16953658 -0.028518643 -0.33663607 -0.060818404 -0.1790203
-0.20360792 -0.3034002 -0.37436903 -0.4644348 -0.3757907 -0.41125402 -0.3262411 -0.39634505
-0.39468127 -0.3090378 -0.36541554 -0.48541546 -0.25693333 -0.53684175 -0.23886217 -0.47938815
-0.5927555 -0.5582416 -0.4743427 -0.29346365 -0.1987494 -0.5217489 -0.11244391 -0.6481715
-0.39814633 0.03569736 0.14861932 -0.3199665 0.07666107 -0.15238073 0.07467413 -0.17015585
0.080567464 -0.023932334 -0.08250281 0.009126243 -0.15599099 -0.18879017 -0.041112993 0.04438179
-0.19357295 0.07800069 -0.08925956 0.051679164 -0.08765721 0.020698331 -0.032843493 0.25594115
0.22760314 0.2698928 -0.03358297 -0.1342111 -0.1254915 -0.14607848 0.26364478 0.0558599
-0.029780678 0.1605598 0.18289882 0.2664378 0.21163142 0.07753696 0.014807761 0.16233714
0.11990158 0.4041743 0.3008564 0.19389284 0.4968895 -0.020298155 0.50539714 0.27299652
0.45800313 0.23195261 0.19315098 0.52716166 0.252693 0.49716443 0.4825899 0.26833013
0.15945898 0.37422985 0.110399805 0.6148896 0.3877339 0.522133 -0.065136224 0.7163708
0.00032832334 0.023832275 -0.25775063 -0.15098996 -0.3392689 -0.0120554445 0.010889672 0.13084964
-0.12125365 -0.21202536 0.001007069 -0.27776766 0.11865647 0.10774691 -0.050798845 -0.23460472
-0.034583095 -0.15361314 0.1613345 -0.15371433 0.014838563 -0.0154273445 0.005475085 -0.016748644
-0.13279699 -0.14331602 -0.024363142 0.23244776 0.2810322 0.07837255 0.09855341 0.15569787
0.28917682 0.075589746 0.25917917 0.1585073 0.074225284 0.06324887 -0.037789237 0.081094734
0.17346779 0.43292207 0.15496227 0.44854873 0.3951419 0.2727036 0.37897876 0.52711916
0.5202612 0.49089482 0.16920847 0.54082936 0.6349843 0.5961552 0.5551326 0.13059889
0.4881481 0.25793976 0.4097969 0.5932289 0.35461676 0.2575772 -0.13151912 0.3209196
0.32212013 0.5495105 0.1667717 0.08094361 0.19286478 -0.01580586 0.25501144 0.055900015
0.14804249 0.018571753 0.09814399 0.3249678 0.051964298 0.15537466 0.34954774 0.18416558
0.063757524 0.17239894 0.26980186 0.45240214 0.39983457 0.21641599 0.2264905 0.5276166
0.39373508 0.26823473 0.24376272 0.29047495 0.312215 0.55832803 0.29905683 0.33274904
0.311587 0.4518194 0.6906416 0.594578 0.3171705 0.58392805 0.5862883 0.6240221
0.4021944 0.51754236 0.64288354 0.47330314 0.46527126 0.16202317 0.530083 0.18152367
0.25831774 0.22337455 0.41333637 0.15021801 0.40554014 0.0844779 0.5125105 0.41350627
0.3845783 0.3731819 0.14582811 0.23222628 0.36087292 0.0037997537 0.55047625 -0.719452

decoder.conv2.weight f4 [32, 16, 4]
00000000: f953 fdbd e8c1 b7bd baf0 60be 4af1 5cbd
00000010: 7d4a c0bd 3875 01be c89a 1abe b741 00be
00000020: 47b8 f53d d47b 493e 5e4e 1c3e 5f19 253e
00000030: 32a6 f53b 535b 453c b381 923c f5da dd3c
00000040: cfee 5cbc dea6 91bd f041 19be f905 febd
00000050: 3301 cb3d ceb4 b2bb 12be 863d 1376 81bd
00000060: a37c a0bd 4a28 77bd e8fe cebd 3257 c0bd
00000070: 9ee0 9cbd efa2 15bd 95d3 8ebd aefa e1bc
00000080: dfb3 58bd a0ee 86bd 0328 d0bd 0c76 97bd
00000090: b429 9a3d 2a86 203e 0319 e13d b414 253e
000000a0: f82b 1abd cd76 bbbc 5c57 39bd 530d 2abd
000000b0: c503 833d a47b 093d 4b4e 53bd 8c92 e33c
000000c0: 23be aabd 838f c9bd 0120 b2bd 4f99 b4bd
000000d0: 8732 8abd 42f5 1dbe 7481 9fbd 9cd4 d7bd
000000e0: 9359 adbc 22c6 e13d 1832 57bd 4ca2 c03d
000000f0: 3d54 35be 4aba 09be ce75 5fbe 7a56 82be
00000100: eb02 b83d ae76 6ebc 6d94 2b3e b3ac 42bd
00000110: f32b 3b3d 02ea b93d 1c08 e53d ee6d ab3d
00000120: 5485 f3bd a0a7 33be a05a dfbd 0384 c1bd
00000130: 202d 773b 7db8 c9bc 6c6c 9abc 7a30 afbc
00000140: 0cec 9fbb bfef 633d 8a9f 1d3e 2ba9 0a3e
00000150: 57be 94bd e08b 23ba 0d84 c8bd 802e 443d
00000160: 605d ab3d b7ac 323d 8da6 e73d 0ba6 a23d
00000170: 67e9 8f3d 0ab8 e1ba d99f 773d a7b1 013d
00000180: 4569 7e3d 8e4d 4b3d 4efa e53d 42d2 873d
00000190: 24bd 74bd 6205 eabd 95f3 bcbd 38dd 00be
000001a0: e2d4 083d f4bd a53c 9786 553d b8d9 d63c
000001b0: 67a3 54bd ee7d adbb acdb 543c b717 3dbd
000001c0: d149 563d 4bbf 903d 0be5 933d 42be 8e3d
000001d0: 1f89 68bc b65e e53d d7ed 3fbc 21f3 193d
000001e0: b921 5c3c f49d b1bd 268b 0f3d d651 debd
000001f0: 5df3 2a3e 0460 0a3e 1819 743e 0c66 813e
00000200: 5fad 0a3e 8c21 d63d 1350 023e 754f 8e3d
00000210: 13c3 373d 32f8 933d e536 bf3d 226c c43d
00000220: 3949 d6bd 4767 18be 4b93 d9bd 752b 05be
00000230: f676 adbc 62e3 5ebb 6fff 54bc ff6a 00bc
00000240: f4c4 063c cea5 4c3d c495 e33d 4590 e83d
00000250: 125e cebd cf05 fc39 016e 6abd 2201 0e3d
00000260: cd4e 673d d2cd 323d 70cc 933d 5442 8e3d
00000270: ef4e 4d3d a204 043d e348 803d ae6e ba3c
00000280: 2ac5 323d e286 353d f6ab 8e3d 467c 493d
00000290: feeb 7dbd f13d 02be 5ab3 85bd 9ae5 ecbd
000002a0: 99fc cf3c 5d4f 983c 8858 243d 3504 203d
000002b0: b3b3 94bd 05c5 f0bc eba8 0a3d 4074 b0bc
000002c0: 5735 a03d 10f7 ae3d 76df 863d 25f7 9e3d
000002d0: 4078 2d3d d410 ec3d 17d1 9e3d de27 a43d
000002e0: b764 aa3c 2ebd d4bd 8741 6f3c 7dd2 abbd
000002f0: 5c08 043e 2d62 bd3d 3d22 493e 8b8c 5b3e
00000300: d337 d03d bb52 f03d 4f06 9e3d 1263 4b3e
00000310: 3e03 9cbc 3fff 2a3d 8127 4dbd 7c30 ad3c
00000320: 888d 0bbe 9539 eebd 666f 09be 7c25 11be
00000330: 9109 03ba 2669 e33a c990 0fbd 5018 15bd
00000340: b65e bfbb cbd6 89bd e218 12be 933d e7bd
00000350: c73b c9bd ed54 193d 07ca d6bd 093d 9cbb
00000360: 7d72 21bd 1840 4d3d 0b09 c6bd 925a 2d3b
00000370: aeae 7cbc 730e bf3d 461d 2abd d388 bc3b
00000380: 4d7a 77bc 99d1 093d b77f cdbd 38b5 b83c
00000390: a06d 14be bf7b 20be 1dc3 1cbe e182 0ebe
000003a0: 6d77 04bd a443 5a3d cc01 0abd b002 e93c
000003b0: 820e 86bd 1316 3dbd 4b8d 09be 878d 7fbd
000003c0: 3024 623d 547d 403d 3214 b03c 6ed4 0c3d
000003d0: 2c77 d13d 250e 6a3d b0a2 9e3d 02bf bc3d
000003e0: 8ab9 b63c af92 fabd 7057 383c 7d83 dabd
000003f0: 492c 28be 9252 fbbd ce5d 51be 8771 62be
-0.12369532 -0.089725316 -0.2196683 -0.05394105 -0.093892075 -0.12642372 -0.15098107 -0.12525068
0.11998039 0.19676143 0.1526427 0.1612296 0.0074966187 0.012045699 0.017884111 0.027081946
-0.013484671 -0.071119055 -0.1496656 -0.12403483 0.09912338 -0.0054536825 0.06579222 -0.06321349
-0.078362726 -0.060341157 -0.10107213 -0.09391631 -0.0766003 -0.03653234 -0.0697395 -0.027585354
-0.052905913 -0.06588483 -0.10163882 -0.073955625 0.075274855 0.1567618 0.10991099 0.16121179
-0.037639588 -0.022883797 -0.045249328 -0.041516613 0.06397203 0.03356518 -0.051588338 0.02777984
-0.08337047 -0.09841826 -0.086975105 -0.08818304 -0.067479186 -0.1542559 -0.07788363 -0.10538599
-0.021160876 0.11024119 -0.052538007 0.09405956 -0.17707916 -0.1344997 -0.21822283 -0.254566
0.089849316 -0.014554663 0.16755839 -0.04752798 0.04569621 0.090778366 0.11183187 0.08370577
-0.11890665 -0.17544413 -0.10905957 -0.09449007 0.0037716106 -0.024624104 -0.018850528 -0.02138542
-0.004880434 0.05564856 0.1539289 0.13541095 -0.07262867 -0.00062387995 -0.09790812 0.04789591
0.08367419 0.043621745 0.11311064 0.079418264 0.0702694 -0.0017220986 0.060455177 0.031663563
0.06211211 0.04963451 0.112293825 0.066319 -0.05975069 -0.11426808 -0.09226147 -0.12584388
0.033406146 0.020232178 0.052130308 0.026226863 -0.051913645 -0.005294553 0.012991827 -0.046165194
0.05231649 0.07067736 0.07221421 0.069698825 -0.0141928485 0.11199705 -0.01171442 0.03758538
0.0134357745 -0.08672705 0.03504481 -0.10855453 0.16694398 0.1351319 0.23837698 0.25273168
0.13542698 0.10455617 0.12725858 0.06948749 0.04486377 0.07225074 0.09336642 0.09590937
-0.10463185 -0.14883147 -0.10623797 -0.13004859 -0.021174889 -0.0034010042 -0.013000353 -0.00783801
0.008225668 0.04996281 0.1111255 0.11355642 -0.10076536 0.00048069513 -0.057233814 0.03466905
0.056471635 0.043653317 0.07216728 0.06946245 0.050124105 0.03223098 0.06263902 0.022757854
0.04364506 0.044318087 0.06966393 0.049190782 -0.061992638 -0.12718941 -0.06528349 -0.115672305
0.025389003 0.01859253 0.040123492 0.039066512 -0.072608374 -0.029390821 0.0338525 -0.021539807
0.07822674 0.08543217 0.065855905 0.07761983 0.042351007 0.11526647 0.077547245 0.080154166
0.020799978 -0.10387646 0.014603025 -0.08389757 0.12893814 0.09247241 0.19641967 0.21440332
0.101668976 0.117345296 0.07716047 0.19862011 -0.019044515 0.041747328 -0.050086502 0.021141283
-0.13628209 -0.11632077 -0.13421401 -0.14174455 -0.0004998679 0.0017350062 -0.035050187 -0.03640014
-0.005840148 -0.06730422 -0.14267305 -0.11291041 -0.09825855 0.037434507 -0.104877524 -0.004768018
-0.039415825 0.050109953 -0.096696936 0.002645169 -0.015422506 0.09328928 -0.041531824 0.0057536154
-0.015104842 0.033647154 -0.10034125 0.02254735 -0.14494944 -0.15672205 -0.15308805 -0.13917114
-0.032340456 0.053287163 -0.03369312 0.028443664 -0.06545736 -0.04616363 -0.13432805 -0.06239083
0.055210292 0.046994522 0.021494005 0.034382276 0.10227808 0.057142396 0.07745874 0.09216119
0.022305269 -0.12235009 0.0112513155 -0.10669611 -0.16423143 -0.122716084 -0.2044594 -0.2211362

decoder.conv2.bias f4 [16]
00000000: 11e6 863e 1456 c4bd ea9a c1be 3c33 89bd
00000010: 74c7 7fbe 530e bc3c 435c 2c3d 3e0e 8cbb
00000020: 10b0 183d e780 98be 15b9 44bc 2869 c9bd
00000030: 71e6 5b3e 84ec 6d3e b859 123d a868 00bf
0.26347402 -0.095867306 -0.37813503 -0.06699225 -0.24978429 0.02295605 0.042080175 -0.0042741587
0.03727728 -0.29785845 -0.012007018 -0.0983451 0.21474625 0.23234755 0.035730094 -0.5015969

decoder.conv1.weight f4 [16, 1, 4]
00000000: fa9c d4be 22c7 07bf 5e2c cebe 0334 80be
00000010: 7be4 83be db12 78be ed5f 62be 639b 20be
00000020: bcaf 943d eb4f 3d3f bebe 303f 1101 d93e
00000030: 6f88 3a3e 7333 3fbe 14f0 613e 3ffc 85bb
00000040: 0557 95bd 972a 48bd 8890 4cbf c384 d6be
00000050: 5884 b83e f9be 0d3f 26a8 b0bd 5634 17be
00000060: 5263 553e ca97 c8be fa1a 97be 4d54 01be
00000070: d7f2 c6bd 8afb 48be 72c6 ebbc ab36 80be
00000080: c1d9 d2be 7ce0 333b dff6 32bd 58ae 86bb
00000090: 65bd 2e3f 3c17 a63e 912d d03e 2cc7 e43e
000000a0: 21cb 86be e97a 3a3e c3e3 e1bd 15f7 b2be
000000b0: 2afe c33e 4435 ae3e 15d8 773e 160b 893d
000000c0: 09f5 b73d eba2 c7be 2851 d7be f780 283c
000000d0: b33a 9dbe 2cb3 04bf c0b5 5dbe 0876 2bbb
000000e0: 5b1f 0b3f 71dc 153f f3a5 323e 4ee8 223d
000000f0: f644 9abe 7fea 4cbf 87ab 8fbf 3c24 51bf
-0.41526014 -0.5303823 -0.40268224 -0.25039682 -0.25760254 -0.24225943 -0.22106905 -0.15684275
0.07260081 0.7395007 0.6904105 0.42383626 0.18216108 -0.1867197 0.22064239 -0.004088908
-0.07291988 -0.04886874 -0.7990804 -0.41898164 0.3603847 0.55369526 -0.08625822 -0.14766058
0.20838669 -0.39178306 -0.2951277 -0.12629814 -0.09714287 -0.19627205 -0.02878115 -0.25041708
-0.41181758 0.0027447036 -0.043692466 -0.004110139 0.68257743 0.324396 0.40659764 0.44683206
-0.2632685 0.18210949 -0.1102977 -0.34954134 0.3827985 0.34025013 0.24203523 0.066915676
0.089822836 -0.38991484 -0.42054105 0.010284654 -0.30708846 -0.51835895 -0.21651363 -0.0026162881
0.5434472 0.5853949 0.17446117 0.039772324 -0.30130738 -0.8004531 -1.1224221 -0.81695914
