variational_autoencoder/torch_vae_models/torch_vae_model_500.pth (torch, 423419 bytes, 13 tensors)

encoder.conv1.weight f4 [16, 1, 4]
000000 d1 ba c3 bc 0a fd 82 3e 1c 83 52 3e 99 cd dc 3e
       -0.023892792 0.25583678 0.20557827 0.4312561
000010 7a 9c 9d 3e 7d 20 fe bd c1 33 8b 3e ec 74 50 3e
       0.30783445 -0.124085404 0.27187923 0.20357102
000020 45 b4 d5 3e 26 84 9f 3c af 64 a8 be 38 50 74 be
       0.41739097 0.019472193 -0.32889315 -0.23858726
000030 0f 1a 0a bf ee 6c 27 3e c5 95 81 bd 29 a6 a6 3e
       -0.5394601 0.16350147 -0.063273944 0.32548645
000040 5b 69 bb bd 71 64 a5 3e 63 79 48 be dd 4b 7a bd
       -0.09150954 0.32303193 -0.19577555 -0.061107505
000050 6b c0 08 bf bb c1 52 3d 56 c0 32 bf a0 fa b0 be
       -0.53418607 0.051454287 -0.6982473 -0.34566212
000060 5d 6b 9c a9 d1 40 0e 2a ca b0 80 3b 03 02 49 b9
       -6.946416e-14 1.2634621e-13 0.003927325 -0.00019169603
000070 7e dc 71 3e a4 e3 0f 3d c3 09 2e be 05 9a a3 3e
       0.23619267 0.035129204 -0.16995911 0.31953445
000080 56 c9 42 be 23 2d 2e bd e6 df d3 be dd 66 0e be
       -0.19022116 -0.042523514 -0.41381758 -0.13906427
000090 f4 1a 49 2a 22 95 35 3b 41 f3 b8 b7 8c 4b 35 bd
       1.7861737e-13 0.0027707298 -2.2047783e-05 -0.0442615
0000a0 2d 7f ab be d4 d9 08 be d4 31 36 be 9e 32 12 3b
       -0.33495465 -0.13364345 -0.17792445 0.0022308002
0000b0 8f c5 0a 3f b0 30 b0 3e 7d df f0 bc b2 e1 03 3f
       0.542077 0.34412146 -0.029403443 0.5151626
0000c0 95 d7 7a 3e 05 fc 5e be f4 b7 30 be 62 8c 25 bc
       0.244963 -0.21775825 -0.17257673 -0.010104271
0000d0 c0 b9 90 3e 22 4b 5b 3d 8e c5 3e be b4 25 f7 3e
       0.28266716 0.05353845 -0.18630049 0.48270953
0000e0 a7 3f a9 3e ef 9b 89 be 5e 52 55 be a1 29 76 3d
       0.33056375 -0.2687678 -0.20832202 0.060098294
0000f0 e9 74 cc 3e 1a 10 d9 3d 5b 71 15 be 52 f0 c5 be
       0.39932945 0.10598774 -0.14594023 -0.38659912

encoder.conv1.bias f4 [16]
000000 28 81 45 3e da 18 bc 3e a9 5c 03 3d db 34 43 3e
       0.1928755 0.3673771 0.03207079 0.19063132
000010 07 2f 2a 3c 6a 0a 05 3e 75 5b 80 bc 39 ab ce 3e
       0.010387189 0.12992254 -0.01566861 0.40365008
000020 1e 22 14 3e cc 35 af bd 80 ad 61 bc 5d 1c c1 be
       0.1446614 -0.08555183 -0.013774276 -0.37716952
000030 4b 85 23 be 6c a9 c3 3d a0 99 db 3c a4 c2 1a 3a
       -0.15968816 0.09553799 0.026806653 0.00059036375

encoder.conv2.weight f4 [32, 16, 4]
000000 f3 fe 74 b9 4b 82 ae b9 6f e9 97 b9 d8 55 86 b9
       -0.0002336463 -0.00033284942 -0.00028974886 -0.0002562243
000010 de b8 21 3b 59 c8 ca ba bf 27 c9 ba 64 0b c8 ba
       0.002467684 -0.0015471085 -0.0015346928 -0.0015262184
000020 5e 17 5b ba 09 6f 92 bb 9a 5b 2a b9 b8 0d 98 bb
       -0.0008357669 -0.004468803 -0.00016246588 -0.0046403073
000030 31 7c 29 39 98 fe 73 bb e1 51 f4 b9 dc 98 60 39
       0.00016163361 -0.0037230607 -0.0004660031 0.00021419249
000040 5a 4f 55 bb 61 d1 9c bb 47 39 8a bb cb 6b 9f bb
       -0.0032548518 -0.004785702 -0.004218254 -0.004865145
000050 6c 1a 83 bb 6c 01 7e bb 54 95 7c bb 84 99 70 bb
       -0.0040009525 -0.0038758172 -0.0038541155 -0.0036712596
000060 51 44 9d 29 d9 bd b1 ae ca 63 1c b3 cc 45 13 b0
       6.9840516e-14 -8.082752e-11 -3.6412338e-08 -5.3577476e-10
000070 a9 05 fd 3a 65 5f 06 bb 53 78 06 bb 14 93 06 bb
       0.0019304055 -0.0020503637 -0.0020518496 -0.0020534443
000080 78 1c 9d bb b2 52 9a bb 52 fc 99 bb 1d 6f 9b bb
       -0.0047946535 -0.004709565 -0.0046992684 -0.0047434703
000090 22 28 45 a9 41 1a 09 2a fd 40 26 2e 02 71 d2 28
       -4.3777597e-14 1.2177153e-13 3.780175e-11 2.3363693e-14
0000a0 4e ba 10 ab 53 ed 97 29 f3 bb 71 2c 1a 51 8b ab
       -5.1417627e-13 6.746916e-14 3.4352493e-12 -9.899054e-13
0000b0 8c b2 c6 3b 29 9e d0 3b 00 23 c7 3b ac bb d3 3b
       0.006063765 0.0063665104 0.0060771704 0.006461581
0000c0 1c c9 58 a7 f1 e2 9c 2b 1b 27 1e a8 ec c4 9a 2a
       -3.0085043e-15 1.1147456e-12 -8.7792415e-15 2.7492537e-13
0000d0 7a 81 bc 39 f9 94 59 39 70 92 9f 39 53 cc 89 39
       0.00035954622 0.0002075023 0.00030435948 0.0002628291
0000e0 2c 03 53 ba 10 3f 92 bb ff 6e 9c bb ee c8 90 bb
       -0.0008049484 -0.004463084 -0.004773974 -0.004418484
0000f0 37 a0 04 bc bc 1a 27 bc a7 4a 29 bc e2 95 46 bc
       -0.008094839 -0.010199245 -0.01033274 -0.012120696
000100 3b f9 e0 3c f1 87 e1 3d 2d f2 85 3d 4d 44 59 bd
       0.027462592 0.11012257 0.06540332 -0.053043652
000110 a3 85 f2 bd 80 66 30 3d 30 45 cf 3c 65 65 7b 3c
       -0.118418954 0.0430665 0.025301546 0.015343999
000120 f1 d5 38 bc ce 13 19 3d 35 2a f8 3d 58 71 ea 3d
       -0.011281476 0.037372403 0.12117425 0.114474
000130 b6 f9 eb bc f8 08 bb 3d b3 eb 70 bd fe f6 f2 3d
       -0.028805595 0.0913257 -0.05881853 0.11863516
000140 8a 63 82 3e 58 22 5f 3e cd ce 97 3d 45 fc 07 3e
       0.25466567 0.21790445 0.07412491 0.13279827
000150 20 13 ee bd e2 79 82 be 0a 2e 08 be fc 31 0b be
       -0.116247416 -0.25483614 -0.13298813 -0.13593286
000160 9d fb 2d 31 73 48 0d 2e 56 f6 b2 b1 d3 d3 aa b3
       2.531784e-09 3.2124036e-11 -5.208487e-09 -7.9547725e-08
000170 a9 ba 96 3d 12 ff dc 3d 7d ab 83 3d cf f7 c4 bc
       0.07359821 0.10790838 0.06429193 -0.024043946
000180 dc 08 95 bd 52 ed ac 3c b1 e7 78 3d c9 b4 43 3d
       -0.072770804 0.021109257 0.060767833 0.047779832
000190 c3 89 b0 b3 61 9c 3d 2a 85 0b ed ad cb 2e f4 2b
       -8.2206974e-08 1.6840827e-13 -2.6948896e-11 1.735023e-12
0001a0 64 f7 23 bd c9 68 61 bd 8f 5a 70 bc 76 a4 e9 3c
       -0.040030852 -0.05503157 -0.014670028 0.028520804
0001b0 10 4d 17 be 63 ee de bd cd 9b 25 3d f0 09 95 3d
       -0.14775491 -0.108853124 0.040431786 0.07277286
0001c0 b2 a1 b3 3b 0b 70 b8 28 02 eb 50 3c 48 0d 89 29
       0.005481922 2.0476695e-14 0.012751343 6.086326e-14
0001d0 1d 72 69 bd 47 f7 d4 bd 60 1e 9a 3d 68 26 9d 3d
       -0.056993593 -0.10398727 0.07525325 0.07673341
0001e0 e4 f1 7d 3b bd ee 4a 3d 90 9b a1 3d f7 36 30 3d
       0.0038748914 0.049544085 0.07890999 0.04302117
0001f0 32 7c a8 bc fd 2a 1b 3d e6 ee bb 3d 7f da fb 3c
       -0.020567033 0.037882794 0.09176426 0.030743835
000200 9a 95 4b 3d c7 a6 36 3d 2b d9 b8 bb a7 ed fc 3d
       0.049703218 0.044592645 -0.005641123 0.12350016
000210 5e 41 f0 3d c7 be da 3d 1f c1 6b 3d 1c 1e a8 3d
       0.11731218 0.10680919 0.05755722 0.08208868
000220 7e 48 bb 3d c7 58 38 3d 6e 6c a3 bd e2 07 10 3e
       0.09144686 0.04500654 -0.07979666 0.14065507
000230 38 5b ac bc 1f 21 e8 bd 87 56 41 bc a8 2c e0 bd
       -0.02103959 -0.11334442 -0.011800415 -0.109460175
000240 cc 2f 87 3d 39 ef 29 3e fe 3e f6 3d e9 49 cf 3d
       0.066009134 0.16595162 0.120237336 0.10121519
000250 1a d0 3a be f0 ef 8e be a3 da 90 be 27 33 76 be
       -0.18243447 -0.27917433 -0.28291807 -0.2404295
000260 db 96 4d aa ba 81 ba 2d 39 b2 1b aa f5 92 55 2e
       -1.8259996e-13 2.1203362e-11 -1.3828599e-13 4.8561117e-11
000270 fc 45 b7 3d ed c1 ff 3d bd 4b e9 bd 90 77 6f 3d
       0.08948895 0.1248816 -0.11391399 0.058463633
000280 9c 49 57 bd a7 53 07 be 71 36 4f 3d e3 02 83 bd
       -0.052560434 -0.13215505 0.05058903 -0.06397035
000290 f9 f5 cb 2b 7b 85 52 2a 37 56 e2 ab 4b 30 47 a9
       1.4492289e-12 1.8698057e-13 -1.6082195e-12 -4.4228764e-14
0002a0 3e a2 98 bc 04 c3 21 bd 36 9d 82 bd 63 34 9c bc
       -0.01863205 -0.039492622 -0.06377642 -0.019067949
0002b0 ed bb 8c bd 05 c3 19 3d 43 e6 dc bd 00 3a 58 3d
       -0.068717815 0.0375395 -0.107861064 0.052789688
0002c0 67 3c 27 3c f1 e8 b0 31 77 d8 2c 3c 86 93 c5 ad
       0.010207272 5.1487565e-09 0.010549656 -2.246182e-11
0002d0 56 76 73 3d b4 a0 ec bb aa 03 d2 bd 31 38 0b 3d
       0.059439026 -0.0072213057 -0.10254605 0.033989135
0002e0 11 04 db bd b7 97 e2 bd ff 63 aa bd bd be db 3d
       -0.10694135 -0.110640936 -0.08319854 0.1072974
0002f0 b6 59 3d bd b4 5d e9 3d 8a 28 d4 3c e8 0c 15 bd
       -0.046228133 0.113948256 0.025898237 -0.03638926
000300 6f 4f b6 bd 23 8e b9 3d f5 fe 86 bd 9a 65 f0 bd
       -0.089018695 0.090603136 -0.06591598 -0.11738129
000310 f8 ef 6a 3c 0a c4 5c 3d f7 88 78 3d 29 b6 b9 3d
       0.01433944 0.053897895 0.060677495 0.090679474
000320 09 fb 03 3c 59 8c 2a bd d6 25 87 bd 0f 2d aa bd
       0.008055457 -0.041637752 -0.065990135 -0.083093755
000330 b9 55 75 bd ec 7c 3b bd 24 91 c9 bd 40 b5 19 3c
       -0.059896205 -0.04577343 -0.098421365 0.009381592
000340 a5 e8 da 3d 64 40 f6 3d 9a a1 d0 3d 4e 50 14 3d
       0.10688905 0.12024 0.10187073 0.036209397
000350 06 4f f9 bd 85 16 80 be b4 d5 49 be 4c 90 d2 bd
       -0.12173276 -0.2501718 -0.19710428 -0.10281429
000360 59 34 49 2b f1 c5 44 ab b3 64 12 ac 89 42 fb 2b
       7.148219e-13 -6.9907887e-13 -2.0803747e-12 1.785309e-12
000370 d8 55 2a 3d 61 2f bf 3d 08 63 99 3c 3d be 06 bd
       0.041585773 0.09335209 0.01872398 -0.03289627
000380 fb 36 59 3d 8d b4 31 bc 71 35 01 be 6c 69 03 be
       0.05303095 -0.010846269 -0.12618043 -0.12833184
000390 69 11 57 2f 8c 6d 40 29 03 54 4a 2b 62 54 f2 af
       1.9560321e-10 4.272758e-14 7.1881406e-13 -4.40795e-10
0003a0 2a 16 98 bc 89 0f 0e bc b7 58 9a bc 82 75 99 bc
       -0.018565256 -0.008670696 -0.01884113 -0.01873279
0003b0 de 9a cb 3c fa a7 84 3d 66 b9 33 bd ba 1e 53 3d
       0.02485412 0.064773515 -0.04387798 0.051542975
0003c0 2e 5d f7 bb 71 43 01 ab f0 c4 82 3c 9a 06 5b 2d
       -0.0075489497 -4.59236e-13 0.015963048 1.2450175e-11
0003d0 33 1d 29 bc a5 59 23 3d ba bf 2a 3d 0a fc 0b bd
       -0.010321903 0.039880414 0.04168675 -0.03417591
0003e0 a1 cf ce bd f3 e1 85 3d 66 52 6d bd 84 be 54 bd
       -0.10098196 0.06537237 -0.05793991 -0.051939502
0003f0 ee 88 b7 bd 2a e5 84 3d c7 c9 55 bd 5a 35 91 3c
       -0.08961664 0.06489022 -0.052194383 0.017725635

encoder.conv2.bias f4 [32]
000000 06 8e 7e 3a 2d 72 9a bd 52 81 01 bc 62 4d 8a 3d
       0.0009710494 -0.075413086 -0.0079043675 0.06753041
000010 e9 6b 25 bd 13 33 e3 3d 16 d0 9d bc 41 6e cc bc
       -0.040386114 0.11093726 -0.019264262 -0.024954917
000020 52 15 bc aa 9c ae 7a 3d 61 59 73 bc 8b 46 bf bd
       -3.3410303e-13 0.061201677 -0.014852853 -0.09339627
000030 46 7a fc 3d 1f f8 40 bd 9a 3f 37 bc e8 0e fc 3d
       0.12328009 -0.047111627 -0.011184597 0.12307531
000040 1e ba 07 b4 8f 7f 3e bc 54 c9 36 bc 2a e7 7f bd
       -1.2640564e-07 -0.011627092 -0.011156399 -0.062476315
000050 fb 6a dd 3d 2b 5b ac 3c 1a 24 8c 3c 09 5b d9 3d
       0.108114205 0.021039566 0.017107058 0.10613067
000060 47 37 04 bc 9c e1 63 3d 59 a7 c1 bd 7a bc af 3d
       -0.00806982 0.05563508 -0.09455747 0.08580871
000070 71 de 5a bc 57 ba 8e bc fd 89 f9 3c 17 e6 81 bd
       -0.013358698 -0.017422838 0.030461306 -0.06342714

encoder.fc_mu.weight f4 [16, 2048]
000000 57 2e 20 3a ee 48 d0 3a 3e b7 18 3b 40 21 15 3b
       0.0006110421 0.0015890875 0.002330258 0.0022755414
000010 ce 06 20 3b aa a0 10 3b 4c 75 22 3b 57 1f 33 3b
       0.0024418118 0.002206842 0.0024789153 0.0027331912
000020 81 2b 16 3b 4a 39 0d 3b 5c da 08 3b 5a fc 0f 3b
       0.0022914114 0.002154904 0.0020882105 0.0021970482
000030 b9 22 19 3b 33 00 eb 3a 37 33 04 3b a1 c0 f9 3a
       0.0023366644 0.0017929137 0.0020172128 0.00190546
000040 2a a6 e8 3a 34 89 08 3b 2a c4 04 3b 3f ad 1f 3b
       0.0017749716 0.0020833733 0.0020258524 0.0024364737
000050 7e 7c fe 3a f7 5a e1 3a 8d a5 0a 3b 79 c6 22 3b
       0.0019415764 0.0017193247 0.0021155805 0.0024837537
000060 94 de 2c 3b d6 06 05 3b 9c 83 fc 3a 5e 61 2e 3b
       0.0026377784 0.0020298264 0.0019265297 0.0026608328
000070 77 5b 37 3b 16 88 2c 3b 6b 26 13 3b 79 0e 14 3b
       0.0027978101 0.002632623 0.0022453319 0.0022591634
000080 e6 89 3a 3b f5 61 2e 3b 6b 6b 29 3b 4f 78 17 3b
       0.0028463542 0.002660868 0.002585138 0.002311248
000090 e2 0b 1a 3b e7 06 2f 3b 98 f3 1d 3b 88 03 15 3b
       0.0023505618 0.0026706995 0.0024101492 0.00227377
0000a0 c0 27 15 3b ea e4 11 3b 82 4a 13 3b 2a 56 0a 3b
       0.0022759289 0.0022261688 0.002247483 0.0021108487
0000b0 08 2c 05 3b 69 c4 fc 3a bf 74 ed 3a 1a 5d f3 3a
       0.0020320434 0.0019284609 0.0018116458 0.0018567175
0000c0 5c 83 dc 3a 90 45 db 3a d3 1b ce 3a f0 2a c1 3a
       0.0016823816 0.0016729105 0.0015724845 0.0014737528
0000d0 43 48 b5 3a 8d ac a5 3a 18 be 9c 3a a8 d0 92 3a
       0.001383074 0.0012639925 0.0011958508 0.00112011
0000e0 cb cf 88 3a 8c 40 86 3a eb 9b 81 3a 91 8f 80 3a
       0.0010437904 0.0010242625 0.0009888386 0.0009808411
0000f0 13 06 81 3a cd 7d 81 3a f4 71 7c 3a 87 dc 99 3a
       0.0009843729 0.000987941 0.00096300174 0.0011738696
000100 39 51 2d 3b 34 17 63 bb 83 16 af bc c0 03 bf bc
       0.0026446118 -0.0034651281 -0.02137304 -0.023317218
000110 2b c6 c5 bc 23 06 aa bc b9 d6 4a bb b3 d2 78 3c
       -0.024142345 -0.02075488 -0.0030950739 0.015186953
000120 38 d9 4b bc f8 a3 24 bc 13 42 36 3c 6a 27 50 3c
       -0.012441926 -0.010048859 0.011124152 0.01270471
000130 76 bb 38 bc 75 8f 91 3c ee 26 22 bc 44 bc 53 3b
       -0.011275163 0.017768601 -0.009896977 0.003230826
000140 ff 9f 59 bb 88 f0 16 bb 27 0c 8d bb 70 a4 8a bc
       -0.0033206937 -0.0023031551 -0.004304427 -0.016924113
000150 75 84 8a 3c 2a 7b c0 3c 74 dd 08 bc 1d 4b 8a 3c
       0.016908864 0.02349623 -0.00835358 0.01688152
000160 09 db 25 bc 52 54 13 bc e9 ef c5 bb af cf ac ba
       -0.010123023 -0.0089922715 -0.0060405624 -0.0013184453
000170 b5 ef 86 3b 11 5c 0a 3c ee e4 3a 3c c7 8e 4b 3c
       0.004117931 0.008444802 0.01140712 0.0124241775
000180 9a 2f b2 3c 04 b1 ca 3c cd e8 82 bc 9f 46 bc 3b
       0.021751214 0.02474261 -0.015980149 0.0057457234
000190 04 b0 97 3b 32 89 a9 bc 34 35 80 bc 50 6a 80 3b
       0.004629137 -0.020695303 -0.01565037 0.0039189234
0001a0 26 8e 31 bc c9 18 19 bc b4 aa 7b bc 38 5f 78 3c
       -0.0108371135 -0.009344288 -0.015360523 0.015159421
0001b0 af bf fa 3a 44 b6 7a bb eb 85 1d bc a4 9a 38 bc
       0.0019130612 -0.0038255611 -0.009614448 -0.011267338
0001c0 2b 62 3a 3c 1e 80 33 3a d7 d0 10 bc 91 f4 78 3b
       0.011375944 0.0006847399 -0.008838854 0.003798757
0001d0 67 37 7a bc cc 9b 9d 3b 2b 62 ea 3b 4c 77 c5 bc
       -0.015271998 0.004809832 0.007152816 -0.024104737
0001e0 49 87 34 ba 5c 90 b9 bc 70 c1 b9 3b cb ab 89 bc
       -0.0006886614 -0.022651844 0.0056688115 -0.01680555
0001f0 5b da a5 bc 9e 57 c0 bc 9c 9f 28 3a 34 58 38 bc
       -0.020245722 -0.02347928 0.0006432475 -0.011251498
000200 3b 43 94 bb c2 3a f6 bb c4 6a 24 b9 bf 58 67 bc
       -0.004524616 -0.0075143287 -0.00015680032 -0.01412028
000210 d4 d0 ba 3a 59 63 bc bb c8 74 d4 bc 4a 8f 93 3a
       0.001425291 -0.005749148 -0.025934592 0.0011257913
000220 01 c7 00 bd eb a4 50 bc 93 e7 9f bc 5e fe e6 bc
       -0.031439785 -0.012734632 -0.019519603 -0.028197464
000230 18 21 d6 bc 15 ba 12 ba 5a bc ee bc a0 d1 09 3c
       -0.026138827 -0.00055971864 -0.029142547 0.008411795
000240 94 01 15 3c b3 97 63 bc 2b 7a 37 b9 fb 50 2d 3c
       0.009094615 -0.013891148 -0.00017497751 0.010578389
000250 2c 30 2e 3c 1c 13 5c 3c e5 01 b7 3c 09 91 a2 bb
       0.010631602 0.01343229 0.02233977 -0.004961137
000260 61 78 41 3c 49 cd cf ba 57 fd a7 bb 4f b3 9f 3c
       0.011808486 -0.0015854026 -0.005126636 0.01949468
000270 66 c8 a0 3c 3a 50 73 3c 30 61 2e 3c 33 df 30 3c
       0.019626807 0.0148506705 0.0106432885 0.010795402
000280 ff 08 cb 3b 6d b2 b3 3a 06 fd 33 3c a2 35 60 bb
       0.006196141 0.0013709791 0.010985618 -0.0034211655
000290 45 49 58 3b c3 66 85 3c f5 90 2b 3c 80 a0 1a bb
       0.0033002656 0.016284352 0.010471572 -0.00235942
0002a0 f0 d6 26 ba 0e 80 94 bc 35 4c 1a bc e6 1f 8d 3c
       -0.00063644256 -0.018127467 -0.009417583 0.017227124
0002b0 62 b2 e7 3a f3 e7 5b bc 26 67 ce 3c 87 e9 72 3c
       0.0017677064 -0.013422 0.02519567 0.014826185
0002c0 d8 2a b5 3c 3f c5 b4 3a 2b d6 48 bc 7b 76 a0 bc
       0.022115156 0.0013791694 -0.012258093 -0.019587746
0002d0 99 a7 24 3c 3f e6 6d bc 13 92 6d bb 31 12 5a bc
       0.010049724 -0.014520227 -0.0036250397 -0.013310001
0002e0 e0 70 b3 bb f0 e4 61 bc c1 d5 ac 3b 42 fb cb bc
       -0.0054761022 -0.013787493 0.005274505 -0.024900082
0002f0 43 bc 57 bc 15 4d 42 3c d9 c3 f0 ba 4b 64 c1 bc
       -0.013167444 0.011859198 -0.0018368914 -0.023607394
000300 1e d1 b2 ba dd 64 81 bb 9d d3 45 3b f4 3a dd 3b
       -0.0013642644 -0.0039487914 0.0030185946 0.0067514125
000310 0e f8 83 bc 56 15 fb bc 89 56 88 3b e9 29 0c bd
       -0.016109493 -0.030649822 0.0041607064 -0.034219656
000320 12 96 a9 bb 43 b3 cc bc 18 9a 97 bc c7 9b 9d bb
       -0.0051753605 -0.024987822 -0.018506095 -0.00480983
000330 b7 be 6e bc 82 b4 f8 bc 20 d4 d9 bc dc ea a9 3b
       -0.014571837 -0.03035951 -0.026590407 0.005185468
000340 c6 0e ca bc 2a 12 83 3c 16 17 18 bc d4 c1 cc 3b
       -0.024665248 0.015999872 -0.009282848 0.006248692
000350 c2 bb 10 3c 6e 95 c3 3c 59 90 81 bc d8 6a 61 bc
       0.008833827 0.023874965 -0.0158159 -0.013758384
000360 5f 08 ac 3c 99 56 5a bc 51 30 a5 3c 6b b3 80 bc
       0.021000085 -0.013326311 0.02016464 -0.015710553
000370 35 48 c5 3b 9c 5c 59 bc b9 70 22 3c 31 05 24 bc
       0.0060205706 -0.013266709 0.0099145705 -0.010011003
000380 92 b3 d6 ba 5c ce 17 3c 57 6b 6c 3c 14 47 b1 bb
       -0.001638042 0.0092655085 0.014429889 -0.0054100845
000390 0d 3b 28 bb f9 90 b7 3a 2e bd 04 3c 26 8b 2c 3b
       -0.0025669963 0.0014004997 0.008101745 0.0026328056
0003a0 f3 6e 55 3c f1 3d 6b 3a d6 96 39 bb d1 84 a9 3c
       0.013026941 0.00089737686 -0.0028318665 0.020693215
0003b0 a6 24 e0 3b a0 f6 d7 ba ab b9 a1 3b 44 ae 8c 3c
       0.0068403063 -0.0016476698 0.0049354634 0.01717294
0003c0 62 e6 13 3c 69 bd 9f 3c e0 db 97 3b 29 fd 66 bc
       0.0090270955 0.019499497 0.0046343654 -0.014098444
0003d0 97 b8 9a bc 10 1f 8f bc 48 69 a1 bc 43 84 aa bc
       -0.018886847 -0.017470866 -0.019703522 -0.02081502
0003e0 cf ea 50 bb b1 f3 84 3c ea 1c 3e bc f5 fb 99 ba
       -0.0031878238 0.016229482 -0.011603573 -0.0011748063
0003f0 74 df aa bb f3 63 37 3b b8 75 46 bb 5f 3f 45 bb
       -0.005214626 0.0027983158 -0.0030282568 -0.0030097587

encoder.fc_mu.bias f4 [16]
000000 5b f7 ab 3b b8 41 d2 3c 58 03 e1 bb 4c 9a 19 3c
       0.005247993 0.025666103 -0.0068668537 0.009375166
000010 02 b4 7e bc 69 d8 d3 ba 0b fb 2b ba b0 76 03 3c
       -0.015545847 -0.0016162518 -0.00065605406 0.008023903
000020 37 3f 9e bc 51 d4 79 39 5f c1 83 3b 03 be fb bc
       -0.019317253 0.00023825585 0.0040208544 -0.030730253
000030 74 6e 58 3c 67 96 38 3a de b9 54 bb 56 fc 6b 3b
       0.013209928 0.00070414547 -0.0032459418 0.0036008558

encoder.fc_logvar.weight f4 [16, 2048]
000000 26 49 30 bb 81 89 31 bb 3b 76 f6 bb cf 8f df bb
       -0.0026899069 -0.0027090015 -0.0075214184 -0.0068225632
000010 ae ae d4 bb f7 8f c3 bb fa 35 b8 bb 01 19 cc bb
       -0.00649055 -0.0059680897 -0.005621669 -0.0062285666
000020 b6 5b aa bb e9 4c a4 bb 5c 10 a9 bb 62 e5 96 bb
       -0.005198921 -0.005014051 -0.005159421 -0.0046049813
000030 f6 91 a3 bb e8 45 84 bb 46 2e 94 bb a8 34 8f bb
       -0.004991765 -0.004036654 -0.004522118 -0.004370291
000040 47 df 7d bb 8b 73 94 bb df cd 87 bb 39 89 9a bb
       -0.003873782 -0.0045303754 -0.004144415 -0.0047160652
000050 60 ec 98 bb 1d 9b 89 bb a6 b3 9e bb b5 72 9f bb
       -0.00466685 -0.004199399 -0.004843193 -0.004865969
000060 49 f3 a8 bb eb 8f 9e bb a2 67 86 bb 49 01 a4 bb
       -0.005155955 -0.0048389337 -0.0041017095 -0.005005036
000070 54 ab a1 bb f6 49 9a bb b3 61 8f bb 5e 5f 7e bb
       -0.004933754 -0.004708524 -0.0043756603 -0.0038814167
000080 11 de 98 bb 7a 4e 86 bb f2 00 7f bb 91 8c 6d bb
       -0.0046651443 -0.0040987106 -0.0038910476 -0.0036247114
000090 92 af 24 3a 22 87 62 bb a3 c5 69 3a 5b ae 99 3a
       0.00062822655 -0.0034565409 0.0008917695 0.0011724936
0000a0 7f d5 97 3a e8 cf b4 3a b0 e5 c3 3a ff 27 da 3a
       0.0011584013 0.0013794871 0.0014945772 0.0016644
0000b0 30 a1 cd 3a b5 c9 a8 3a c1 84 ae 3a 04 e1 8d 3a
       0.0015688296 0.0012877496 0.001331471 0.0010824506
0000c0 fd 24 7a 3a 9a e3 49 3a 02 f6 2d 3a 12 16 0c 3a
       0.0009542255 0.0007701457 0.0006636084 0.0005343865
0000d0 ce 26 9b 39 4b 54 c5 38 57 8e 7a b7 ab 61 52 b9
       0.00029592816 9.409393e-05 -1.4934302e-05 -0.00020063545
0000e0 cc 99 d2 b9 ca ae 14 ba 47 47 33 ba 32 dd 4d ba
       -0.0004016891 -0.00056717976 -0.0006838929 -0.000785309
0000f0 3b ec 6f ba 3e 46 a0 bb d3 23 a3 bb 09 c1 98 bb
       -0.00091523275 -0.004891186 -0.004978636 -0.0046616835
000100 58 fb 98 bc a3 c9 89 bc 47 d4 30 bb b0 6c d9 bc
       -0.018674538 -0.01681978 -0.0026981996 -0.026541084
000110 00 5d e3 3b e8 84 ae 3b 8c 26 0f 3c d9 6e 9a bb
       0.0069385767 0.0053259023 0.008737218 -0.004712921
000120 4a 3f c4 3b 4c 54 b6 bc 28 94 79 bc 74 c0 82 3b
       0.00598899 -0.022256993 -0.015233077 0.0039902274
000130 32 40 83 bc 9d f4 cc bc fb 20 fe bc 72 51 04 bd
       -0.016021822 -0.025018984 -0.031021586 -0.032304235
000140 14 d5 08 3c 1d a2 fe bc 3f 9f 6f bc 84 e7 6e bc
       0.008351583 -0.031083161 -0.01462537 -0.014581565
000150 b0 80 19 3b eb 72 b3 bc 8e 4f b9 bb dc 65 f7 3b
       0.002342265 -0.021905383 -0.0056552356 0.0075499844
000160 ce 17 ec bc 84 a1 0e bd 06 cd c8 3b f9 32 eb bc
       -0.028819945 -0.034822002 0.0061279563 -0.02871083
000170 2d 38 99 3a b7 be 7d bc 4c 31 10 bd a6 30 85 bc
       0.0011689715 -0.0154873645 -0.035203263 -0.016258549
000180 b5 db aa bc 52 ec da b9 23 88 b3 bc 10 91 0d bd
       -0.020856718 -0.00041756273 -0.021915501 -0.03456217
000190 26 da db bc 37 6b bd bc 4e 86 58 bc 88 63 02 bc
       -0.02683742 -0.023122413 -0.0132156145 -0.0079583
0001a0 40 ce 9a 3b 57 e3 f4 bb 4d b6 d9 bc 7c 6f 33 bc
       0.004724294 -0.00747339 -0.026576186 -0.010951873
0001b0 37 2c a4 bb a7 bf ca bc f5 0b 0c bd b6 f8 96 ba
       -0.0050101536 -0.02474959 -0.03419109 -0.0011518213
0001c0 fc 2f f6 bc f1 19 bb bb 7b 3a e2 3b 73 c2 1f bb
       -0.030052178 -0.0057098796 0.006903944 -0.0024377375
0001d0 a0 2b f8 bc a9 b1 b7 bc 29 45 b8 bc 8c fa b5 bc
       -0.03029424 -0.022423582 -0.022493916 -0.022214197
0001e0 92 0c d0 bc d5 e5 f5 bb 98 8f 38 3b d5 21 5c bc
       -0.025396619 -0.0075042048 0.002816176 -0.013435801
0001f0 99 79 dc bc 88 7a 87 3b 14 d8 9e bc 66 7a dc bc
       -0.026913451 0.00413448 -0.019390143 -0.026913833
000200 32 f1 d7 bc e4 09 94 bb 73 63 dc bc 71 c8 92 bc
       -0.026360128 -0.0045177806 -0.02690289 -0.017917844
000210 4b bd 27 3c c5 d9 fe 3a 27 8a c4 bb cb 12 da bc
       0.010238002 0.0019443562 -0.0059979144 -0.02662029
000220 4b b8 c4 3a 40 da 1f 3c 16 23 e3 bc 97 c6 0d bc
       0.0015008537 0.009756625 -0.027726691 -0.008653305
000230 dc 99 1f 3c 87 4e 03 bc 2f 96 00 3c 2c 7e 5d bb
       0.009741273 -0.008014328 0.007848307 -0.0033797128
000240 c8 cf f0 bc bb ae ba bc 85 0f 48 3b 2b c5 1f 3c
       -0.029395953 -0.022788396 0.0030526828 0.009751598
000250 d4 19 d3 bc 65 1e 8f bc 3b 07 d6 bc c0 5d c7 bb
       -0.025769152 -0.017470548 -0.026126495 -0.006084174
000260 2d bd 33 3b 00 6c 87 bc ae 1b e3 3b b7 c6 8c bc
       0.002742599 -0.01653099 0.00693079 -0.017184598
000270 5a 22 07 bd f5 a7 77 bc 81 52 32 3b 32 e9 fe bc
       -0.032991745 -0.015115728 0.002720982 -0.031117056
000280 55 0a bc bc 98 93 b1 3b 65 7b 6d bb b0 c7 db bc
       -0.022954145 0.005419206 -0.003623688 -0.026828617
000290 7a 89 ea 3b 0e d8 24 bb 59 26 df bc 7e dd d0 bc
       0.0071575018 -0.0025153193 -0.027239965 -0.02549624
0002a0 cf 54 96 bb 38 e5 04 bd 29 80 16 bc 95 38 c5 bc
       -0.0045877467 -0.032445163 -0.009185829 -0.024074832
0002b0 6b 06 2a bc 1f 0a 0d bd ce e7 e7 bc 9f 87 af 3b
       -0.010377507 -0.03443348 -0.028308775 0.0053567435
0002c0 b0 d4 be bc 89 d3 59 bc 50 cb 04 bd 8b 44 0d bd
       -0.023294777 -0.013295063 -0.032420456 -0.034489196
0002d0 87 7c 7f ba 8d 38 85 ba f1 7c 03 3b c1 61 03 bd
       -0.0009746034 -0.0010163948 0.0020063485 -0.032075647
0002e0 e3 d5 00 bd fe 00 c0 bc 38 f7 40 3b d7 c5 c8 bc
       -0.03145398 -0.023437973 0.002944423 -0.0245084
0002f0 c6 f6 86 bc 5f 92 eb ba 33 d0 eb bc 18 d9 e4 bc
       -0.016475093 -0.0017972699 -0.0287858 -0.02793555
000300 14 9f 0c bc 88 9b da bc 7b 8a 07 bc ce ff 5b bb
       -0.008582849 -0.026685491 -0.008272762 -0.003356922
000310 4a 38 60 bc 35 57 82 3b 42 ae 96 39 4c ff e0 bc
       -0.013685295 0.003977681 0.00028740062 -0.027465485
000320 f8 2e f3 bc f2 da 0e 3c a9 06 94 bc 82 5b 32 3b
       -0.029685482 0.008719193 -0.018069582 0.0027215187
000330 8c 49 a4 bc 48 4f db ba 7e 56 22 bc cd 2f e9 bc
       -0.020054601 -0.0016732002 -0.009908317 -0.028465176
000340 b1 27 9e bc c6 20 b6 bc 9b e8 1f bc 9e 7d fa bc
       -0.019306036 -0.022232424 -0.009760047 -0.030577477
000350 da 55 b4 bb 1a 6a d6 bc 46 df d4 bc 40 79 e5 bc
       -0.0055033984 -0.02617364 -0.025985371 -0.028011918
000360 2e 1a 23 3c f2 ba c4 bb 5d 66 de bc 2e da c2 bc
       0.009954972 -0.006003731 -0.02714842 -0.023785677
000370 f5 af 88 bb 22 4f 00 bd 35 8f 02 3b d1 c9 26 bc
       -0.0041713663 -0.031325467 0.0019921784 -0.010179953
000380 4f 40 22 bc 19 6a 7b 3b 39 25 5e bb 83 a4 32 bb
       -0.009903028 0.00383628 -0.0033896698 -0.00272587
000390 e0 4b 3e bc 6a 4f a3 bb 5f ec 9d bc a8 c5 de bc
       -0.01161477 -0.004983832 -0.01927775 -0.02719386
0003a0 0b 11 14 bd 01 e1 03 bd b3 41 13 bd 6c f7 69 bc
       -0.036149066 -0.032197002 -0.035951328 -0.014280181
0003b0 70 36 ff bc fa 64 0a bd 65 0f 04 bc 4b 4c 67 bc
       -0.031153888 -0.033787705 -0.008060311 -0.014117311
0003c0 04 81 9b bc 45 96 1a 38 b6 c8 ae bc f1 c6 ff bc
       -0.018982418 3.685641e-05 -0.02133594 -0.031222792
0003d0 d7 58 a3 bc bc a0 f4 b9 76 d4 ce bb 3c 6b 31 3b
       -0.019939823 -0.00046659063 -0.0063119484 0.0027071973
0003e0 ce c3 8b bc 30 3b 01 bd e2 55 03 3c 07 a5 cf bc
       -0.01706114 -0.031550586 0.0080160815 -0.025347246
0003f0 ae 94 04 bd ff 86 f5 3a da ca a2 3b b5 59 79 bc
       -0.032368354 0.0018732249 0.0049680294 -0.015219142

encoder.fc_logvar.bias f4 [16]
000000 5c e1 8d bc 07 da 67 3b 4e 73 0e bd e6 a6 dc 3b
       -0.017319374 0.0035377757 -0.034777932 0.006733763
000010 8f 16 1b bc 1d 10 83 bc 5b 52 cf bc 9d 4e a2 bb
       -0.009465828 -0.015998894 -0.025307825 -0.004953219
000020 98 30 87 3a 93 7f 1a bb da 45 0e bd 78 a7 fe bc
       0.0010314165 -0.0023574575 -0.034734584 -0.031085715
000030 e2 f0 1c bc 38 69 03 bb b4 f6 c1 bc 71 9f 3f bc
       -0.009578915 -0.002005173 -0.023677208 -0.011695729

decoder.fc.weight f4 [2048, 16]
000000 23 fc fe 3d 83 92 9e bd ca 70 03 3e c4 01 f8 3d
       0.12450435 -0.07742789 0.12835994 0.12109712
000010 c9 94 10 3e 53 f3 12 be 22 c4 54 be 43 89 1f be
       0.14119257 -0.14350633 -0.20777944 -0.15579705
000020 b4 bd 3a be a0 fe 3a 3d a7 d2 79 3e bf 26 83 be
       -0.18236428 0.045652986 0.24396764 -0.25615498
000030 24 1e 90 3e 6d 6c 1f 3e 60 be b1 3d 0a 7d 21 be
       0.28147995 0.15568705 0.08678889 -0.15770355
000040 ce 9e 9b be a4 a8 fe bd a9 8c 05 3e d5 5a 6d 3e
       -0.30394596 -0.124345094 0.13041939 0.23179181
000050 11 b6 ab ba 44 a4 23 3e 96 b2 15 3e d3 af 92 3d
       -0.0013100525 0.15980631 0.14618906 0.07162442
000060 35 93 48 3e cb 9f 60 3d 0c 04 3c 3c 26 f1 7e be
       0.19587405 0.05483989 0.011475574 -0.24896678
000070 64 8a fa bc 6a c5 a4 bd af 6b 7c bd d5 8c 7c 3e
       -0.030583568 -0.08045466 -0.061626133 0.24663098
000080 ce 41 5a be 23 9d c2 bd 3f a8 47 3c c7 14 f5 3d
       -0.21314165 -0.09502628 0.012186109 0.119668536
000090 85 a6 86 3d 21 7d cf bd 65 0c 5c be 67 9d 20 be
       0.0657473 -0.10131288 -0.21489103 -0.15685044
0000a0 39 58 3a 3e 2b c1 4d be 09 df fa 3c f3 e2 17 be
       0.18197717 -0.20093219 0.03062393 -0.14832668
0000b0 97 b2 a3 3d 83 8b 04 bd e4 a7 34 3e 75 5f 49 bd
       0.07993048 -0.03235961 0.1764217 -0.0491633
0000c0 73 1a d3 3c b0 9a e9 3c f9 b5 95 3d 20 c4 b2 3d
       0.025769448 0.028516144 0.07310099 0.08728814
0000d0 cc 43 8e 3d 17 02 c5 3b ac 8e c6 3d 55 6b 5f be
       0.06946525 0.006012212 0.09695181 -0.21818288
0000e0 70 5e 90 3d ad a6 8c bd d6 f3 a7 3d 0e 26 86 3d
       0.070492625 -0.068677284 0.08200805 0.06550227
0000f0 f3 1a eb bd a4 87 13 be 15 8c ce 3d 74 5f fe bd
       -0.114797495 -0.14407212 0.10085312 -0.1242055
000100 57 6c 54 3d 7a b7 ad 3d 3c 2b b1 bd 61 a1 cd 3d
       0.051861133 0.08482261 -0.086508244 0.10040546
000110 75 6b 84 bd ec 26 a2 3c 04 bb b1 bc cf 9f 44 be
       -0.06465808 0.01979395 -0.021695621 -0.19201587
000120 32 b6 90 bd 67 87 e2 3d ff ff 1a be c7 12 96 3b
       -0.07066001 0.11060982 -0.15136717 0.004579875
000130 65 08 dd 3d 57 29 0e 3e 49 28 20 bd d1 22 b6 bc
       0.10792617 0.13882957 -0.03910092 -0.022233399
000140 11 1a 30 be 49 61 9a 3d d0 ef 18 3e 35 79 a7 bd
       -0.17197444 0.07538087 0.14935231 -0.08177415
000150 15 e6 1c 3e 6d f8 dd 3d f2 dd 2d be cf 0f 07 3e
       0.15322144 0.10838399 -0.16979197 0.13189624
000160 2b e2 7b 3d f1 d2 bd bd 26 d8 ea 3c 47 ba ea 3b
       0.061494987 -0.092687495 0.02866752 0.0071633193
000170 63 99 19 bd bd d6 9a 3d 3a 50 14 be 15 f5 1b 3e
       -0.037499797 0.07560489 -0.14483729 0.1523021
000180 c7 b2 d6 bd ea 20 1b be a0 ef 0a be 90 b2 69 3e
       -0.10483318 -0.15149274 -0.13567972 0.22822022
000190 aa e4 ce bd dd 66 d7 3c 28 82 10 bc 50 2a a3 bc
       -0.10102208 0.026294166 -0.008820094 -0.019917637
0001a0 d4 f4 b0 3d d2 43 cb 3d dc 8a 33 bd 31 98 fe bd
       0.08640447 0.09925045 -0.0438336 -0.12431372
0001b0 dc ec fa bb ba 51 6e be c1 b1 07 3e 62 f1 03 be
       -0.0076576304 -0.23273364 0.13251401 -0.12885049
0001c0 8c fb a0 bb 05 4e 6b be 3d 4f 29 be 4b 29 a8 bd
       -0.004912799 -0.22978981 -0.16534133 -0.08211001
0001d0 14 93 f6 bd c9 ae 29 3c 9c 1c 43 3e be c8 28 be
       -0.12039772 0.010356613 0.19053882 -0.16482827
0001e0 11 06 78 bc 00 b7 b6 3d 30 95 28 be 34 a4 b1 3c
       -0.015138165 0.08921623 -0.1646316 0.021684743
0001f0 c0 72 45 3c 49 59 6f bc 7f b5 c6 3d 79 d5 b4 bd
       0.012051284 -0.01460869 0.097025864 -0.08829779
000200 f7 8f b6 bd 11 b1 0a 3e c8 0f 1c be 33 b9 c6 3c
       -0.08914178 0.13544108 -0.15240395 0.024258232
000210 17 e8 41 3e bf fb 36 bd 59 cf 2e bd 39 51 41 be
       0.18936191 -0.044673678 -0.04267821 -0.1887864
000220 65 29 fa 3b b4 c5 ba 3d 58 81 0f 3d 0a 06 2d 3e
       0.007634329 0.0911974 0.03503546 0.16896835
000230 aa 30 e9 bc 62 fc 0f 3e 85 d3 55 3d 78 83 48 be
       -0.028465588 0.1406112 0.052203674 -0.19581401
000240 d8 07 28 3e 7c 34 56 3a 1e 56 7e be c7 6b 60 bd
       0.16409242 0.0008171273 -0.24837539 -0.054790284
000250 2d ed 24 be a6 a3 7d 3c 44 52 1e be 09 9d 6c bd
       -0.161061 0.015480911 -0.1546107 -0.057766948
000260 3c 9e af 3c 9c c0 ae bd 0e ac 97 bc 5b 96 c3 bd
       0.021437757 -0.08532831 -0.01851466 -0.095501624
000270 39 55 3b 3e c9 85 57 3a 3f e4 82 3e 1e db d3 3d
       0.18294229 0.00082215347 0.25564763 0.10344528
000280 e3 89 8b be a8 72 25 be 41 bf d6 bd 30 4d 3b be
       -0.27253637 -0.16157019 -0.104856975 -0.18291163
000290 c4 87 3a 3e fb a9 c2 3d 24 01 d7 bc e5 89 5d be
       0.18215853 0.095050775 -0.026245661 -0.21634634
0002a0 9e 3b 1c 3e 5c 3e 99 bd 27 87 41 3d 52 aa 78 bd
       0.15257117 -0.07482597 0.047248032 -0.060709305
0002b0 40 7f 3a be ae 16 76 3c 9d f0 3f bd 10 e0 5c be
       -0.18212605 0.015020056 -0.046860326 -0.21569848
0002c0 99 ee e8 3c ae 37 ce bd 26 aa 0f be c2 a1 dd 3c
       0.028434085 -0.10069214 -0.1402975 0.027054671
0002d0 9c 6a 47 bd e0 a0 0a be e3 8b fb bd 20 e8 9d bd
       -0.048685655 -0.13537931 -0.12282541 -0.0771029
0002e0 ab 8f 06 be 28 61 e6 bd 76 5f 89 3d 7b 68 0a 3e
       -0.13140742 -0.11249 0.06707661 0.13516419
0002f0 a4 09 b9 3d 8f 1c 1f 3e ff 94 9f 3e b5 8b ff 3d
       0.09035042 0.15538238 0.31168362 0.12477819
000300 e1 f4 3d bd 00 14 ea 3d 1f 6a 8f bc b7 bd e3 bd
       -0.046376113 0.11429596 -0.017506657 -0.111201696
000310 19 93 a0 bd 63 c5 89 3e f1 23 30 be 69 f0 3a be
       -0.07840557 0.26908407 -0.1720121 -0.18255772
000320 c0 94 f5 bd dd 2c d0 3d e9 4a c0 3c 0b 5b 76 bc
       -0.119912624 0.10164807 0.02347322 -0.015036355
000330 d7 e6 2e 3e 30 83 00 3d 33 63 f9 bc 85 f8 3c bd
       0.17080246 0.03137511 -0.03044281 -0.046135444
000340 27 02 0f be 70 23 1e bd 68 01 03 3e 38 e4 0e 3e
       -0.13965665 -0.038608015 0.12793505 0.13954246
000350 7f 9d 2d 3e 79 97 00 be c1 8b cc 3c 3c e4 50 be
       0.16954611 -0.12557782 0.024968984 -0.20399565
000360 f2 dd 49 3c 60 6d 93 bd 7d ac 04 3e 08 23 d6 bd
       0.012320982 -0.07198596 0.12956424 -0.104559004
000370 51 f0 fe bc a0 2c 6f bd 0f f3 a5 3d 66 af 1d 3c
       -0.031120451 -0.058392167 0.081030004 0.009624338
000380 21 f0 02 be 00 44 aa 3a bb 62 21 bc 37 f3 9a 3d
       -0.12786914 0.0012990236 -0.009850199 0.07565921
000390 68 9a 39 be cc 0d 3b 3e 9f 70 21 3d 55 d2 21 3d
       -0.18125308 0.18266982 0.039414044 0.03950723
0003a0 24 36 0a 3e 8c 5c be 3c 37 b3 22 3c be 22 db 3d
       0.13497216 0.02323749 0.009930423 0.10699986
0003b0 66 b7 f2 3d b3 83 9e 3d dd 47 06 be 0f 04 bf 3d
       0.11851387 0.077399634 -0.13113351 0.09326946
0003c0 59 81 89 bc 42 0a 4f be 9e a0 be bd 2e cf 33 be
       -0.01678531 -0.20218757 -0.09307979 -0.17559502
0003d0 17 50 97 3d bc ae 4c bc 3b aa 86 bd bf 8d 1a be
       0.07388323 -0.012492832 -0.06575438 -0.15093134
0003e0 d4 d2 0b 3d 74 e8 4e be 7c b7 29 3e dc be f1 3d
       0.03413661 -0.20205861 0.165739 0.11803982
0003f0 d6 ff f8 3c a1 66 95 bd b8 88 f9 bd 24 f8 2f be
       0.03039543 -0.072949655 -0.1218428 -0.17184502

decoder.fc.bias f4 [2048]
000000 d0 52 6e 3d 1d b8 41 be fb 1a 38 3e 37 ac 83 3e
       0.058184445 -0.1891789 0.17979042 0.25717327
000010 75 b0 d4 3c c3 a9 44 3e 57 ba 0c be df 0e 39 3e
       0.025963048 0.19205384 -0.13742958 0.18072079
000020 1a a6 ae bc 78 3b 93 bd b2 ba d2 3d ef 02 d3 bd
       -0.021319438 -0.07189077 0.102895156 -0.10303294
000030 ba f9 23 be 82 f8 24 be 21 d4 ea 3d 7c 82 53 be
       -0.16013232 -0.16110423 0.11466242 -0.20655245
000040 12 e6 3f 3e d0 f0 05 be 78 45 2d be 6c 3f 0b be
       0.18740109 -0.13080144 -0.16921031 -0.13598412
000050 ee 6c 87 3d 8c fa de 3c 03 ec 3b be 24 1f 56 be
       0.066125736 0.02721908 -0.1835175 -0.20910317
000060 66 ae 86 3d 5c ae 1f 3e e2 c1 1f 3e ad 41 00 3e
       0.065762326 0.15593857 0.15601304 0.12525053
000070 7e d1 1e be 07 3d 80 bd 58 c4 7d be 54 16 17 bd
       -0.15509602 -0.0626164 -0.2478193 -0.036886528
000080 59 b0 65 be 3f 02 19 3e 6e 38 12 3e 9b 88 48 bd
       -0.22430553 0.14942263 0.14279339 -0.048958402
000090 29 ff 27 3e 0f 5e f9 bd 37 7f e3 3d bb 81 cb ba
       0.1640593 -0.121761434 0.11108249 -0.0015526334
0000a0 54 89 df ba 5a 4d f9 bd b9 7e 2d be 3f 7e 6b be
       -0.0017054477 -0.12172957 -0.16942872 -0.22997378
0000b0 c4 ee 14 be ea 8a 62 be e2 b5 b0 bd 90 a5 04 be
       -0.14544207 -0.22123304 -0.086284414 -0.12953782
0000c0 15 2e 9a bd 1a 1c ff 3c 25 f0 11 bd 80 20 21 be
       -0.07528321 0.03114133 -0.03562941 -0.15735054
0000d0 ed 5d 83 3d ab 01 54 be da 76 84 3d 9b 4d 35 be
       0.06414399 -0.20703761 0.06467982 -0.17705385
0000e0 30 a1 87 be bb c0 72 be bd 68 39 be 47 74 9f 3c
       -0.26490164 -0.23706333 -0.1810636 0.019464625
0000f0 c1 0e a5 bc 8d dc 8a be ed 04 b5 bd 50 f2 a0 be
       -0.020148637 -0.27121392 -0.0883883 -0.3143487
000100 3f dc 44 be 44 10 f3 3c 31 09 5d 3e ea af 87 be
       -0.19224642 0.029670842 0.21585537 -0.265014
000110 ec 3c 03 3e e1 14 9d bd 2e b8 06 3e 56 9b 0c be
       0.12816209 -0.07669998 0.13156196 -0.13731131
000120 1d ad 69 3d 72 8c e1 bc 46 26 95 bd 46 14 6f 3d
       0.05704986 -0.02753279 -0.07282691 0.058368944
000130 9b 60 1d be bc b7 23 be 5e 72 a2 bd 09 fb 2d 3d
       -0.15368883 -0.15988058 -0.0793197 0.042475734
000140 96 51 58 be 89 69 00 3e 52 aa e4 bd 01 65 5c 3d
       -0.21124873 0.12540258 -0.111652985 0.053807262
000150 e8 7a 02 be 98 ff e2 3b fe 92 a6 bd cb 8c 64 3e
       -0.12742198 0.006927442 -0.08133505 0.22319333
000160 43 fc 45 3e d7 59 6f 3e 08 58 6c bd be 59 47 be
       0.19334511 0.23374115 -0.05770114 -0.19467828
000170 e1 0e 2b be 9d f5 67 be 4a 7e 7c 3e 59 9f 88 bd
       -0.16704895 -0.22652288 0.2465755 -0.06671018
000180 76 0a 12 be 56 72 73 3d d3 a6 13 3d 42 8b 4d 3e
       -0.14261803 0.05943521 0.036047768 0.20072654
000190 67 60 25 3d d7 c6 21 be 4a 11 fd bd 4d 83 70 3c
       0.04037514 -0.15798508 -0.12356813 0.014679742
0001a0 d9 f9 89 bd ad 28 72 3e 85 42 d3 3d 67 13 64 bd
       -0.06737108 0.23648329 0.10315422 -0.055682566
0001b0 21 4c 8a 3e f7 24 59 be 5b 7d 74 3e 17 7f 56 bc
       0.27011207 -0.21205507 0.23875944 -0.013091824
0001c0 ca 95 d1 3d bf 17 ff bd 93 27 31 be bb 18 17 3e
       0.10233648 -0.12455701 -0.17300253 0.14755528
0001d0 00 e8 d9 bd 4c 01 0e 3e 65 8f 35 3e e5 50 96 bd
       -0.106399536 0.13867682 0.17730482 -0.07339648
0001e0 83 a5 4b be 71 93 06 3d dc 9e 4f be 1c e5 85 3e
       -0.19887356 0.032855455 -0.20275444 0.2615136
0001f0 23 ac 50 3e dd bb 51 3e b1 5e f0 39 7e fb 9f 3e
       0.20378165 0.2048182 0.00045846918 0.3124656
000200 e4 63 8f 3d a0 37 ec 3d 2a 8f 33 be a5 cf 81 bd
       0.070014745 0.11534047 -0.17535082 -0.06338433
000210 f6 50 55 be a1 06 8e 3d eb f4 1b 3e c8 68 00 3e
       -0.20831665 0.06934858 0.15230148 0.12539971
000220 d5 94 5c bd 11 6d 29 be ed 3a 02 3c 98 82 63 be
       -0.053852875 -0.16545512 0.007948619 -0.22217786
000230 7b 7c 0b 3e 24 8f f2 3d 82 98 28 bd c2 c0 64 be
       0.13621704 0.11843708 -0.041161068 -0.22339156
000240 93 57 db bd 41 e5 2d be b9 44 01 3e a9 48 44 be
       -0.10710063 -0.16981985 0.12623872 -0.19168343
000250 61 db 6b ba 28 51 d5 bd 59 e4 61 bd 28 77 a1 bd
       -0.00089972286 -0.1041587 -0.05514941 -0.078840554
000260 d8 d1 40 be f5 73 32 be 29 ae bb bd ed a3 0f 3e
       -0.18830049 -0.17427047 -0.09164078 0.14027376
000270 18 2e 45 3e 4f 19 b0 3b e1 30 0a bd bf 2b 03 3d
       0.19255865 0.005374111 -0.03373802 0.03202414
000280 22 3f 0b 3e 62 cc bc bd f4 94 ce 3d 5a cc 50 bb
       0.13598302 -0.092186704 0.10087004 -0.0031860084
000290 b8 5c 11 be 38 c9 33 be 74 91 65 be 75 db 02 be
       -0.14195526 -0.17557228 -0.22418767 -0.12779029
0002a0 83 33 f8 bc a6 46 5a 3e ad 38 9c bd 68 0e 35 3e
       -0.030298 0.21316013 -0.076279975 0.17681277
0002b0 0c 0d 31 3e 14 6d 2a 3d f2 6c f1 3d d5 e3 60 3e
       0.17290133 0.04160793 0.11788358 0.21961911
0002c0 cd 0c 42 3e b3 da 05 3e 31 88 42 be 37 9f 3b 3e
       0.18950196 0.13071708 -0.18997265 0.18322454
0002d0 c8 cd 93 3e 1f 7e 88 3e 2d 8d 77 3e 40 14 4c be
       0.28867936 0.26658723 0.24174948 -0.199296
0002e0 c7 0c 05 3e 51 db b9 bd 02 57 bb 3d a3 20 81 3e
       0.12993155 -0.090750344 0.09147455 0.25220212
0002f0 c8 21 14 3e 03 f7 7c bc d5 ba bb bd 62 b3 f8 bb
       0.14466012 -0.015439752 -0.09166495 -0.0075897435
000300 fd ab 7d 3e 38 a9 86 3e 07 b5 19 3d 7e f1 34 3c
       0.2477264 0.2630098 0.037526157 0.011043904
000310 8d 98 1c 3e 47 1b bf bd d6 07 75 3e a9 e4 dc bd
       0.15292569 -0.093313746 0.2392877 -0.10785801
000320 2e 19 cc 3d 2e 7c e3 bd 91 31 2e 3c bc cd 62 3e
       0.0996574 -0.1110767 0.010631935 0.22148794
000330 aa f4 20 be 9c b9 e6 3c 75 a5 82 3e 7d bb 40 3d
       -0.15718332 0.028164677 0.2551686 0.047053803
000340 d0 05 98 bd ca 93 1d be cd 5b c2 3d 0c 41 68 3e
       -0.07422984 -0.15388408 0.09490166 0.22681063
000350 ff 0c 14 3e b4 cf 7e bd a6 7d 92 bd 69 8c 0a 3e
       0.14458083 -0.0622098 -0.07152872 0.13530125
000360 82 2f cb bd 82 59 21 bd 21 dd b8 3c f2 70 a8 bb
       -0.09921171 -0.039392002 0.02256638 -0.0051404173
000370 42 b5 1f bd 32 cc 79 3e e9 a8 52 bc ce a5 4b 3d
       -0.03899122 0.243943 -0.012857654 0.04971867
000380 69 cc a9 bd ca a6 ed 3b 01 83 83 3e f1 9d c1 3c
       -0.08290941 0.007252549 0.25685886 0.023634883
000390 58 e4 09 be 81 ea 8c 3e 81 62 8a 3e c7 9b 1c 3e
       -0.13466012 0.27522662 0.27028278 0.152938
0003a0 2c a0 d6 bd 86 3e 91 bb a1 e7 1d 3e 0d 1b 20 3e
       -0.10479769 -0.004432502 0.1542039 0.15635319
0003b0 22 9e b7 bc cf 71 29 be 5c bc 7c 3e 70 30 0a be
       -0.02241427 -0.16547321 0.24681228 -0.1349504
0003c0 a0 8a 07 3d 42 80 43 be 01 78 87 3d 65 68 ea bd
       0.033091187 -0.19091895 0.06614686 -0.11445693
0003d0 01 0b 0c 3e 51 39 31 be 77 a2 1d 3e 01 a0 e7 3d
       0.13676073 -0.1730702 0.15394007 0.11309815
0003e0 ee f1 3c 3e 10 d9 b1 3d e6 87 11 be 2b 51 99 bd
       0.18451664 0.086839795 -0.14211997 -0.07486185
0003f0 d9 7a 82 bc d2 ee a6 bd fa c1 1e be b8 9a 75 be
       -0.015927719 -0.0815102 -0.15503684 -0.23984802

decoder.conv2.weight f4 [32, 16, 4]
000000 c0 f1 b9 bd 69 7c 43 be 19 3e 5d be fe b8 03 be
       -0.09079313 -0.19090427 -0.2160572 -0.12863538
000010 4e c0 c1 bd 6d 2c 7f bd 8c 47 d7 bd 17 fd 93 bd
       -0.09460507 -0.062298227 -0.10511693 -0.072260074
000020 67 c6 c3 3b 8c c7 f4 3d ea cd 6a 3d 46 4b cf 3b
       0.005974579 0.11952123 0.05732528 0.006326112
000030 4e 29 4e 3c ff cb 8e bb 46 bd 1b 3d 85 34 53 bd
       0.01258309 -0.0043578143 0.038022302 -0.05156376
000040 d3 f5 88 bd 06 b0 bd bc e7 89 03 3d a7 d7 b8 bd
       -0.06687512 -0.023155224 0.032113936 -0.090255074
000050 95 af 48 bd e5 e4 8d 3c e6 77 c4 bb 36 1b de bd
       -0.048995573 0.01732106 -0.0059957383 -0.10845034
000060 a9 08 95 3d bf 9c d4 bd 87 12 7e 3c 74 c8 1d be
       0.072770424 -0.103814594 0.015507347 -0.15408498
000070 b9 6f e1 3c 82 73 dc 3b 72 66 1d bd ca 4d 6e 3d
       0.027519094 0.006727637 -0.038427778 0.058179654
000080 4b fa c7 3a 51 2e 27 3d cc 5f 39 bd a3 da 45 bd
       0.0015257088 0.040815655 -0.045257375 -0.04830421
000090 6b b2 23 bd 3c 20 ee 3c d9 07 47 bd ad 39 73 3d
       -0.039965075 0.029068105 -0.04859147 0.059381176
0000a0 84 96 9a bd 2c 29 6f bd b5 04 c3 bd 78 83 aa bd
       -0.0754824 -0.058388874 -0.09522382 -0.08325857
0000b0 ca 19 0d 3d 10 e6 24 3d 3b 12 63 bd 9b 23 bf bd
       0.034448422 0.040258467 -0.055437308 -0.09332963
0000c0 1a a9 e0 bd 55 09 4e bc b8 cd ef bd 31 43 03 3d
       -0.109697536 -0.012575467 -0.117091596 0.0320465
0000d0 ca e8 29 be a2 14 7e bd be 2f b1 bd 58 92 eb bd
       -0.16592708 -0.062031396 -0.08651684 -0.11502522
0000e0 1a 9f 1a 3d b1 50 3b bc ed 98 d5 bd 0a 5d 09 3d
       0.037749387 -0.011432813 -0.10429559 0.033535995
0000f0 01 d7 c5 bd 27 ee 41 3c 3b 13 c2 bd 5d b2 1f bd
       -0.09660149 0.011836565 -0.09476324 -0.03898846
000100 d3 c6 6b 3d 1f fa 90 3d cf ab d2 3d 73 54 37 3d
       0.05756266 0.07078957 0.10286676 0.04475827
000110 b4 1a 53 bd 74 e2 62 bd b4 a5 a3 3d 40 3e 36 bd
       -0.051539138 -0.055391744 0.0799059 -0.04449296
000120 a4 17 a2 bd 2d 2e ab bd c9 db fd bd 78 b9 81 bd
       -0.07914665 -0.08358417 -0.12395436 -0.063342035
000130 07 8d 9b bd c2 50 93 bd 14 ac 96 bd bb eb b4 3d
       -0.07595258 -0.07193138 -0.0735704 0.088340245
000140 89 1a 06 3d 37 b8 99 3d a1 74 d8 3c 6c 52 e4 3d
       0.03274015 0.07505839 0.0264228 0.11148533
000150 97 94 0c 3d 87 6a 68 bd 15 89 30 bd f2 58 d7 3c
       0.034321394 -0.056742217 -0.04309948 0.02628753
000160 5f 04 b6 3d a2 1f bc bd 43 ad c2 3d d6 45 8e 3d
       0.088875525 -0.09185721 0.09505703 0.06946914
000170 79 08 e6 3d 27 e8 8c bd c9 76 a1 3d a3 bc 9a 3b
       0.11232085 -0.06880217 0.078839846 0.0047221943
000180 e1 63 c6 3d 62 79 18 bc 53 0a 5f 3d 54 e7 8e 3b
       0.09687019 -0.009306284 0.054453205 0.0043610726
000190 b7 79 f9 3c d8 e8 c5 bd 5c f9 a4 bd 5f 7e 60 bd
       0.030453546 -0.09663552 -0.08055374 -0.054808017
0001a0 97 b5 86 3d 96 d6 2c bd 6a 70 c0 bd 06 70 b3 3d
       0.06577604 -0.042196833 -0.09396441 0.08761601
0001b0 77 40 e2 bb ee fa 54 3c cc c3 82 bd 59 cd 60 bd
       -0.0069046575 0.012999279 -0.063850015 -0.054883335
0001c0 01 44 be 3c 63 4d e0 3c 85 8c c6 3d d1 bc 02 3d
       0.023225786 0.02738065 0.09694771 0.03191835
0001d0 92 dc 47 3b e1 4a 29 3d 2b 1e 00 bb 1b c8 13 3e
       0.003049646 0.041331176 -0.0019549232 0.14431803
0001e0 d4 4e 63 bd 49 5f 88 bd db 77 68 bd 62 1d 25 3c
       -0.0554951 -0.06658799 -0.056754928 0.010077806
0001f0 45 9b 39 3d 75 67 57 bb 4b 20 a8 3b b2 cc 5b bc
       0.045314092 -0.0032868062 0.0051308027 -0.013415502
000200 41 93 44 3e 50 48 f9 bb f2 eb a9 3c 51 ef 26 3e
       0.19196798 -0.0076074973 0.02074239 0.1630223
000210 45 25 0e 3d a7 98 9c 3c 51 ff 12 3c 04 1e 03 3e
       0.03470351 0.019115759 0.008972005 0.12804419
000220 27 d2 20 bb bf fb 92 bc 9b f4 13 bc 2e 27 bd bd
       -0.0024539323 -0.017942308 -0.009030486 -0.092359886
000230 5f 37 62 bd e2 8c bb bd d2 2a c6 bd 93 4b 80 bd
       -0.055228587 -0.09157731 -0.09676136 -0.06264415
000240 23 9a a1 3d 37 e9 6a 3d d6 31 f9 3c 2f dd 9d 3d
       0.07890727 0.057351317 0.030419271 0.07708203
000250 f5 58 23 3c 63 f5 b1 bc a6 92 0a bd 3c 7e d6 bc
       0.0099699395 -0.021723455 -0.03383126 -0.02618324
000260 73 07 c1 3d 7d 78 a8 3d 66 9a 98 3d 05 6e 49 3d
       0.09425249 0.08226106 0.07451324 0.04917719
000270 38 74 c0 bc 6c 15 58 3d 24 14 91 3d ee 54 4d ba
       -0.023492917 0.052754804 0.0708392 -0.0007832785
000280 74 ce 05 3d 82 1b 32 3d 94 04 06 3e 09 e6 c4 3d
       0.032667592 0.043483265 0.13087684 0.09614188
000290 93 6e 95 bc 42 8b f3 bc f7 cb 4d 3d 91 b5 cd 3c
       -0.018241202 -0.02972949 0.050243344 0.025110992
0002a0 4c 76 92 3b e2 2d 28 3d 8c bb bd 3c 54 92 bb bc
       0.0044696685 0.041059382 0.023160718 -0.022896923
0002b0 18 3f 9c bd 6b a8 7c bd 79 f3 1a 3d e7 16 a3 3d
       -0.07629222 -0.061684053 0.03782985 0.07963353
0002c0 0c 23 49 3d 58 2b 09 3e 63 1e e0 3d e7 25 e4 3d
       0.04910569 0.1339544 0.10943296 0.11140042
0002d0 06 7c 98 bd f1 c7 4b 3d 14 6d 1a 3e f8 9d 0f bd
       -0.074455306 0.049751226 0.15080673 -0.03506276
0002e0 0a cc 8b bd 93 d3 31 bd 8d f5 18 3d f9 bf c1 bb
       -0.06826027 -0.043414664 0.03734355 -0.0059127775
0002f0 1f 60 59 bd 5a 5e 35 3b 92 1d c2 3d e5 72 71 3d
       -0.053070184 0.0027674646 0.09478296 0.058947463
000300 3c a0 88 3d 38 3d 4f 3c fb 91 ee 3d 32 b8 10 3e
       0.06671187 0.012648873 0.11648937 0.14132765
000310 28 89 3f bd a2 da bf 3d 5d 74 ee 3c 8f 78 91 3d
       -0.04676166 0.09367873 0.02910822 0.07103073
000320 ed 2a b9 3c f2 29 9c bd cc 6d 8f bd 48 1e a1 39
       0.022603476 -0.07625188 -0.07003364 0.00030730874
000330 fd a5 2f bd c8 0f a4 bd 83 4c b0 bd 46 0b 2a bd
       -0.042882908 -0.080108225 -0.086083435 -0.041514657
000340 c7 7f 29 bd 78 6c 20 bd f0 11 01 be 27 03 a8 bd
       -0.041381624 -0.039165944 -0.12604499 -0.08203726
000350 2a 11 76 bd 71 65 22 bb c2 d4 d3 3c c8 a8 c3 3c
       -0.060074963 -0.0024779702 0.025858287 0.023884192
000360 7e 08 01 3d 43 f5 4a bb b5 5b e2 bd 40 89 96 3c
       0.03150224 -0.0030968941 -0.11052648 0.018375993
000370 cb bb 97 3d 29 40 03 3e 13 6f 30 bd 97 31 4d bd
       0.074088655 0.12817444 -0.04307468 -0.05009612
000380 8c 44 1d 3d 9f bb 79 bd 1e 55 9c bd 53 97 01 3d
       0.03839545 -0.060969945 -0.07633422 0.031638455
000390 28 53 06 bd d5 bc 8a bd 7c 46 dc bc d8 a8 53 3c
       -0.032794148 -0.06774298 -0.026889078 0.012918673
0003a0 ac 86 97 bd 88 b1 4f 3d da 88 f2 3c ea 28 02 bc
       -0.073987335 0.050706416 0.029606272 -0.007944325
0003b0 67 3a b1 3c 08 65 a3 bc 30 8d 00 3c 6c 5f a5 bd
       0.021634294 -0.019945636 0.007846162 -0.08074841
0003c0 8d 15 e7 bc b7 88 4a 3d d8 d3 a8 bd 15 6a 7d 3b
       -0.028208518 0.049446788 -0.08243531 0.0038667966
0003d0 e6 f0 0c bd 65 93 c9 bc e1 07 31 bd 52 36 b4 bd
       -0.034409426 -0.024606416 -0.043220405 -0.08799423
0003e0 72 2f 0c 3d a9 53 e3 bc 17 33 8f 3c 07 e0 e1 3b
       0.034224935 -0.027749853 0.017480416 0.006893161
0003f0 d3 24 7d bd 95 fc 83 bd 1b c6 80 bd 83 7c c4 bc
       -0.061802696 -0.064446606 -0.062877856 -0.023985153

decoder.conv2.bias f4 [16]
000000 7c 34 20 3e f8 1f 40 bd 98 ba 43 bd c1 04 ec bc
       0.15645021 -0.046905488 -0.04778537 -0.02881086
000010 c6 0b 81 bc 87 61 1f 3d 4a e9 06 3d 7f 25 82 bd
       -0.015752684 0.03891137 0.032937326 -0.06354808
000020 b3 98 6a 3c 97 04 3a 3c ae 4a 95 bc b2 48 d3 bd
       0.014318633 0.011353633 -0.018224087 -0.103166
000030 3d 57 b5 3d 6d a5 22 3e f3 be 2e bd d8 22 09 be
       0.0885453 0.15883417 -0.042662572 -0.13392198

decoder.conv1.weight f4 [16, 1, 4]
000000 52 58 f5 be f1 ce e9 be ce 22 c0 be 17 1c 8c be
       -0.47918946 -0.45665696 -0.37526554 -0.2736518
000010 bf 1d ce be b8 7a 8a bd 8e dc 00 bd e3 74 11 be
       -0.4025707 -0.06761688 -0.031460337 -0.14204745
000020 b8 30 b1 be 43 3e 97 3e 08 52 42 3e 21 56 12 3e
       -0.34607482 0.2953969 0.18976605 0.14290668
000030 47 40 43 3e 95 90 d5 be 89 0c b1 3e af 97 9a be
       0.19067489 -0.4171187 0.34579876 -0.3019385
000040 b1 34 ad bd 88 f7 cf 3e d3 d8 ca be 36 05 b2 be
       -0.08457316 0.4061854 -0.3961855 -0.347696
000050 02 ae a1 3e 20 51 76 3e 9d 8a 8c be f5 a1 9d be
       0.3157807 0.24054384 -0.27449504 -0.30787626
000060 25 a3 a5 3e 07 e4 da be 01 f8 54 be 07 72 10 be
       0.32351032 -0.42752096 -0.20797731 -0.14105998
000070 6f 2b 21 be c1 ac d6 bd 8b ce 0c 3e f6 f8 d0 be
       -0.15739225 -0.10482169 0.13750665 -0.40814942
000080 a5 de e5 be ca f4 c4 3d 10 75 44 3d 02 fa 2d bd
       -0.44896427 0.09617002 0.047963202 -0.042474754
000090 38 b3 d4 3e ad f9 1c be 75 e6 47 bd 69 a7 9d 3e
       0.41542983 -0.15329619 -0.048803765 0.30791786
0000a0 6e 1a 9b be 23 4e a9 3e 18 59 7a bc 5a 57 e2 be
       -0.30293602 0.33067426 -0.015280031 -0.4420727
0000b0 90 50 b4 3e c5 b5 fb bd 94 9b 0b 3e 51 26 b6 be
       0.35217714 -0.12290529 0.13633567 -0.35576108
0000c0 0f 9b 12 3e c9 05 e5 be 2e 10 b1 be 10 83 1e 3d
       0.14316963 -0.44730976 -0.34582657 0.03869921
0000d0 2b 5d c5 be 62 11 f9 be f6 87 1f be 79 8c 9d 3d
       -0.38547644 -0.48646075 -0.15579209 0.07692809
0000e0 32 d2 d4 3e 1a 88 bb 3e 19 47 92 be d0 36 82 be
       0.41566616 0.36627275 -0.28569868 -0.25432444
0000f0 15 3f e4 3e 88 38 01 3e 9e 2e 80 be 19 04 e4 be
       0.44579378 0.12619221 -0.25035566 -0.44534376
